…
I0922 22:33:28.763988  2573 net.cpp:277] The NetState phase (0) differed from the phase (1) specified by a rule in layer seg-accuracy
I0922 22:33:28.764364  2573 net.cpp:39] Initializing net from parameters: 
name: "stage_1_training"
layers {
  top: "data"
  top: "seg-label"
  name: "data"
  type: IMAGE_SEG_DATA
  image_data_param {
    source: "./stage_1_train_imgset/train_reduced_07.txt"
    batch_size: 8
    shuffle: true
    new_height: 250
    new_width: 250
    root_folder: "./VOC2012"
    label_type: PIXEL
  }
  include {
    phase: TRAIN
  }
  transform_param {
    mirror: true
    crop_size: 224
    mean_value: 104.008
    mean_value: 116.669
    mean_value: 122.675
  }
}
layers {
  bottom: "data"
  top: "conv1_1"
  name: "conv1_1"
  type: CONVOLUTION
  blobs_lr: 1
  blobs_lr: 2
  weight_decay: 1
  weight_decay: 0
  convolution_param {
    num_output: 64
    pad: 1
    kernel_size: 3
  }
}
layers {
  bottom: "conv1_1"
  top: "conv1_1"
  name: "bn1_1"
  type: BN
  bn_param {
    scale_filler {
      type: "constant"
      value: 1
    }
    shift_filler {
      type: "constant"
      value: 0.001
    }
  }
}
layers {
  bottom: "conv1_1"
  top: "conv1_1"
  name: "relu1_1"
  type: RELU
}
layers {
  bottom: "conv1_1"
  top: "conv1_2"
  name: "conv1_2"
  type: CONVOLUTION
  blobs_lr: 1
  blobs_lr: 2
  weight_decay: 1
  weight_decay: 0
  convolution_param {
    num_output: 64
    pad: 1
    kernel_size: 3
  }
}
layers {
  bottom: "conv1_2"
  top: "conv1_2"
  name: "bn1_2"
  type: BN
  bn_param {
    scale_filler {
      type: "constant"
      value: 1
    }
    shift_filler {
      type: "constant"
      value: 0.001
    }
  }
}
layers {
  bottom: "conv1_2"
  top: "conv1_2"
  name: "relu1_2"
  type: RELU
}
layers {
  bottom: "conv1_2"
  top: "pool1"
  top: "pool1_mask"
  name: "pool1"
  type: POOLING
  pooling_param {
    pool: MAX
    kernel_size: 2
    stride: 2
  }
}
layers {
  bottom: "pool1"
  top: "conv2_1"
  name: "conv2_1"
  type: CONVOLUTION
  blobs_lr: 1
  blobs_lr: 2
  weight_decay: 1
  weight_decay: 0
  convolution_param {
    num_output: 128
    pad: 1
    kernel_size: 3
  }
}
layers {
  bottom: "conv2_1"
  top: "conv2_1"
  name: "bn2_1"
  type: BN
  bn_param {
    scale_filler {
      type: "constant"
      value: 1
    }
    shift_filler {
      type: "constant"
      value: 0.001
    }
  }
}
layers {
  bottom: "conv2_1"
  top: "conv2_1"
  name: "relu2_1"
  type: RELU
}
layers {
  bottom: "conv2_1"
  top: "conv2_2"
  name: "conv2_2"
  type: CONVOLUTION
  blobs_lr: 1
  blobs_lr: 2
  weight_decay: 1
  weight_decay: 0
  convolution_param {
    num_output: 128
    pad: 1
    kernel_size: 3
  }
}
layers {
  bottom: "conv2_2"
  top: "conv2_2"
  name: "bn2_2"
  type: BN
  bn_param {
    scale_filler {
      type: "constant"
      value: 1
    }
    shift_filler {
      type: "constant"
      value: 0.001
    }
  }
}
layers {
  bottom: "conv2_2"
  top: "conv2_2"
  name: "relu2_2"
  type: RELU
}
layers {
  bottom: "conv2_2"
  top: "pool2"
  top: "pool2_mask"
  name: "pool2"
  type: POOLING
  pooling_param {
    pool: MAX
    kernel_size: 2
    stride: 2
  }
}
layers {
  bottom: "pool2"
  top: "conv3_1"
  name: "conv3_1"
  type: CONVOLUTION
  blobs_lr: 1
  blobs_lr: 2
  weight_decay: 1
  weight_decay: 0
  convolution_param {
    num_output: 256
    pad: 1
    kernel_size: 3
  }
}
layers {
  bottom: "conv3_1"
  top: "conv3_1"
  name: "bn3_1"
  type: BN
  bn_param {
    scale_filler {
      type: "constant"
      value: 1
    }
    shift_filler {
      type: "constant"
      value: 0.001
    }
  }
}
layers {
  bottom: "conv3_1"
  top: "conv3_1"
  name: "relu3_1"
  type: RELU
}
layers {
  bottom: "conv3_1"
  top: "conv3_2"
  name: "conv3_2"
  type: CONVOLUTION
  blobs_lr: 1
  blobs_lr: 2
  weight_decay: 1
  weight_decay: 0
  convolution_param {
    num_output: 256
    pad: 1
    kernel_size: 3
  }
}
layers {
  bottom: "conv3_2"
  top: "conv3_2"
  name: "bn3_2"
  type: BN
  bn_param {
    scale_filler {
      type: "constant"
      value: 1
    }
    shift_filler {
      type: "constant"
      value: 0.001
    }
  }
}
layers {
  bottom: "conv3_2"
  top: "conv3_2"
  name: "relu3_2"
  type: RELU
}
layers {
  bottom: "conv3_2"
  top: "conv3_3"
  name: "conv3_3"
  type: CONVOLUTION
  blobs_lr: 1
  blobs_lr: 2
  weight_decay: 1
  weight_decay: 0
  convolution_param {
    num_output: 256
    pad: 1
    kernel_size: 3
  }
}
layers {
  bottom: "conv3_3"
  top: "conv3_3"
  name: "bn3_3"
  type: BN
  bn_param {
    scale_filler {
      type: "constant"
      value: 1
    }
    shift_filler {
      type: "constant"
      value: 0.001
    }
  }
}
layers {
  bottom: "conv3_3"
  top: "conv3_3"
  name: "relu3_3"
  type: RELU
}
layers {
  bottom: "conv3_3"
  top: "pool3"
  top: "pool3_mask"
  name: "pool3"
  type: POOLING
  pooling_param {
    pool: MAX
    kernel_size: 2
    stride: 2
  }
}
layers {
  bottom: "pool3"
  top: "conv4_1"
  name: "conv4_1"
  type: CONVOLUTION
  blobs_lr: 1
  blobs_lr: 2
  weight_decay: 1
  weight_decay: 0
  convolution_param {
    num_output: 512
    pad: 1
    kernel_size: 3
  }
}
layers {
  bottom: "conv4_1"
  top: "conv4_1"
  name: "bn4_1"
  type: BN
  bn_param {
    scale_filler {
      type: "constant"
      value: 1
    }
    shift_filler {
      type: "constant"
      value: 0.001
    }
  }
}
layers {
  bottom: "conv4_1"
  top: "conv4_1"
  name: "relu4_1"
  type: RELU
}
layers {
  bottom: "conv4_1"
  top: "conv4_2"
  name: "conv4_2"
  type: CONVOLUTION
  blobs_lr: 1
  blobs_lr: 2
  weight_decay: 1
  weight_decay: 0
  convolution_param {
    num_output: 512
    pad: 1
    kernel_size: 3
  }
}
layers {
  bottom: "conv4_2"
  top: "conv4_2"
  name: "bn4_2"
  type: BN
  bn_param {
    scale_filler {
      type: "constant"
      value: 1
    }
    shift_filler {
      type: "constant"
      value: 0.001
    }
  }
}
layers {
  bottom: "conv4_2"
  top: "conv4_2"
  name: "relu4_2"
  type: RELU
}
layers {
  bottom: "conv4_2"
  top: "conv4_3"
  name: "conv4_3"
  type: CONVOLUTION
  blobs_lr: 1
  blobs_lr: 2
  weight_decay: 1
  weight_decay: 0
  convolution_param {
    num_output: 512
    pad: 1
    kernel_size: 3
  }
}
layers {
  bottom: "conv4_3"
  top: "conv4_3"
  name: "bn4_3"
  type: BN
  bn_param {
    scale_filler {
      type: "constant"
      value: 1
    }
    shift_filler {
      type: "constant"
      value: 0.001
    }
  }
}
layers {
  bottom: "conv4_3"
  top: "conv4_3"
  name: "relu4_3"
  type: RELU
}
layers {
  bottom: "conv4_3"
  top: "pool4"
  top: "pool4_mask"
  name: "pool4"
  type: POOLING
  pooling_param {
    pool: MAX
    kernel_size: 2
    stride: 2
  }
}
layers {
  bottom: "pool4"
  top: "conv5_1"
  name: "conv5_1"
  type: CONVOLUTION
  blobs_lr: 1
  blobs_lr: 2
  weight_decay: 1
  weight_decay: 0
  convolution_param {
    num_output: 512
    pad: 1
    kernel_size: 3
  }
}
layers {
  bottom: "conv5_1"
  top: "conv5_1"
  name: "bn5_1"
  type: BN
  bn_param {
    scale_filler {
      type: "constant"
      value: 1
    }
    shift_filler {
      type: "constant"
      value: 0.001
    }
  }
}
layers {
  bottom: "conv5_1"
  top: "conv5_1"
  name: "relu5_1"
  type: RELU
}
layers {
  bottom: "conv5_1"
  top: "conv5_2"
  name: "conv5_2"
  type: CONVOLUTION
  blobs_lr: 1
  blobs_lr: 2
  weight_decay: 1
  weight_decay: 0
  convolution_param {
    num_output: 512
    pad: 1
    kernel_size: 3
  }
}
layers {
  bottom: "conv5_2"
  top: "conv5_2"
  name: "bn5_2"
  type: BN
  bn_param {
    scale_filler {
      type: "constant"
      value: 1
    }
    shift_filler {
      type: "constant"
      value: 0.001
    }
  }
}
layers {
  bottom: "conv5_2"
  top: "conv5_2"
  name: "relu5_2"
  type: RELU
}
layers {
  bottom: "conv5_2"
  top: "conv5_3"
  name: "conv5_3"
  type: CONVOLUTION
  blobs_lr: 1
  blobs_lr: 2
  weight_decay: 1
  weight_decay: 0
  convolution_param {
    num_output: 512
    pad: 1
    kernel_size: 3
  }
}
layers {
  bottom: "conv5_3"
  top: "conv5_3"
  name: "bn5_3"
  type: BN
  bn_param {
    scale_filler {
      type: "constant"
      value: 1
    }
    shift_filler {
      type: "constant"
      value: 0.001
    }
  }
}
layers {
  bottom: "conv5_3"
  top: "conv5_3"
  name: "relu5_3"
  type: RELU
}
layers {
  bottom: "conv5_3"
  top: "pool5"
  top: "pool5_mask"
  name: "pool5"
  type: POOLING
  pooling_param {
    pool: MAX
    kernel_size: 2
    stride: 2
  }
}
layers {
  bottom: "pool5"
  top: "fc6"
  name: "fc6"
  type: CONVOLUTION
  blobs_lr: 1
  blobs_lr: 2
  weight_decay: 1
  weight_decay: 0
  convolution_param {
    num_output: 4096
    kernel_size: 7
  }
}
layers {
  bottom: "fc6"
  top: "fc6"
  name: "bnfc6"
  type: BN
  bn_param {
    scale_filler {
      type: "constant"
      value: 1
    }
    shift_filler {
      type: "constant"
      value: 0.001
    }
  }
}
layers {
  bottom: "fc6"
  top: "fc6"
  name: "relu6"
  type: RELU
}
layers {
  bottom: "fc6"
  top: "fc7"
  name: "fc7"
  type: CONVOLUTION
  blobs_lr: 1
  blobs_lr: 2
  weight_decay: 1
  weight_decay: 0
  convolution_param {
    num_output: 4096
    kernel_size: 1
  }
}
layers {
  bottom: "fc7"
  top: "fc7"
  name: "bnfc7"
  type: BN
  bn_param {
    scale_filler {
      type: "constant"
      value: 1
    }
    shift_filler {
      type: "constant"
      value: 0.001
    }
  }
}
layers {
  bottom: "fc7"
  top: "fc7"
  name: "relu7"
  type: RELU
}
layers {
  bottom: "fc7"
  top: "fc6-deconv"
  name: "fc6-deconv"
  type: DECONVOLUTION
  blobs_lr: 1
  blobs_lr: 2
  weight_decay: 1
  weight_decay: 0
  convolution_param {
    num_output: 512
    kernel_size: 7
    weight_filler {
      type: "gaussian"
      std: 0.01
    }
    bias_filler {
      type: "constant"
      value: 0
    }
  }
}
layers {
  bottom: "fc6-deconv"
  top: "fc6-deconv"
  name: "fc6-deconv-bn"
  type: BN
  bn_param {
    scale_filler {
      type: "constant"
      value: 1
    }
    shift_filler {
      type: "constant"
      value: 0.001
    }
  }
}
layers {
  bottom: "fc6-deconv"
  top: "fc6-deconv"
  name: "fc6-deconv-relu"
  type: RELU
}
layers {
  bottom: "fc6-deconv"
  bottom: "pool5_mask"
  top: "unpool5"
  name: "unpool5"
  type: UNPOOLING
  unpooling_param {
    unpool: MAX
    kernel_size: 2
    stride: 2
    unpool_size: 14
  }
}
layers {
  bottom: "unpool5"
  top: "deconv5_1"
  name: "deconv5_1"
  type: DECONVOLUTION
  blobs_lr: 1
  blobs_lr: 2
  weight_decay: 1
  weight_decay: 0
  convolution_param {
    num_output: 512
    pad: 1
    kernel_size: 3
    weight_filler {
      type: "gaussian"
      std: 0.01
    }
    bias_filler {
      type: "constant"
      value: 0
    }
  }
}
layers {
  bottom: "deconv5_1"
  top: "deconv5_1"
  name: "debn5_1"
  type: BN
  bn_param {
    scale_filler {
      type: "constant"
      value: 1
    }
    shift_filler {
      type: "constant"
      value: 0.001
    }
  }
}
layers {
  bottom: "deconv5_1"
  top: "deconv5_1"
  name: "derelu5_1"
  type: RELU
}
layers {
  bottom: "deconv5_1"
  top: "deconv5_2"
  name: "deconv5_2"
  type: DECONVOLUTION
  blobs_lr: 1
  blobs_lr: 2
  weight_decay: 1
  weight_decay: 0
  convolution_param {
    num_output: 512
    pad: 1
    kernel_size: 3
    weight_filler {
      type: "gaussian"
      std: 0.01
    }
    bias_filler {
      type: "constant"
      value: 0
    }
  }
}
layers {
  bottom: "deconv5_2"
  top: "deconv5_2"
  name: "debn5_2"
  type: BN
  bn_param {
    scale_filler {
      type: "constant"
      value: 1
    }
    shift_filler {
      type: "constant"
      value: 0.001
    }
  }
}
layers {
  bottom: "deconv5_2"
  top: "deconv5_2"
  name: "derelu5_2"
  type: RELU
}
layers {
  bottom: "deconv5_2"
  top: "deconv5_3"
  name: "deconv5_3"
  type: DECONVOLUTION
  blobs_lr: 1
  blobs_lr: 2
  weight_decay: 1
  weight_decay: 0
  convolution_param {
    num_output: 512
    pad: 1
    kernel_size: 3
    weight_filler {
      type: "gaussian"
      std: 0.01
    }
    bias_filler {
      type: "constant"
      value: 0
    }
  }
}
layers {
  bottom: "deconv5_3"
  top: "deconv5_3"
  name: "debn5_3"
  type: BN
  bn_param {
    scale_filler {
      type: "constant"
      value: 1
    }
    shift_filler {
      type: "constant"
      value: 0.001
    }
  }
}
layers {
  bottom: "deconv5_3"
  top: "deconv5_3"
  name: "derelu5_3"
  type: RELU
}
layers {
  bottom: "deconv5_3"
  bottom: "pool4_mask"
  top: "unpool4"
  name: "unpool4"
  type: UNPOOLING
  unpooling_param {
    unpool: MAX
    kernel_size: 2
    stride: 2
    unpool_size: 28
  }
}
layers {
  bottom: "unpool4"
  top: "deconv4_1"
  name: "deconv4_1"
  type: DECONVOLUTION
  blobs_lr: 1
  blobs_lr: 2
  weight_decay: 1
  weight_decay: 0
  convolution_param {
    num_output: 512
    pad: 1
    kernel_size: 3
    weight_filler {
      type: "gaussian"
      std: 0.01
    }
    bias_filler {
      type: "constant"
      value: 0
    }
  }
}
layers {
  bottom: "deconv4_1"
  top: "deconv4_1"
  name: "debn4_1"
  type: BN
  bn_param {
    scale_filler {
      type: "constant"
      value: 1
    }
    shift_filler {
      type: "constant"
      value: 0.001
    }
  }
}
layers {
  bottom: "deconv4_1"
  top: "deconv4_1"
  name: "derelu4_1"
  type: RELU
}
layers {
  bottom: "deconv4_1"
  top: "deconv4_2"
  name: "deconv4_2"
  type: DECONVOLUTION
  blobs_lr: 1
  blobs_lr: 2
  weight_decay: 1
  weight_decay: 0
  convolution_param {
    num_output: 512
    pad: 1
    kernel_size: 3
    weight_filler {
      type: "gaussian"
      std: 0.01
    }
    bias_filler {
      type: "constant"
      value: 0
    }
  }
}
layers {
  bottom: "deconv4_2"
  top: "deconv4_2"
  name: "debn4_2"
  type: BN
  bn_param {
    scale_filler {
      type: "constant"
      value: 1
    }
    shift_filler {
      type: "constant"
      value: 0.001
    }
  }
}
layers {
  bottom: "deconv4_2"
  top: "deconv4_2"
  name: "derelu4_2"
  type: RELU
}
layers {
  bottom: "deconv4_2"
  top: "deconv4_3"
  name: "deconv4_3"
  type: DECONVOLUTION
  blobs_lr: 1
  blobs_lr: 2
  weight_decay: 1
  weight_decay: 0
  convolution_param {
    num_output: 256
    pad: 1
    kernel_size: 3
    weight_filler {
      type: "gaussian"
      std: 0.01
    }
    bias_filler {
      type: "constant"
      value: 0
    }
  }
}
layers {
  bottom: "deconv4_3"
  top: "deconv4_3"
  name: "debn4_3"
  type: BN
  bn_param {
    scale_filler {
      type: "constant"
      value: 1
    }
    shift_filler {
      type: "constant"
      value: 0.001
    }
  }
}
layers {
  bottom: "deconv4_3"
  top: "deconv4_3"
  name: "derelu4_3"
  type: RELU
}
layers {
  bottom: "deconv4_3"
  bottom: "pool3_mask"
  top: "unpool3"
  name: "unpool3"
  type: UNPOOLING
  unpooling_param {
    unpool: MAX
    kernel_size: 2
    stride: 2
    unpool_size: 56
  }
}
layers {
  bottom: "unpool3"
  top: "deconv3_1"
  name: "deconv3_1"
  type: DECONVOLUTION
  blobs_lr: 1
  blobs_lr: 2
  weight_decay: 1
  weight_decay: 0
  convolution_param {
    num_output: 256
    pad: 1
    kernel_size: 3
    weight_filler {
      type: "gaussian"
      std: 0.01
    }
    bias_filler {
      type: "constant"
      value: 0
    }
  }
}
layers {
  bottom: "deconv3_1"
  top: "deconv3_1"
  name: "debn3_1"
  type: BN
  bn_param {
    scale_filler {
      type: "constant"
      value: 1
    }
    shift_filler {
      type: "constant"
      value: 0.001
    }
  }
}
layers {
  bottom: "deconv3_1"
  top: "deconv3_1"
  name: "derelu3_1"
  type: RELU
}
layers {
  bottom: "deconv3_1"
  top: "deconv3_2"
  name: "deconv3_2"
  type: DECONVOLUTION
  blobs_lr: 1
  blobs_lr: 2
  weight_decay: 1
  weight_decay: 0
  convolution_param {
    num_output: 256
    pad: 1
    kernel_size: 3
    weight_filler {
      type: "gaussian"
      std: 0.01
    }
    bias_filler {
      type: "constant"
      value: 0
    }
  }
}
layers {
  bottom: "deconv3_2"
  top: "deconv3_2"
  name: "debn3_2"
  type: BN
  bn_param {
    scale_filler {
      type: "constant"
      value: 1
    }
    shift_filler {
      type: "constant"
      value: 0.001
    }
  }
}
layers {
  bottom: "deconv3_2"
  top: "deconv3_2"
  name: "derelu3_2"
  type: RELU
}
layers {
  bottom: "deconv3_2"
  top: "deconv3_3"
  name: "deconv3_3"
  type: DECONVOLUTION
  blobs_lr: 1
  blobs_lr: 2
  weight_decay: 1
  weight_decay: 0
  convolution_param {
    num_output: 128
    pad: 1
    kernel_size: 3
    weight_filler {
      type: "gaussian"
      std: 0.01
    }
    bias_filler {
      type: "constant"
      value: 0
    }
  }
}
layers {
  bottom: "deconv3_3"
  top: "deconv3_3"
  name: "debn3_3"
  type: BN
  bn_param {
    scale_filler {
      type: "constant"
      value: 1
    }
    shift_filler {
      type: "constant"
      value: 0.001
    }
  }
}
layers {
  bottom: "deconv3_3"
  top: "deconv3_3"
  name: "derelu3_3"
  type: RELU
}
layers {
  bottom: "deconv3_3"
  bottom: "pool2_mask"
  top: "unpool2"
  name: "unpool2"
  type: UNPOOLING
  unpooling_param {
    unpool: MAX
    kernel_size: 2
    stride: 2
    unpool_size: 112
  }
}
layers {
  bottom: "unpool2"
  top: "deconv2_1"
  name: "deconv2_1"
  type: DECONVOLUTION
  blobs_lr: 1
  blobs_lr: 2
  weight_decay: 1
  weight_decay: 0
  convolution_param {
    num_output: 128
    pad: 1
    kernel_size: 3
    weight_filler {
      type: "gaussian"
      std: 0.01
    }
    bias_filler {
      type: "constant"
      value: 0
    }
  }
}
layers {
  bottom: "deconv2_1"
  top: "deconv2_1"
  name: "debn2_1"
  type: BN
  bn_param {
    scale_filler {
      type: "constant"
      value: 1
    }
    shift_filler {
      type: "constant"
      value: 0.001
    }
  }
}
layers {
  bottom: "deconv2_1"
  top: "deconv2_1"
  name: "derelu2_1"
  type: RELU
}
layers {
  bottom: "deconv2_1"
  top: "deconv2_2"
  name: "deconv2_2"
  type: DECONVOLUTION
  blobs_lr: 1
  blobs_lr: 2
  weight_decay: 1
  weight_decay: 0
  convolution_param {
    num_output: 64
    pad: 1
    kernel_size: 3
    weight_filler {
      type: "gaussian"
      std: 0.01
    }
    bias_filler {
      type: "constant"
      value: 0
    }
  }
}
layers {
  bottom: "deconv2_2"
  top: "deconv2_2"
  name: "debn2_2"
  type: BN
  bn_param {
    scale_filler {
      type: "constant"
      value: 1
    }
    shift_filler {
      type: "constant"
      value: 0.001
    }
  }
}
layers {
  bottom: "deconv2_2"
  top: "deconv2_2"
  name: "derelu2_2"
  type: RELU
}
layers {
  bottom: "deconv2_2"
  bottom: "pool1_mask"
  top: "unpool1"
  name: "unpool1"
  type: UNPOOLING
  unpooling_param {
    unpool: MAX
    kernel_size: 2
    stride: 2
    unpool_size: 224
  }
}
layers {
  bottom: "unpool1"
  top: "deconv1_1"
  name: "deconv1_1"
  type: DECONVOLUTION
  blobs_lr: 1
  blobs_lr: 2
  weight_decay: 1
  weight_decay: 0
  convolution_param {
    num_output: 64
    pad: 1
    kernel_size: 3
    weight_filler {
      type: "gaussian"
      std: 0.01
    }
    bias_filler {
      type: "constant"
      value: 0
    }
  }
}
layers {
  bottom: "deconv1_1"
  top: "deconv1_1"
  name: "debn1_1"
  type: BN
  bn_param {
    scale_filler {
      type: "constant"
      value: 1
    }
    shift_filler {
      type: "constant"
      value: 0.001
    }
  }
}
layers {
  bottom: "deconv1_1"
  top: "deconv1_1"
  name: "derelu1_1"
  type: RELU
}
layers {
  bottom: "deconv1_1"
  top: "deconv1_2"
  name: "deconv1_2"
  type: DECONVOLUTION
  blobs_lr: 1
  blobs_lr: 2
  weight_decay: 1
  weight_decay: 0
  convolution_param {
    num_output: 64
    pad: 1
    kernel_size: 3
    weight_filler {
      type: "gaussian"
      std: 0.01
    }
    bias_filler {
      type: "constant"
      value: 0
    }
  }
}
layers {
  bottom: "deconv1_2"
  top: "deconv1_2"
  name: "debn1_2"
  type: BN
  bn_param {
    scale_filler {
      type: "constant"
      value: 1
    }
    shift_filler {
      type: "constant"
      value: 0.001
    }
  }
}
layers {
  bottom: "deconv1_2"
  top: "deconv1_2"
  name: "derelu1_2"
  type: RELU
}
layers {
  bottom: "deconv1_2"
  top: "seg-score"
  name: "seg-score-voc"
  type: CONVOLUTION
  blobs_lr: 1
  blobs_lr: 2
  weight_decay: 1
  weight_decay: 0
  convolution_param {
    num_output: 21
    kernel_size: 1
    weight_filler {
      type: "gaussian"
      std: 0.01
    }
    bias_filler {
      type: "constant"
      value: 0
    }
  }
}
layers {
  bottom: "seg-score"
  bottom: "seg-label"
  top: "seg-loss"
  name: "seg-loss"
  type: SOFTMAX_LOSS
  loss_param {
    ignore_label: 255
  }
}
state {
  phase: TRAIN
}
I0922 22:33:28.767030  2573 layer_factory.hpp:78] Creating layer data
I0922 22:33:28.767076  2573 net.cpp:69] Creating Layer data
I0922 22:33:28.767083  2573 net.cpp:358] data -> data
I0922 22:33:28.767097  2573 net.cpp:358] data -> seg-label
I0922 22:33:28.767114  2573 net.cpp:358] data -> (automatic)
I0922 22:33:28.767120  2573 net.cpp:98] Setting up data
I0922 22:33:28.767135  2573 image_seg_data_layer.cpp:51] Opening file ./stage_1_train_imgset/train_reduced_07.txt
I0922 22:33:28.803163  2573 image_seg_data_layer.cpp:68] Shuffling data
I0922 22:33:28.810369  2573 image_seg_data_layer.cpp:73] A total of 53412 images.
I0922 22:33:28.813146  2573 image_seg_data_layer.cpp:119] output data size: 8,3,224,224
I0922 22:33:28.813174  2573 image_seg_data_layer.cpp:123] output label size: 8,1,224,224
I0922 22:33:28.813179  2573 image_seg_data_layer.cpp:127] output data_dim size: 8,1,1,2
I0922 22:33:28.813923  2573 net.cpp:105] Top shape: 8 3 224 224 (1204224)
I0922 22:33:28.813940  2573 net.cpp:105] Top shape: 8 1 224 224 (401408)
I0922 22:33:28.813954  2573 net.cpp:105] Top shape: 8 1 1 2 (16)
I0922 22:33:28.813961  2573 layer_factory.hpp:78] Creating layer conv1_1
I0922 22:33:28.813972  2573 net.cpp:69] Creating Layer conv1_1
I0922 22:33:28.813977  2573 net.cpp:396] conv1_1 <- data
I0922 22:33:28.813988  2573 net.cpp:358] conv1_1 -> conv1_1
I0922 22:33:28.813999  2573 net.cpp:98] Setting up conv1_1
I0922 22:33:28.814056  2573 net.cpp:105] Top shape: 8 64 224 224 (25690112)
I0922 22:33:28.814079  2573 layer_factory.hpp:78] Creating layer bn1_1
I0922 22:33:28.814091  2573 net.cpp:69] Creating Layer bn1_1
I0922 22:33:28.814097  2573 net.cpp:396] bn1_1 <- conv1_1
I0922 22:33:28.814105  2573 net.cpp:347] bn1_1 -> conv1_1 (in-place)
I0922 22:33:28.814112  2573 net.cpp:98] Setting up bn1_1
I0922 22:33:28.814195  2573 net.cpp:105] Top shape: 8 64 224 224 (25690112)
I0922 22:33:28.814215  2573 layer_factory.hpp:78] Creating layer relu1_1
I0922 22:33:28.814223  2573 net.cpp:69] Creating Layer relu1_1
I0922 22:33:28.814227  2573 net.cpp:396] relu1_1 <- conv1_1
I0922 22:33:28.814232  2573 net.cpp:347] relu1_1 -> conv1_1 (in-place)
I0922 22:33:28.814239  2573 net.cpp:98] Setting up relu1_1
I0922 22:33:28.814247  2573 net.cpp:105] Top shape: 8 64 224 224 (25690112)
I0922 22:33:28.814252  2573 layer_factory.hpp:78] Creating layer conv1_2
I0922 22:33:28.814260  2573 net.cpp:69] Creating Layer conv1_2
I0922 22:33:28.814263  2573 net.cpp:396] conv1_2 <- conv1_1
I0922 22:33:28.814270  2573 net.cpp:358] conv1_2 -> conv1_2
I0922 22:33:28.814276  2573 net.cpp:98] Setting up conv1_2
I0922 22:33:28.814354  2573 net.cpp:105] Top shape: 8 64 224 224 (25690112)
I0922 22:33:28.814364  2573 layer_factory.hpp:78] Creating layer bn1_2
I0922 22:33:28.814371  2573 net.cpp:69] Creating Layer bn1_2
I0922 22:33:28.814376  2573 net.cpp:396] bn1_2 <- conv1_2
I0922 22:33:28.814383  2573 net.cpp:347] bn1_2 -> conv1_2 (in-place)
I0922 22:33:28.814389  2573 net.cpp:98] Setting up bn1_2
I0922 22:33:28.814468  2573 net.cpp:105] Top shape: 8 64 224 224 (25690112)
I0922 22:33:28.814476  2573 layer_factory.hpp:78] Creating layer relu1_2
I0922 22:33:28.814482  2573 net.cpp:69] Creating Layer relu1_2
I0922 22:33:28.814488  2573 net.cpp:396] relu1_2 <- conv1_2
I0922 22:33:28.814494  2573 net.cpp:347] relu1_2 -> conv1_2 (in-place)
I0922 22:33:28.814501  2573 net.cpp:98] Setting up relu1_2
I0922 22:33:28.814505  2573 net.cpp:105] Top shape: 8 64 224 224 (25690112)
I0922 22:33:28.814510  2573 layer_factory.hpp:78] Creating layer pool1
I0922 22:33:28.814517  2573 net.cpp:69] Creating Layer pool1
I0922 22:33:28.814522  2573 net.cpp:396] pool1 <- conv1_2
I0922 22:33:28.814548  2573 net.cpp:358] pool1 -> pool1
I0922 22:33:28.814556  2573 net.cpp:358] pool1 -> pool1_mask
I0922 22:33:28.814563  2573 net.cpp:98] Setting up pool1
I0922 22:33:28.814594  2573 net.cpp:105] Top shape: 8 64 112 112 (6422528)
I0922 22:33:28.814601  2573 net.cpp:105] Top shape: 8 64 112 112 (6422528)
I0922 22:33:28.814606  2573 layer_factory.hpp:78] Creating layer conv2_1
I0922 22:33:28.814613  2573 net.cpp:69] Creating Layer conv2_1
I0922 22:33:28.814618  2573 net.cpp:396] conv2_1 <- pool1
I0922 22:33:28.814625  2573 net.cpp:358] conv2_1 -> conv2_1
I0922 22:33:28.814631  2573 net.cpp:98] Setting up conv2_1
I0922 22:33:28.814759  2573 net.cpp:105] Top shape: 8 128 112 112 (12845056)
I0922 22:33:28.814771  2573 layer_factory.hpp:78] Creating layer bn2_1
I0922 22:33:28.814779  2573 net.cpp:69] Creating Layer bn2_1
I0922 22:33:28.814785  2573 net.cpp:396] bn2_1 <- conv2_1
I0922 22:33:28.814791  2573 net.cpp:347] bn2_1 -> conv2_1 (in-place)
I0922 22:33:28.814797  2573 net.cpp:98] Setting up bn2_1
I0922 22:33:28.814848  2573 net.cpp:105] Top shape: 8 128 112 112 (12845056)
I0922 22:33:28.814857  2573 layer_factory.hpp:78] Creating layer relu2_1
I0922 22:33:28.814867  2573 net.cpp:69] Creating Layer relu2_1
I0922 22:33:28.814872  2573 net.cpp:396] relu2_1 <- conv2_1
I0922 22:33:28.814878  2573 net.cpp:347] relu2_1 -> conv2_1 (in-place)
I0922 22:33:28.814884  2573 net.cpp:98] Setting up relu2_1
I0922 22:33:28.814890  2573 net.cpp:105] Top shape: 8 128 112 112 (12845056)
I0922 22:33:28.814895  2573 layer_factory.hpp:78] Creating layer conv2_2
I0922 22:33:28.814903  2573 net.cpp:69] Creating Layer conv2_2
I0922 22:33:28.814908  2573 net.cpp:396] conv2_2 <- conv2_1
I0922 22:33:28.814914  2573 net.cpp:358] conv2_2 -> conv2_2
I0922 22:33:28.814920  2573 net.cpp:98] Setting up conv2_2
I0922 22:33:28.815148  2573 net.cpp:105] Top shape: 8 128 112 112 (12845056)
I0922 22:33:28.815160  2573 layer_factory.hpp:78] Creating layer bn2_2
I0922 22:33:28.815166  2573 net.cpp:69] Creating Layer bn2_2
I0922 22:33:28.815171  2573 net.cpp:396] bn2_2 <- conv2_2
I0922 22:33:28.815177  2573 net.cpp:347] bn2_2 -> conv2_2 (in-place)
I0922 22:33:28.815184  2573 net.cpp:98] Setting up bn2_2
I0922 22:33:28.815222  2573 net.cpp:105] Top shape: 8 128 112 112 (12845056)
I0922 22:33:28.815230  2573 layer_factory.hpp:78] Creating layer relu2_2
I0922 22:33:28.815237  2573 net.cpp:69] Creating Layer relu2_2
I0922 22:33:28.815243  2573 net.cpp:396] relu2_2 <- conv2_2
I0922 22:33:28.815251  2573 net.cpp:347] relu2_2 -> conv2_2 (in-place)
I0922 22:33:28.815258  2573 net.cpp:98] Setting up relu2_2
I0922 22:33:28.815263  2573 net.cpp:105] Top shape: 8 128 112 112 (12845056)
I0922 22:33:28.815268  2573 layer_factory.hpp:78] Creating layer pool2
I0922 22:33:28.815274  2573 net.cpp:69] Creating Layer pool2
I0922 22:33:28.815280  2573 net.cpp:396] pool2 <- conv2_2
I0922 22:33:28.815286  2573 net.cpp:358] pool2 -> pool2
I0922 22:33:28.815294  2573 net.cpp:358] pool2 -> pool2_mask
I0922 22:33:28.815300  2573 net.cpp:98] Setting up pool2
I0922 22:33:28.815306  2573 net.cpp:105] Top shape: 8 128 56 56 (3211264)
I0922 22:33:28.815311  2573 net.cpp:105] Top shape: 8 128 56 56 (3211264)
I0922 22:33:28.815316  2573 layer_factory.hpp:78] Creating layer conv3_1
I0922 22:33:28.815323  2573 net.cpp:69] Creating Layer conv3_1
I0922 22:33:28.815328  2573 net.cpp:396] conv3_1 <- pool2
I0922 22:33:28.815335  2573 net.cpp:358] conv3_1 -> conv3_1
I0922 22:33:28.815341  2573 net.cpp:98] Setting up conv3_1
I0922 22:33:28.815734  2573 net.cpp:105] Top shape: 8 256 56 56 (6422528)
I0922 22:33:28.815747  2573 layer_factory.hpp:78] Creating layer bn3_1
I0922 22:33:28.815757  2573 net.cpp:69] Creating Layer bn3_1
I0922 22:33:28.815763  2573 net.cpp:396] bn3_1 <- conv3_1
I0922 22:33:28.815770  2573 net.cpp:347] bn3_1 -> conv3_1 (in-place)
I0922 22:33:28.815776  2573 net.cpp:98] Setting up bn3_1
I0922 22:33:28.815796  2573 net.cpp:105] Top shape: 8 256 56 56 (6422528)
I0922 22:33:28.815804  2573 layer_factory.hpp:78] Creating layer relu3_1
I0922 22:33:28.815820  2573 net.cpp:69] Creating Layer relu3_1
I0922 22:33:28.815826  2573 net.cpp:396] relu3_1 <- conv3_1
I0922 22:33:28.815834  2573 net.cpp:347] relu3_1 -> conv3_1 (in-place)
I0922 22:33:28.815840  2573 net.cpp:98] Setting up relu3_1
I0922 22:33:28.815845  2573 net.cpp:105] Top shape: 8 256 56 56 (6422528)
I0922 22:33:28.815851  2573 layer_factory.hpp:78] Creating layer conv3_2
I0922 22:33:28.815857  2573 net.cpp:69] Creating Layer conv3_2
I0922 22:33:28.815862  2573 net.cpp:396] conv3_2 <- conv3_1
I0922 22:33:28.815868  2573 net.cpp:358] conv3_2 -> conv3_2
I0922 22:33:28.815875  2573 net.cpp:98] Setting up conv3_2
I0922 22:33:28.816586  2573 net.cpp:105] Top shape: 8 256 56 56 (6422528)
I0922 22:33:28.816607  2573 layer_factory.hpp:78] Creating layer bn3_2
I0922 22:33:28.816615  2573 net.cpp:69] Creating Layer bn3_2
I0922 22:33:28.816620  2573 net.cpp:396] bn3_2 <- conv3_2
I0922 22:33:28.816627  2573 net.cpp:347] bn3_2 -> conv3_2 (in-place)
I0922 22:33:28.816633  2573 net.cpp:98] Setting up bn3_2
I0922 22:33:28.816645  2573 net.cpp:105] Top shape: 8 256 56 56 (6422528)
I0922 22:33:28.816653  2573 layer_factory.hpp:78] Creating layer relu3_2
I0922 22:33:28.816668  2573 net.cpp:69] Creating Layer relu3_2
I0922 22:33:28.816682  2573 net.cpp:396] relu3_2 <- conv3_2
I0922 22:33:28.816687  2573 net.cpp:347] relu3_2 -> conv3_2 (in-place)
I0922 22:33:28.816694  2573 net.cpp:98] Setting up relu3_2
I0922 22:33:28.816699  2573 net.cpp:105] Top shape: 8 256 56 56 (6422528)
I0922 22:33:28.816702  2573 layer_factory.hpp:78] Creating layer conv3_3
I0922 22:33:28.816710  2573 net.cpp:69] Creating Layer conv3_3
I0922 22:33:28.816715  2573 net.cpp:396] conv3_3 <- conv3_2
I0922 22:33:28.816721  2573 net.cpp:358] conv3_3 -> conv3_3
I0922 22:33:28.816726  2573 net.cpp:98] Setting up conv3_3
I0922 22:33:28.817574  2573 net.cpp:105] Top shape: 8 256 56 56 (6422528)
I0922 22:33:28.817596  2573 layer_factory.hpp:78] Creating layer bn3_3
I0922 22:33:28.817603  2573 net.cpp:69] Creating Layer bn3_3
I0922 22:33:28.817608  2573 net.cpp:396] bn3_3 <- conv3_3
I0922 22:33:28.817615  2573 net.cpp:347] bn3_3 -> conv3_3 (in-place)
I0922 22:33:28.817620  2573 net.cpp:98] Setting up bn3_3
I0922 22:33:28.817636  2573 net.cpp:105] Top shape: 8 256 56 56 (6422528)
I0922 22:33:28.817652  2573 layer_factory.hpp:78] Creating layer relu3_3
I0922 22:33:28.817668  2573 net.cpp:69] Creating Layer relu3_3
I0922 22:33:28.817673  2573 net.cpp:396] relu3_3 <- conv3_3
I0922 22:33:28.817678  2573 net.cpp:347] relu3_3 -> conv3_3 (in-place)
I0922 22:33:28.817683  2573 net.cpp:98] Setting up relu3_3
I0922 22:33:28.817689  2573 net.cpp:105] Top shape: 8 256 56 56 (6422528)
I0922 22:33:28.817694  2573 layer_factory.hpp:78] Creating layer pool3
I0922 22:33:28.817701  2573 net.cpp:69] Creating Layer pool3
I0922 22:33:28.817706  2573 net.cpp:396] pool3 <- conv3_3
I0922 22:33:28.817713  2573 net.cpp:358] pool3 -> pool3
I0922 22:33:28.817720  2573 net.cpp:358] pool3 -> pool3_mask
I0922 22:33:28.817726  2573 net.cpp:98] Setting up pool3
I0922 22:33:28.817733  2573 net.cpp:105] Top shape: 8 256 28 28 (1605632)
I0922 22:33:28.817736  2573 net.cpp:105] Top shape: 8 256 28 28 (1605632)
I0922 22:33:28.817741  2573 layer_factory.hpp:78] Creating layer conv4_1
I0922 22:33:28.817746  2573 net.cpp:69] Creating Layer conv4_1
I0922 22:33:28.817751  2573 net.cpp:396] conv4_1 <- pool3
I0922 22:33:28.817759  2573 net.cpp:358] conv4_1 -> conv4_1
I0922 22:33:28.817767  2573 net.cpp:98] Setting up conv4_1
I0922 22:33:28.819026  2573 net.cpp:105] Top shape: 8 512 28 28 (3211264)
I0922 22:33:28.819058  2573 layer_factory.hpp:78] Creating layer bn4_1
I0922 22:33:28.819067  2573 net.cpp:69] Creating Layer bn4_1
I0922 22:33:28.819073  2573 net.cpp:396] bn4_1 <- conv4_1
I0922 22:33:28.819080  2573 net.cpp:347] bn4_1 -> conv4_1 (in-place)
I0922 22:33:28.819087  2573 net.cpp:98] Setting up bn4_1
I0922 22:33:28.819100  2573 net.cpp:105] Top shape: 8 512 28 28 (3211264)
I0922 22:33:28.819108  2573 layer_factory.hpp:78] Creating layer relu4_1
I0922 22:33:28.819113  2573 net.cpp:69] Creating Layer relu4_1
I0922 22:33:28.819136  2573 net.cpp:396] relu4_1 <- conv4_1
I0922 22:33:28.819144  2573 net.cpp:347] relu4_1 -> conv4_1 (in-place)
I0922 22:33:28.819149  2573 net.cpp:98] Setting up relu4_1
I0922 22:33:28.819155  2573 net.cpp:105] Top shape: 8 512 28 28 (3211264)
I0922 22:33:28.819160  2573 layer_factory.hpp:78] Creating layer conv4_2
I0922 22:33:28.819169  2573 net.cpp:69] Creating Layer conv4_2
I0922 22:33:28.819174  2573 net.cpp:396] conv4_2 <- conv4_1
I0922 22:33:28.819180  2573 net.cpp:358] conv4_2 -> conv4_2
I0922 22:33:28.819186  2573 net.cpp:98] Setting up conv4_2
I0922 22:33:28.821233  2573 net.cpp:105] Top shape: 8 512 28 28 (3211264)
I0922 22:33:28.821283  2573 layer_factory.hpp:78] Creating layer bn4_2
I0922 22:33:28.821295  2573 net.cpp:69] Creating Layer bn4_2
I0922 22:33:28.821300  2573 net.cpp:396] bn4_2 <- conv4_2
I0922 22:33:28.821307  2573 net.cpp:347] bn4_2 -> conv4_2 (in-place)
I0922 22:33:28.821316  2573 net.cpp:98] Setting up bn4_2
I0922 22:33:28.821331  2573 net.cpp:105] Top shape: 8 512 28 28 (3211264)
I0922 22:33:28.821337  2573 layer_factory.hpp:78] Creating layer relu4_2
I0922 22:33:28.821344  2573 net.cpp:69] Creating Layer relu4_2
I0922 22:33:28.821349  2573 net.cpp:396] relu4_2 <- conv4_2
I0922 22:33:28.821354  2573 net.cpp:347] relu4_2 -> conv4_2 (in-place)
I0922 22:33:28.821360  2573 net.cpp:98] Setting up relu4_2
I0922 22:33:28.821365  2573 net.cpp:105] Top shape: 8 512 28 28 (3211264)
I0922 22:33:28.821370  2573 layer_factory.hpp:78] Creating layer conv4_3
I0922 22:33:28.821377  2573 net.cpp:69] Creating Layer conv4_3
I0922 22:33:28.821382  2573 net.cpp:396] conv4_3 <- conv4_2
I0922 22:33:28.821388  2573 net.cpp:358] conv4_3 -> conv4_3
I0922 22:33:28.821394  2573 net.cpp:98] Setting up conv4_3
I0922 22:33:28.823500  2573 net.cpp:105] Top shape: 8 512 28 28 (3211264)
I0922 22:33:28.823541  2573 layer_factory.hpp:78] Creating layer bn4_3
I0922 22:33:28.823555  2573 net.cpp:69] Creating Layer bn4_3
I0922 22:33:28.823561  2573 net.cpp:396] bn4_3 <- conv4_3
I0922 22:33:28.823570  2573 net.cpp:347] bn4_3 -> conv4_3 (in-place)
I0922 22:33:28.823576  2573 net.cpp:98] Setting up bn4_3
I0922 22:33:28.823588  2573 net.cpp:105] Top shape: 8 512 28 28 (3211264)
I0922 22:33:28.823596  2573 layer_factory.hpp:78] Creating layer relu4_3
I0922 22:33:28.823604  2573 net.cpp:69] Creating Layer relu4_3
I0922 22:33:28.823609  2573 net.cpp:396] relu4_3 <- conv4_3
I0922 22:33:28.823616  2573 net.cpp:347] relu4_3 -> conv4_3 (in-place)
I0922 22:33:28.823621  2573 net.cpp:98] Setting up relu4_3
I0922 22:33:28.823626  2573 net.cpp:105] Top shape: 8 512 28 28 (3211264)
I0922 22:33:28.823632  2573 layer_factory.hpp:78] Creating layer pool4
I0922 22:33:28.823638  2573 net.cpp:69] Creating Layer pool4
I0922 22:33:28.823643  2573 net.cpp:396] pool4 <- conv4_3
I0922 22:33:28.823650  2573 net.cpp:358] pool4 -> pool4
I0922 22:33:28.823659  2573 net.cpp:358] pool4 -> pool4_mask
I0922 22:33:28.823665  2573 net.cpp:98] Setting up pool4
I0922 22:33:28.823671  2573 net.cpp:105] Top shape: 8 512 14 14 (802816)
I0922 22:33:28.823678  2573 net.cpp:105] Top shape: 8 512 14 14 (802816)
I0922 22:33:28.823683  2573 layer_factory.hpp:78] Creating layer conv5_1
I0922 22:33:28.823689  2573 net.cpp:69] Creating Layer conv5_1
I0922 22:33:28.823694  2573 net.cpp:396] conv5_1 <- pool4
I0922 22:33:28.823700  2573 net.cpp:358] conv5_1 -> conv5_1
I0922 22:33:28.823707  2573 net.cpp:98] Setting up conv5_1
I0922 22:33:28.825990  2573 net.cpp:105] Top shape: 8 512 14 14 (802816)
I0922 22:33:28.826030  2573 layer_factory.hpp:78] Creating layer bn5_1
I0922 22:33:28.826040  2573 net.cpp:69] Creating Layer bn5_1
I0922 22:33:28.826046  2573 net.cpp:396] bn5_1 <- conv5_1
I0922 22:33:28.826057  2573 net.cpp:347] bn5_1 -> conv5_1 (in-place)
I0922 22:33:28.826066  2573 net.cpp:98] Setting up bn5_1
I0922 22:33:28.826076  2573 net.cpp:105] Top shape: 8 512 14 14 (802816)
I0922 22:33:28.826086  2573 layer_factory.hpp:78] Creating layer relu5_1
I0922 22:33:28.826092  2573 net.cpp:69] Creating Layer relu5_1
I0922 22:33:28.826097  2573 net.cpp:396] relu5_1 <- conv5_1
I0922 22:33:28.826133  2573 net.cpp:347] relu5_1 -> conv5_1 (in-place)
I0922 22:33:28.826148  2573 net.cpp:98] Setting up relu5_1
I0922 22:33:28.826153  2573 net.cpp:105] Top shape: 8 512 14 14 (802816)
I0922 22:33:28.826159  2573 layer_factory.hpp:78] Creating layer conv5_2
I0922 22:33:28.826164  2573 net.cpp:69] Creating Layer conv5_2
I0922 22:33:28.826169  2573 net.cpp:396] conv5_2 <- conv5_1
I0922 22:33:28.826176  2573 net.cpp:358] conv5_2 -> conv5_2
I0922 22:33:28.826182  2573 net.cpp:98] Setting up conv5_2
I0922 22:33:28.828145  2573 net.cpp:105] Top shape: 8 512 14 14 (802816)
I0922 22:33:28.828189  2573 layer_factory.hpp:78] Creating layer bn5_2
I0922 22:33:28.828199  2573 net.cpp:69] Creating Layer bn5_2
I0922 22:33:28.828204  2573 net.cpp:396] bn5_2 <- conv5_2
I0922 22:33:28.828217  2573 net.cpp:347] bn5_2 -> conv5_2 (in-place)
I0922 22:33:28.828225  2573 net.cpp:98] Setting up bn5_2
I0922 22:33:28.828235  2573 net.cpp:105] Top shape: 8 512 14 14 (802816)
I0922 22:33:28.828243  2573 layer_factory.hpp:78] Creating layer relu5_2
I0922 22:33:28.828249  2573 net.cpp:69] Creating Layer relu5_2
I0922 22:33:28.828254  2573 net.cpp:396] relu5_2 <- conv5_2
I0922 22:33:28.828261  2573 net.cpp:347] relu5_2 -> conv5_2 (in-place)
I0922 22:33:28.828268  2573 net.cpp:98] Setting up relu5_2
I0922 22:33:28.828272  2573 net.cpp:105] Top shape: 8 512 14 14 (802816)
I0922 22:33:28.828277  2573 layer_factory.hpp:78] Creating layer conv5_3
I0922 22:33:28.828284  2573 net.cpp:69] Creating Layer conv5_3
I0922 22:33:28.828289  2573 net.cpp:396] conv5_3 <- conv5_2
I0922 22:33:28.828296  2573 net.cpp:358] conv5_3 -> conv5_3
I0922 22:33:28.828304  2573 net.cpp:98] Setting up conv5_3
I0922 22:33:28.830574  2573 net.cpp:105] Top shape: 8 512 14 14 (802816)
I0922 22:33:28.830622  2573 layer_factory.hpp:78] Creating layer bn5_3
I0922 22:33:28.830633  2573 net.cpp:69] Creating Layer bn5_3
I0922 22:33:28.830639  2573 net.cpp:396] bn5_3 <- conv5_3
I0922 22:33:28.830646  2573 net.cpp:347] bn5_3 -> conv5_3 (in-place)
I0922 22:33:28.830654  2573 net.cpp:98] Setting up bn5_3
I0922 22:33:28.830667  2573 net.cpp:105] Top shape: 8 512 14 14 (802816)
I0922 22:33:28.830672  2573 layer_factory.hpp:78] Creating layer relu5_3
I0922 22:33:28.830679  2573 net.cpp:69] Creating Layer relu5_3
I0922 22:33:28.830684  2573 net.cpp:396] relu5_3 <- conv5_3
I0922 22:33:28.830692  2573 net.cpp:347] relu5_3 -> conv5_3 (in-place)
I0922 22:33:28.830698  2573 net.cpp:98] Setting up relu5_3
I0922 22:33:28.830701  2573 net.cpp:105] Top shape: 8 512 14 14 (802816)
I0922 22:33:28.830706  2573 layer_factory.hpp:78] Creating layer pool5
I0922 22:33:28.830713  2573 net.cpp:69] Creating Layer pool5
I0922 22:33:28.830718  2573 net.cpp:396] pool5 <- conv5_3
I0922 22:33:28.830724  2573 net.cpp:358] pool5 -> pool5
I0922 22:33:28.830730  2573 net.cpp:358] pool5 -> pool5_mask
I0922 22:33:28.830737  2573 net.cpp:98] Setting up pool5
I0922 22:33:28.830744  2573 net.cpp:105] Top shape: 8 512 7 7 (200704)
I0922 22:33:28.830749  2573 net.cpp:105] Top shape: 8 512 7 7 (200704)
I0922 22:33:28.830754  2573 layer_factory.hpp:78] Creating layer fc6
I0922 22:33:28.830761  2573 net.cpp:69] Creating Layer fc6
I0922 22:33:28.830766  2573 net.cpp:396] fc6 <- pool5
I0922 22:33:28.830773  2573 net.cpp:358] fc6 -> fc6
I0922 22:33:28.830780  2573 net.cpp:98] Setting up fc6
I0922 22:33:28.911501  2573 net.cpp:105] Top shape: 8 4096 1 1 (32768)
I0922 22:33:28.911553  2573 layer_factory.hpp:78] Creating layer bnfc6
I0922 22:33:28.911564  2573 net.cpp:69] Creating Layer bnfc6
I0922 22:33:28.911571  2573 net.cpp:396] bnfc6 <- fc6
I0922 22:33:28.911577  2573 net.cpp:347] bnfc6 -> fc6 (in-place)
I0922 22:33:28.911586  2573 net.cpp:98] Setting up bnfc6
I0922 22:33:28.911604  2573 net.cpp:105] Top shape: 8 4096 1 1 (32768)
I0922 22:33:28.911612  2573 layer_factory.hpp:78] Creating layer relu6
I0922 22:33:28.911618  2573 net.cpp:69] Creating Layer relu6
I0922 22:33:28.911623  2573 net.cpp:396] relu6 <- fc6
I0922 22:33:28.911633  2573 net.cpp:347] relu6 -> fc6 (in-place)
I0922 22:33:28.911638  2573 net.cpp:98] Setting up relu6
I0922 22:33:28.911672  2573 net.cpp:105] Top shape: 8 4096 1 1 (32768)
I0922 22:33:28.911689  2573 layer_factory.hpp:78] Creating layer fc7
I0922 22:33:28.911695  2573 net.cpp:69] Creating Layer fc7
I0922 22:33:28.911700  2573 net.cpp:396] fc7 <- fc6
I0922 22:33:28.911705  2573 net.cpp:358] fc7 -> fc7
I0922 22:33:28.911711  2573 net.cpp:98] Setting up fc7
I0922 22:33:28.925598  2573 net.cpp:105] Top shape: 8 4096 1 1 (32768)
I0922 22:33:28.925650  2573 layer_factory.hpp:78] Creating layer bnfc7
I0922 22:33:28.925662  2573 net.cpp:69] Creating Layer bnfc7
I0922 22:33:28.925668  2573 net.cpp:396] bnfc7 <- fc7
I0922 22:33:28.925676  2573 net.cpp:347] bnfc7 -> fc7 (in-place)
I0922 22:33:28.925685  2573 net.cpp:98] Setting up bnfc7
I0922 22:33:28.925705  2573 net.cpp:105] Top shape: 8 4096 1 1 (32768)
I0922 22:33:28.925714  2573 layer_factory.hpp:78] Creating layer relu7
I0922 22:33:28.925721  2573 net.cpp:69] Creating Layer relu7
I0922 22:33:28.925726  2573 net.cpp:396] relu7 <- fc7
I0922 22:33:28.925732  2573 net.cpp:347] relu7 -> fc7 (in-place)
I0922 22:33:28.925739  2573 net.cpp:98] Setting up relu7
I0922 22:33:28.925743  2573 net.cpp:105] Top shape: 8 4096 1 1 (32768)
I0922 22:33:28.925748  2573 layer_factory.hpp:78] Creating layer fc6-deconv
I0922 22:33:28.925755  2573 net.cpp:69] Creating Layer fc6-deconv
I0922 22:33:28.925761  2573 net.cpp:396] fc6-deconv <- fc7
I0922 22:33:28.925768  2573 net.cpp:358] fc6-deconv -> fc6-deconv
I0922 22:33:28.925776  2573 net.cpp:98] Setting up fc6-deconv
I0922 22:33:30.933059  2573 net.cpp:105] Top shape: 8 512 7 7 (200704)
I0922 22:33:30.933109  2573 layer_factory.hpp:78] Creating layer fc6-deconv-bn
I0922 22:33:30.933118  2573 net.cpp:69] Creating Layer fc6-deconv-bn
I0922 22:33:30.933125  2573 net.cpp:396] fc6-deconv-bn <- fc6-deconv
I0922 22:33:30.933135  2573 net.cpp:347] fc6-deconv-bn -> fc6-deconv (in-place)
I0922 22:33:30.933142  2573 net.cpp:98] Setting up fc6-deconv-bn
I0922 22:33:30.933153  2573 net.cpp:105] Top shape: 8 512 7 7 (200704)
I0922 22:33:30.933161  2573 layer_factory.hpp:78] Creating layer fc6-deconv-relu
I0922 22:33:30.933167  2573 net.cpp:69] Creating Layer fc6-deconv-relu
I0922 22:33:30.933172  2573 net.cpp:396] fc6-deconv-relu <- fc6-deconv
I0922 22:33:30.933177  2573 net.cpp:347] fc6-deconv-relu -> fc6-deconv (in-place)
I0922 22:33:30.933182  2573 net.cpp:98] Setting up fc6-deconv-relu
I0922 22:33:30.933190  2573 net.cpp:105] Top shape: 8 512 7 7 (200704)
I0922 22:33:30.933195  2573 layer_factory.hpp:78] Creating layer unpool5
I0922 22:33:30.933202  2573 net.cpp:69] Creating Layer unpool5
I0922 22:33:30.933207  2573 net.cpp:396] unpool5 <- fc6-deconv
I0922 22:33:30.933213  2573 net.cpp:396] unpool5 <- pool5_mask
I0922 22:33:30.933219  2573 net.cpp:358] unpool5 -> unpool5
I0922 22:33:30.933228  2573 net.cpp:98] Setting up unpool5
I0922 22:33:30.933243  2573 net.cpp:105] Top shape: 8 512 14 14 (802816)
I0922 22:33:30.933248  2573 layer_factory.hpp:78] Creating layer deconv5_1
I0922 22:33:30.933255  2573 net.cpp:69] Creating Layer deconv5_1
I0922 22:33:30.933260  2573 net.cpp:396] deconv5_1 <- unpool5
I0922 22:33:30.933266  2573 net.cpp:358] deconv5_1 -> deconv5_1
I0922 22:33:30.933274  2573 net.cpp:98] Setting up deconv5_1
I0922 22:33:30.979440  2573 net.cpp:105] Top shape: 8 512 14 14 (802816)
I0922 22:33:30.979491  2573 layer_factory.hpp:78] Creating layer debn5_1
I0922 22:33:30.979503  2573 net.cpp:69] Creating Layer debn5_1
I0922 22:33:30.979509  2573 net.cpp:396] debn5_1 <- deconv5_1
I0922 22:33:30.979517  2573 net.cpp:347] debn5_1 -> deconv5_1 (in-place)
I0922 22:33:30.979524  2573 net.cpp:98] Setting up debn5_1
I0922 22:33:30.979537  2573 net.cpp:105] Top shape: 8 512 14 14 (802816)
I0922 22:33:30.979543  2573 layer_factory.hpp:78] Creating layer derelu5_1
I0922 22:33:30.979549  2573 net.cpp:69] Creating Layer derelu5_1
I0922 22:33:30.979554  2573 net.cpp:396] derelu5_1 <- deconv5_1
I0922 22:33:30.979562  2573 net.cpp:347] derelu5_1 -> deconv5_1 (in-place)
I0922 22:33:30.979568  2573 net.cpp:98] Setting up derelu5_1
I0922 22:33:30.979600  2573 net.cpp:105] Top shape: 8 512 14 14 (802816)
I0922 22:33:30.979615  2573 layer_factory.hpp:78] Creating layer deconv5_2
I0922 22:33:30.979624  2573 net.cpp:69] Creating Layer deconv5_2
I0922 22:33:30.979629  2573 net.cpp:396] deconv5_2 <- deconv5_1
I0922 22:33:30.979635  2573 net.cpp:358] deconv5_2 -> deconv5_2
I0922 22:33:30.979640  2573 net.cpp:98] Setting up deconv5_2
I0922 22:33:31.026154  2573 net.cpp:105] Top shape: 8 512 14 14 (802816)
I0922 22:33:31.026196  2573 layer_factory.hpp:78] Creating layer debn5_2
I0922 22:33:31.026206  2573 net.cpp:69] Creating Layer debn5_2
I0922 22:33:31.026211  2573 net.cpp:396] debn5_2 <- deconv5_2
I0922 22:33:31.026218  2573 net.cpp:347] debn5_2 -> deconv5_2 (in-place)
I0922 22:33:31.026226  2573 net.cpp:98] Setting up debn5_2
I0922 22:33:31.026235  2573 net.cpp:105] Top shape: 8 512 14 14 (802816)
I0922 22:33:31.026242  2573 layer_factory.hpp:78] Creating layer derelu5_2
I0922 22:33:31.026248  2573 net.cpp:69] Creating Layer derelu5_2
I0922 22:33:31.026253  2573 net.cpp:396] derelu5_2 <- deconv5_2
I0922 22:33:31.026258  2573 net.cpp:347] derelu5_2 -> deconv5_2 (in-place)
I0922 22:33:31.026264  2573 net.cpp:98] Setting up derelu5_2
I0922 22:33:31.026268  2573 net.cpp:105] Top shape: 8 512 14 14 (802816)
I0922 22:33:31.026275  2573 layer_factory.hpp:78] Creating layer deconv5_3
I0922 22:33:31.026284  2573 net.cpp:69] Creating Layer deconv5_3
I0922 22:33:31.026289  2573 net.cpp:396] deconv5_3 <- deconv5_2
I0922 22:33:31.026295  2573 net.cpp:358] deconv5_3 -> deconv5_3
I0922 22:33:31.026304  2573 net.cpp:98] Setting up deconv5_3
I0922 22:33:31.072710  2573 net.cpp:105] Top shape: 8 512 14 14 (802816)
I0922 22:33:31.072751  2573 layer_factory.hpp:78] Creating layer debn5_3
I0922 22:33:31.072762  2573 net.cpp:69] Creating Layer debn5_3
I0922 22:33:31.072767  2573 net.cpp:396] debn5_3 <- deconv5_3
I0922 22:33:31.072775  2573 net.cpp:347] debn5_3 -> deconv5_3 (in-place)
I0922 22:33:31.072783  2573 net.cpp:98] Setting up debn5_3
I0922 22:33:31.072793  2573 net.cpp:105] Top shape: 8 512 14 14 (802816)
I0922 22:33:31.072800  2573 layer_factory.hpp:78] Creating layer derelu5_3
I0922 22:33:31.072809  2573 net.cpp:69] Creating Layer derelu5_3
I0922 22:33:31.072814  2573 net.cpp:396] derelu5_3 <- deconv5_3
I0922 22:33:31.072820  2573 net.cpp:347] derelu5_3 -> deconv5_3 (in-place)
I0922 22:33:31.072826  2573 net.cpp:98] Setting up derelu5_3
I0922 22:33:31.072831  2573 net.cpp:105] Top shape: 8 512 14 14 (802816)
I0922 22:33:31.072836  2573 layer_factory.hpp:78] Creating layer unpool4
I0922 22:33:31.072849  2573 net.cpp:69] Creating Layer unpool4
I0922 22:33:31.072863  2573 net.cpp:396] unpool4 <- deconv5_3
I0922 22:33:31.072868  2573 net.cpp:396] unpool4 <- pool4_mask
I0922 22:33:31.072885  2573 net.cpp:358] unpool4 -> unpool4
I0922 22:33:31.072891  2573 net.cpp:98] Setting up unpool4
I0922 22:33:31.072896  2573 net.cpp:105] Top shape: 8 512 28 28 (3211264)
I0922 22:33:31.072901  2573 layer_factory.hpp:78] Creating layer deconv4_1
I0922 22:33:31.072909  2573 net.cpp:69] Creating Layer deconv4_1
I0922 22:33:31.072914  2573 net.cpp:396] deconv4_1 <- unpool4
I0922 22:33:31.072921  2573 net.cpp:358] deconv4_1 -> deconv4_1
I0922 22:33:31.072927  2573 net.cpp:98] Setting up deconv4_1
I0922 22:33:31.119051  2573 net.cpp:105] Top shape: 8 512 28 28 (3211264)
I0922 22:33:31.119096  2573 layer_factory.hpp:78] Creating layer debn4_1
I0922 22:33:31.119107  2573 net.cpp:69] Creating Layer debn4_1
I0922 22:33:31.119115  2573 net.cpp:396] debn4_1 <- deconv4_1
I0922 22:33:31.119122  2573 net.cpp:347] debn4_1 -> deconv4_1 (in-place)
I0922 22:33:31.119130  2573 net.cpp:98] Setting up debn4_1
I0922 22:33:31.119141  2573 net.cpp:105] Top shape: 8 512 28 28 (3211264)
I0922 22:33:31.119148  2573 layer_factory.hpp:78] Creating layer derelu4_1
I0922 22:33:31.119158  2573 net.cpp:69] Creating Layer derelu4_1
I0922 22:33:31.119163  2573 net.cpp:396] derelu4_1 <- deconv4_1
I0922 22:33:31.119170  2573 net.cpp:347] derelu4_1 -> deconv4_1 (in-place)
I0922 22:33:31.119176  2573 net.cpp:98] Setting up derelu4_1
I0922 22:33:31.119210  2573 net.cpp:105] Top shape: 8 512 28 28 (3211264)
I0922 22:33:31.119225  2573 layer_factory.hpp:78] Creating layer deconv4_2
I0922 22:33:31.119231  2573 net.cpp:69] Creating Layer deconv4_2
I0922 22:33:31.119235  2573 net.cpp:396] deconv4_2 <- deconv4_1
I0922 22:33:31.119242  2573 net.cpp:358] deconv4_2 -> deconv4_2
I0922 22:33:31.119249  2573 net.cpp:98] Setting up deconv4_2
I0922 22:33:31.165581  2573 net.cpp:105] Top shape: 8 512 28 28 (3211264)
I0922 22:33:31.165628  2573 layer_factory.hpp:78] Creating layer debn4_2
I0922 22:33:31.165638  2573 net.cpp:69] Creating Layer debn4_2
I0922 22:33:31.165644  2573 net.cpp:396] debn4_2 <- deconv4_2
I0922 22:33:31.165652  2573 net.cpp:347] debn4_2 -> deconv4_2 (in-place)
I0922 22:33:31.165660  2573 net.cpp:98] Setting up debn4_2
I0922 22:33:31.165673  2573 net.cpp:105] Top shape: 8 512 28 28 (3211264)
I0922 22:33:31.165680  2573 layer_factory.hpp:78] Creating layer derelu4_2
I0922 22:33:31.165689  2573 net.cpp:69] Creating Layer derelu4_2
I0922 22:33:31.165694  2573 net.cpp:396] derelu4_2 <- deconv4_2
I0922 22:33:31.165699  2573 net.cpp:347] derelu4_2 -> deconv4_2 (in-place)
I0922 22:33:31.165705  2573 net.cpp:98] Setting up derelu4_2
I0922 22:33:31.165710  2573 net.cpp:105] Top shape: 8 512 28 28 (3211264)
I0922 22:33:31.165715  2573 layer_factory.hpp:78] Creating layer deconv4_3
I0922 22:33:31.165724  2573 net.cpp:69] Creating Layer deconv4_3
I0922 22:33:31.165729  2573 net.cpp:396] deconv4_3 <- deconv4_2
I0922 22:33:31.165735  2573 net.cpp:358] deconv4_3 -> deconv4_3
I0922 22:33:31.165741  2573 net.cpp:98] Setting up deconv4_3
I0922 22:33:31.189084  2573 net.cpp:105] Top shape: 8 256 28 28 (1605632)
I0922 22:33:31.189111  2573 layer_factory.hpp:78] Creating layer debn4_3
I0922 22:33:31.189119  2573 net.cpp:69] Creating Layer debn4_3
I0922 22:33:31.189124  2573 net.cpp:396] debn4_3 <- deconv4_3
I0922 22:33:31.189131  2573 net.cpp:347] debn4_3 -> deconv4_3 (in-place)
I0922 22:33:31.189136  2573 net.cpp:98] Setting up debn4_3
I0922 22:33:31.189152  2573 net.cpp:105] Top shape: 8 256 28 28 (1605632)
I0922 22:33:31.189167  2573 layer_factory.hpp:78] Creating layer derelu4_3
I0922 22:33:31.189174  2573 net.cpp:69] Creating Layer derelu4_3
I0922 22:33:31.189188  2573 net.cpp:396] derelu4_3 <- deconv4_3
I0922 22:33:31.189193  2573 net.cpp:347] derelu4_3 -> deconv4_3 (in-place)
I0922 22:33:31.189198  2573 net.cpp:98] Setting up derelu4_3
I0922 22:33:31.189203  2573 net.cpp:105] Top shape: 8 256 28 28 (1605632)
I0922 22:33:31.189208  2573 layer_factory.hpp:78] Creating layer unpool3
I0922 22:33:31.189214  2573 net.cpp:69] Creating Layer unpool3
I0922 22:33:31.189220  2573 net.cpp:396] unpool3 <- deconv4_3
I0922 22:33:31.189227  2573 net.cpp:396] unpool3 <- pool3_mask
I0922 22:33:31.189234  2573 net.cpp:358] unpool3 -> unpool3
I0922 22:33:31.189239  2573 net.cpp:98] Setting up unpool3
I0922 22:33:31.189244  2573 net.cpp:105] Top shape: 8 256 56 56 (6422528)
I0922 22:33:31.189249  2573 layer_factory.hpp:78] Creating layer deconv3_1
I0922 22:33:31.189256  2573 net.cpp:69] Creating Layer deconv3_1
I0922 22:33:31.189261  2573 net.cpp:396] deconv3_1 <- unpool3
I0922 22:33:31.189267  2573 net.cpp:358] deconv3_1 -> deconv3_1
I0922 22:33:31.189273  2573 net.cpp:98] Setting up deconv3_1
I0922 22:33:31.201023  2573 net.cpp:105] Top shape: 8 256 56 56 (6422528)
I0922 22:33:31.201047  2573 layer_factory.hpp:78] Creating layer debn3_1
I0922 22:33:31.201055  2573 net.cpp:69] Creating Layer debn3_1
I0922 22:33:31.201059  2573 net.cpp:396] debn3_1 <- deconv3_1
I0922 22:33:31.201066  2573 net.cpp:347] debn3_1 -> deconv3_1 (in-place)
I0922 22:33:31.201071  2573 net.cpp:98] Setting up debn3_1
I0922 22:33:31.201087  2573 net.cpp:105] Top shape: 8 256 56 56 (6422528)
I0922 22:33:31.201102  2573 layer_factory.hpp:78] Creating layer derelu3_1
I0922 22:33:31.201108  2573 net.cpp:69] Creating Layer derelu3_1
I0922 22:33:31.201122  2573 net.cpp:396] derelu3_1 <- deconv3_1
I0922 22:33:31.201128  2573 net.cpp:347] derelu3_1 -> deconv3_1 (in-place)
I0922 22:33:31.201133  2573 net.cpp:98] Setting up derelu3_1
I0922 22:33:31.201164  2573 net.cpp:105] Top shape: 8 256 56 56 (6422528)
I0922 22:33:31.201179  2573 layer_factory.hpp:78] Creating layer deconv3_2
I0922 22:33:31.201185  2573 net.cpp:69] Creating Layer deconv3_2
I0922 22:33:31.201189  2573 net.cpp:396] deconv3_2 <- deconv3_1
I0922 22:33:31.201196  2573 net.cpp:358] deconv3_2 -> deconv3_2
I0922 22:33:31.201203  2573 net.cpp:98] Setting up deconv3_2
I0922 22:33:31.212759  2573 net.cpp:105] Top shape: 8 256 56 56 (6422528)
I0922 22:33:31.212779  2573 layer_factory.hpp:78] Creating layer debn3_2
I0922 22:33:31.212785  2573 net.cpp:69] Creating Layer debn3_2
I0922 22:33:31.212790  2573 net.cpp:396] debn3_2 <- deconv3_2
I0922 22:33:31.212795  2573 net.cpp:347] debn3_2 -> deconv3_2 (in-place)
I0922 22:33:31.212801  2573 net.cpp:98] Setting up debn3_2
I0922 22:33:31.212817  2573 net.cpp:105] Top shape: 8 256 56 56 (6422528)
I0922 22:33:31.212832  2573 layer_factory.hpp:78] Creating layer derelu3_2
I0922 22:33:31.212839  2573 net.cpp:69] Creating Layer derelu3_2
I0922 22:33:31.212853  2573 net.cpp:396] derelu3_2 <- deconv3_2
I0922 22:33:31.212858  2573 net.cpp:347] derelu3_2 -> deconv3_2 (in-place)
I0922 22:33:31.212863  2573 net.cpp:98] Setting up derelu3_2
I0922 22:33:31.212868  2573 net.cpp:105] Top shape: 8 256 56 56 (6422528)
I0922 22:33:31.212872  2573 layer_factory.hpp:78] Creating layer deconv3_3
I0922 22:33:31.212878  2573 net.cpp:69] Creating Layer deconv3_3
I0922 22:33:31.212883  2573 net.cpp:396] deconv3_3 <- deconv3_2
I0922 22:33:31.212890  2573 net.cpp:358] deconv3_3 -> deconv3_3
I0922 22:33:31.212896  2573 net.cpp:98] Setting up deconv3_3
I0922 22:33:31.218814  2573 net.cpp:105] Top shape: 8 128 56 56 (3211264)
I0922 22:33:31.218834  2573 layer_factory.hpp:78] Creating layer debn3_3
I0922 22:33:31.218842  2573 net.cpp:69] Creating Layer debn3_3
I0922 22:33:31.218847  2573 net.cpp:396] debn3_3 <- deconv3_3
I0922 22:33:31.218852  2573 net.cpp:347] debn3_3 -> deconv3_3 (in-place)
I0922 22:33:31.218858  2573 net.cpp:98] Setting up debn3_3
I0922 22:33:31.218873  2573 net.cpp:105] Top shape: 8 128 56 56 (3211264)
I0922 22:33:31.218888  2573 layer_factory.hpp:78] Creating layer derelu3_3
I0922 22:33:31.218894  2573 net.cpp:69] Creating Layer derelu3_3
I0922 22:33:31.218907  2573 net.cpp:396] derelu3_3 <- deconv3_3
I0922 22:33:31.218914  2573 net.cpp:347] derelu3_3 -> deconv3_3 (in-place)
I0922 22:33:31.218917  2573 net.cpp:98] Setting up derelu3_3
I0922 22:33:31.218922  2573 net.cpp:105] Top shape: 8 128 56 56 (3211264)
I0922 22:33:31.218926  2573 layer_factory.hpp:78] Creating layer unpool2
I0922 22:33:31.218933  2573 net.cpp:69] Creating Layer unpool2
I0922 22:33:31.218940  2573 net.cpp:396] unpool2 <- deconv3_3
I0922 22:33:31.218945  2573 net.cpp:396] unpool2 <- pool2_mask
I0922 22:33:31.218952  2573 net.cpp:358] unpool2 -> unpool2
I0922 22:33:31.218960  2573 net.cpp:98] Setting up unpool2
I0922 22:33:31.218966  2573 net.cpp:105] Top shape: 8 128 112 112 (12845056)
I0922 22:33:31.218969  2573 layer_factory.hpp:78] Creating layer deconv2_1
I0922 22:33:31.218976  2573 net.cpp:69] Creating Layer deconv2_1
I0922 22:33:31.218981  2573 net.cpp:396] deconv2_1 <- unpool2
I0922 22:33:31.218986  2573 net.cpp:358] deconv2_1 -> deconv2_1
I0922 22:33:31.218992  2573 net.cpp:98] Setting up deconv2_1
I0922 22:33:31.221998  2573 net.cpp:105] Top shape: 8 128 112 112 (12845056)
I0922 22:33:31.222018  2573 layer_factory.hpp:78] Creating layer debn2_1
I0922 22:33:31.222025  2573 net.cpp:69] Creating Layer debn2_1
I0922 22:33:31.222029  2573 net.cpp:396] debn2_1 <- deconv2_1
I0922 22:33:31.222035  2573 net.cpp:347] debn2_1 -> deconv2_1 (in-place)
I0922 22:33:31.222044  2573 net.cpp:98] Setting up debn2_1
I0922 22:33:31.222086  2573 net.cpp:105] Top shape: 8 128 112 112 (12845056)
I0922 22:33:31.222105  2573 layer_factory.hpp:78] Creating layer derelu2_1
I0922 22:33:31.222110  2573 net.cpp:69] Creating Layer derelu2_1
I0922 22:33:31.222115  2573 net.cpp:396] derelu2_1 <- deconv2_1
I0922 22:33:31.222121  2573 net.cpp:347] derelu2_1 -> deconv2_1 (in-place)
I0922 22:33:31.222146  2573 net.cpp:98] Setting up derelu2_1
I0922 22:33:31.222151  2573 net.cpp:105] Top shape: 8 128 112 112 (12845056)
I0922 22:33:31.222165  2573 layer_factory.hpp:78] Creating layer deconv2_2
I0922 22:33:31.222172  2573 net.cpp:69] Creating Layer deconv2_2
I0922 22:33:31.222177  2573 net.cpp:396] deconv2_2 <- deconv2_1
I0922 22:33:31.222182  2573 net.cpp:358] deconv2_2 -> deconv2_2
I0922 22:33:31.222188  2573 net.cpp:98] Setting up deconv2_2
I0922 22:33:31.223734  2573 net.cpp:105] Top shape: 8 64 112 112 (6422528)
I0922 22:33:31.223754  2573 layer_factory.hpp:78] Creating layer debn2_2
I0922 22:33:31.223762  2573 net.cpp:69] Creating Layer debn2_2
I0922 22:33:31.223765  2573 net.cpp:396] debn2_2 <- deconv2_2
I0922 22:33:31.223770  2573 net.cpp:347] debn2_2 -> deconv2_2 (in-place)
I0922 22:33:31.223776  2573 net.cpp:98] Setting up debn2_2
I0922 22:33:31.223821  2573 net.cpp:105] Top shape: 8 64 112 112 (6422528)
I0922 22:33:31.223839  2573 layer_factory.hpp:78] Creating layer derelu2_2
I0922 22:33:31.223845  2573 net.cpp:69] Creating Layer derelu2_2
I0922 22:33:31.223850  2573 net.cpp:396] derelu2_2 <- deconv2_2
I0922 22:33:31.223855  2573 net.cpp:347] derelu2_2 -> deconv2_2 (in-place)
I0922 22:33:31.223862  2573 net.cpp:98] Setting up derelu2_2
I0922 22:33:31.223868  2573 net.cpp:105] Top shape: 8 64 112 112 (6422528)
I0922 22:33:31.223873  2573 layer_factory.hpp:78] Creating layer unpool1
I0922 22:33:31.223880  2573 net.cpp:69] Creating Layer unpool1
I0922 22:33:31.223884  2573 net.cpp:396] unpool1 <- deconv2_2
I0922 22:33:31.223888  2573 net.cpp:396] unpool1 <- pool1_mask
I0922 22:33:31.223896  2573 net.cpp:358] unpool1 -> unpool1
I0922 22:33:31.223901  2573 net.cpp:98] Setting up unpool1
I0922 22:33:31.223906  2573 net.cpp:105] Top shape: 8 64 224 224 (25690112)
I0922 22:33:31.223911  2573 layer_factory.hpp:78] Creating layer deconv1_1
I0922 22:33:31.223917  2573 net.cpp:69] Creating Layer deconv1_1
I0922 22:33:31.223922  2573 net.cpp:396] deconv1_1 <- unpool1
I0922 22:33:31.223927  2573 net.cpp:358] deconv1_1 -> deconv1_1
I0922 22:33:31.223933  2573 net.cpp:98] Setting up deconv1_1
I0922 22:33:31.224737  2573 net.cpp:105] Top shape: 8 64 224 224 (25690112)
I0922 22:33:31.224746  2573 layer_factory.hpp:78] Creating layer debn1_1
I0922 22:33:31.224753  2573 net.cpp:69] Creating Layer debn1_1
I0922 22:33:31.224758  2573 net.cpp:396] debn1_1 <- deconv1_1
I0922 22:33:31.224764  2573 net.cpp:347] debn1_1 -> deconv1_1 (in-place)
I0922 22:33:31.224771  2573 net.cpp:98] Setting up debn1_1
I0922 22:33:31.224880  2573 net.cpp:105] Top shape: 8 64 224 224 (25690112)
I0922 22:33:31.224899  2573 layer_factory.hpp:78] Creating layer derelu1_1
I0922 22:33:31.224905  2573 net.cpp:69] Creating Layer derelu1_1
I0922 22:33:31.224910  2573 net.cpp:396] derelu1_1 <- deconv1_1
I0922 22:33:31.224915  2573 net.cpp:347] derelu1_1 -> deconv1_1 (in-place)
I0922 22:33:31.224921  2573 net.cpp:98] Setting up derelu1_1
I0922 22:33:31.224926  2573 net.cpp:105] Top shape: 8 64 224 224 (25690112)
I0922 22:33:31.224931  2573 layer_factory.hpp:78] Creating layer deconv1_2
I0922 22:33:31.224937  2573 net.cpp:69] Creating Layer deconv1_2
I0922 22:33:31.224942  2573 net.cpp:396] deconv1_2 <- deconv1_1
I0922 22:33:31.224948  2573 net.cpp:358] deconv1_2 -> deconv1_2
I0922 22:33:31.224954  2573 net.cpp:98] Setting up deconv1_2
I0922 22:33:31.225790  2573 net.cpp:105] Top shape: 8 64 224 224 (25690112)
I0922 22:33:31.225810  2573 layer_factory.hpp:78] Creating layer debn1_2
I0922 22:33:31.225816  2573 net.cpp:69] Creating Layer debn1_2
I0922 22:33:31.225821  2573 net.cpp:396] debn1_2 <- deconv1_2
I0922 22:33:31.225826  2573 net.cpp:347] debn1_2 -> deconv1_2 (in-place)
I0922 22:33:31.225832  2573 net.cpp:98] Setting up debn1_2
I0922 22:33:31.225947  2573 net.cpp:105] Top shape: 8 64 224 224 (25690112)
I0922 22:33:31.225966  2573 layer_factory.hpp:78] Creating layer derelu1_2
I0922 22:33:31.225972  2573 net.cpp:69] Creating Layer derelu1_2
I0922 22:33:31.225977  2573 net.cpp:396] derelu1_2 <- deconv1_2
I0922 22:33:31.225982  2573 net.cpp:347] derelu1_2 -> deconv1_2 (in-place)
I0922 22:33:31.225996  2573 net.cpp:98] Setting up derelu1_2
I0922 22:33:31.226001  2573 net.cpp:105] Top shape: 8 64 224 224 (25690112)
I0922 22:33:31.226004  2573 layer_factory.hpp:78] Creating layer seg-score-voc
I0922 22:33:31.226012  2573 net.cpp:69] Creating Layer seg-score-voc
I0922 22:33:31.226017  2573 net.cpp:396] seg-score-voc <- deconv1_2
I0922 22:33:31.226023  2573 net.cpp:358] seg-score-voc -> seg-score
I0922 22:33:31.226029  2573 net.cpp:98] Setting up seg-score-voc
I0922 22:33:31.226135  2573 net.cpp:105] Top shape: 8 21 224 224 (8429568)
I0922 22:33:31.226142  2573 layer_factory.hpp:78] Creating layer seg-loss
I0922 22:33:31.226158  2573 net.cpp:69] Creating Layer seg-loss
I0922 22:33:31.226164  2573 net.cpp:396] seg-loss <- seg-score
I0922 22:33:31.226169  2573 net.cpp:396] seg-loss <- seg-label
I0922 22:33:31.226176  2573 net.cpp:358] seg-loss -> seg-loss
I0922 22:33:31.226183  2573 net.cpp:98] Setting up seg-loss
I0922 22:33:31.226196  2573 net.cpp:105] Top shape: 1 1 1 1 (1)
I0922 22:33:31.226200  2573 net.cpp:111]     with loss weight 1
I0922 22:33:31.226222  2573 net.cpp:172] seg-loss needs backward computation.
I0922 22:33:31.226227  2573 net.cpp:172] seg-score-voc needs backward computation.
I0922 22:33:31.226232  2573 net.cpp:172] derelu1_2 needs backward computation.
I0922 22:33:31.226236  2573 net.cpp:172] debn1_2 needs backward computation.
I0922 22:33:31.226240  2573 net.cpp:172] deconv1_2 needs backward computation.
…
I0922 22:33:31.228472  2573 net.cpp:277] The NetState phase (1) differed from the phase (0) specified by a rule in layer data
I0922 22:33:31.228865  2573 net.cpp:39] Initializing net from parameters: 
name: "stage_1_training"
layers {
  top: "data"
  top: "seg-label"
  name: "data"
  type: IMAGE_SEG_DATA
  image_data_param {
    source: "./stage_1_train_imgset/val_reduced_07.txt"
    batch_size: 8
    shuffle: true
    new_height: 250
    new_width: 250
    root_folder: "./VOC2012"
    label_type: PIXEL
  }
  include {
    phase: TEST
  }
  transform_param {
    mirror: true
    crop_size: 224
    mean_value: 104.008
    mean_value: 116.669
    mean_value: 122.675
  }
}
layers {
  bottom: "data"
  top: "conv1_1"
  name: "conv1_1"
  type: CONVOLUTION
  blobs_lr: 1
  blobs_lr: 2
  weight_decay: 1
  weight_decay: 0
  convolution_param {
    num_output: 64
    pad: 1
    kernel_size: 3
  }
}
layers {
  bottom: "conv1_1"
  top: "conv1_1"
  name: "bn1_1"
  type: BN
  bn_param {
    scale_filler {
      type: "constant"
      value: 1
    }
    shift_filler {
      type: "constant"
      value: 0.001
    }
  }
}
layers {
  bottom: "conv1_1"
  top: "conv1_1"
  name: "relu1_1"
  type: RELU
}
layers {
  bottom: "conv1_1"
  top: "conv1_2"
  name: "conv1_2"
  type: CONVOLUTION
  blobs_lr: 1
  blobs_lr: 2
  weight_decay: 1
  weight_decay: 0
  convolution_param {
    num_output: 64
    pad: 1
    kernel_size: 3
  }
}
layers {
  bottom: "conv1_2"
  top: "conv1_2"
  name: "bn1_2"
  type: BN
  bn_param {
    scale_filler {
      type: "constant"
      value: 1
    }
    shift_filler {
      type: "constant"
      value: 0.001
    }
  }
}
layers {
  bottom: "conv1_2"
  top: "conv1_2"
  name: "relu1_2"
  type: RELU
}
layers {
  bottom: "conv1_2"
  top: "pool1"
  top: "pool1_mask"
  name: "pool1"
  type: POOLING
  pooling_param {
    pool: MAX
    kernel_size: 2
    stride: 2
  }
}
layers {
  bottom: "pool1"
  top: "conv2_1"
  name: "conv2_1"
  type: CONVOLUTION
  blobs_lr: 1
  blobs_lr: 2
  weight_decay: 1
  weight_decay: 0
  convolution_param {
    num_output: 128
    pad: 1
    kernel_size: 3
  }
}
layers {
  bottom: "conv2_1"
  top: "conv2_1"
  name: "bn2_1"
  type: BN
  bn_param {
    scale_filler {
      type: "constant"
      value: 1
    }
    shift_filler {
      type: "constant"
      value: 0.001
    }
  }
}
layers {
  bottom: "conv2_1"
  top: "conv2_1"
  name: "relu2_1"
  type: RELU
}
layers {
  bottom: "conv2_1"
  top: "conv2_2"
  name: "conv2_2"
  type: CONVOLUTION
  blobs_lr: 1
  blobs_lr: 2
  weight_decay: 1
  weight_decay: 0
  convolution_param {
    num_output: 128
    pad: 1
    kernel_size: 3
  }
}
layers {
  bottom: "conv2_2"
  top: "conv2_2"
  name: "bn2_2"
  type: BN
  bn_param {
    scale_filler {
      type: "constant"
      value: 1
    }
    shift_filler {
      type: "constant"
      value: 0.001
    }
  }
}
layers {
  bottom: "conv2_2"
  top: "conv2_2"
  name: "relu2_2"
  type: RELU
}
layers {
  bottom: "conv2_2"
  top: "pool2"
  top: "pool2_mask"
  name: "pool2"
  type: POOLING
  pooling_param {
    pool: MAX
    kernel_size: 2
    stride: 2
  }
}
layers {
  bottom: "pool2"
  top: "conv3_1"
  name: "conv3_1"
  type: CONVOLUTION
  blobs_lr: 1
  blobs_lr: 2
  weight_decay: 1
  weight_decay: 0
  convolution_param {
    num_output: 256
    pad: 1
    kernel_size: 3
  }
}
layers {
  bottom: "conv3_1"
  top: "conv3_1"
  name: "bn3_1"
  type: BN
  bn_param {
    scale_filler {
      type: "constant"
      value: 1
    }
    shift_filler {
      type: "constant"
      value: 0.001
    }
  }
}
layers {
  bottom: "conv3_1"
  top: "conv3_1"
  name: "relu3_1"
  type: RELU
}
layers {
  bottom: "conv3_1"
  top: "conv3_2"
  name: "conv3_2"
  type: CONVOLUTION
  blobs_lr: 1
  blobs_lr: 2
  weight_decay: 1
  weight_decay: 0
  convolution_param {
    num_output: 256
    pad: 1
    kernel_size: 3
  }
}
layers {
  bottom: "conv3_2"
  top: "conv3_2"
  name: "bn3_2"
  type: BN
  bn_param {
    scale_filler {
      type: "constant"
      value: 1
    }
    shift_filler {
      type: "constant"
      value: 0.001
    }
  }
}
layers {
  bottom: "conv3_2"
  top: "conv3_2"
  name: "relu3_2"
  type: RELU
}
layers {
  bottom: "conv3_2"
  top: "conv3_3"
  name: "conv3_3"
  type: CONVOLUTION
  blobs_lr: 1
  blobs_lr: 2
  weight_decay: 1
  weight_decay: 0
  convolution_param {
    num_output: 256
    pad: 1
    kernel_size: 3
  }
}
layers {
  bottom: "conv3_3"
  top: "conv3_3"
  name: "bn3_3"
  type: BN
  bn_param {
    scale_filler {
      type: "constant"
      value: 1
    }
    shift_filler {
      type: "constant"
      value: 0.001
    }
  }
}
layers {
  bottom: "conv3_3"
  top: "conv3_3"
  name: "relu3_3"
  type: RELU
}
layers {
  bottom: "conv3_3"
  top: "pool3"
  top: "pool3_mask"
  name: "pool3"
  type: POOLING
  pooling_param {
    pool: MAX
    kernel_size: 2
    stride: 2
  }
}
layers {
  bottom: "pool3"
  top: "conv4_1"
  name: "conv4_1"
  type: CONVOLUTION
  blobs_lr: 1
  blobs_lr: 2
  weight_decay: 1
  weight_decay: 0
  convolution_param {
    num_output: 512
    pad: 1
    kernel_size: 3
  }
}
layers {
  bottom: "conv4_1"
  top: "conv4_1"
  name: "bn4_1"
  type: BN
  bn_param {
    scale_filler {
      type: "constant"
      value: 1
    }
    shift_filler {
      type: "constant"
      value: 0.001
    }
  }
}
layers {
  bottom: "conv4_1"
  top: "conv4_1"
  name: "relu4_1"
  type: RELU
}
layers {
  bottom: "conv4_1"
  top: "conv4_2"
  name: "conv4_2"
  type: CONVOLUTION
  blobs_lr: 1
  blobs_lr: 2
  weight_decay: 1
  weight_decay: 0
  convolution_param {
    num_output: 512
    pad: 1
    kernel_size: 3
  }
}
layers {
  bottom: "conv4_2"
  top: "conv4_2"
  name: "bn4_2"
  type: BN
  bn_param {
    scale_filler {
      type: "constant"
      value: 1
    }
    shift_filler {
      type: "constant"
      value: 0.001
    }
  }
}
layers {
  bottom: "conv4_2"
  top: "conv4_2"
  name: "relu4_2"
  type: RELU
}
layers {
  bottom: "conv4_2"
  top: "conv4_3"
  name: "conv4_3"
  type: CONVOLUTION
  blobs_lr: 1
  blobs_lr: 2
  weight_decay: 1
  weight_decay: 0
  convolution_param {
    num_output: 512
    pad: 1
    kernel_size: 3
  }
}
layers {
  bottom: "conv4_3"
  top: "conv4_3"
  name: "bn4_3"
  type: BN
  bn_param {
    scale_filler {
      type: "constant"
      value: 1
    }
    shift_filler {
      type: "constant"
      value: 0.001
    }
  }
}
layers {
  bottom: "conv4_3"
  top: "conv4_3"
  name: "relu4_3"
  type: RELU
}
layers {
  bottom: "conv4_3"
  top: "pool4"
  top: "pool4_mask"
  name: "pool4"
  type: POOLING
  pooling_param {
    pool: MAX
    kernel_size: 2
    stride: 2
  }
}
layers {
  bottom: "pool4"
  top: "conv5_1"
  name: "conv5_1"
  type: CONVOLUTION
  blobs_lr: 1
  blobs_lr: 2
  weight_decay: 1
  weight_decay: 0
  convolution_param {
    num_output: 512
    pad: 1
    kernel_size: 3
  }
}
layers {
  bottom: "conv5_1"
  top: "conv5_1"
  name: "bn5_1"
  type: BN
  bn_param {
    scale_filler {
      type: "constant"
      value: 1
    }
    shift_filler {
      type: "constant"
      value: 0.001
    }
  }
}
layers {
  bottom: "conv5_1"
  top: "conv5_1"
  name: "relu5_1"
  type: RELU
}
layers {
  bottom: "conv5_1"
  top: "conv5_2"
  name: "conv5_2"
  type: CONVOLUTION
  blobs_lr: 1
  blobs_lr: 2
  weight_decay: 1
  weight_decay: 0
  convolution_param {
    num_output: 512
    pad: 1
    kernel_size: 3
  }
}
layers {
  bottom: "conv5_2"
  top: "conv5_2"
  name: "bn5_2"
  type: BN
  bn_param {
    scale_filler {
      type: "constant"
      value: 1
    }
    shift_filler {
      type: "constant"
      value: 0.001
    }
  }
}
layers {
  bottom: "conv5_2"
  top: "conv5_2"
  name: "relu5_2"
  type: RELU
}
layers {
  bottom: "conv5_2"
  top: "conv5_3"
  name: "conv5_3"
  type: CONVOLUTION
  blobs_lr: 1
  blobs_lr: 2
  weight_decay: 1
  weight_decay: 0
  convolution_param {
    num_output: 512
    pad: 1
    kernel_size: 3
  }
}
layers {
  bottom: "conv5_3"
  top: "conv5_3"
  name: "bn5_3"
  type: BN
  bn_param {
    scale_filler {
      type: "constant"
      value: 1
    }
    shift_filler {
      type: "constant"
      value: 0.001
    }
  }
}
layers {
  bottom: "conv5_3"
  top: "conv5_3"
  name: "relu5_3"
  type: RELU
}
layers {
  bottom: "conv5_3"
  top: "pool5"
  top: "pool5_mask"
  name: "pool5"
  type: POOLING
  pooling_param {
    pool: MAX
    kernel_size: 2
    stride: 2
  }
}
layers {
  bottom: "pool5"
  top: "fc6"
  name: "fc6"
  type: CONVOLUTION
  blobs_lr: 1
  blobs_lr: 2
  weight_decay: 1
  weight_decay: 0
  convolution_param {
    num_output: 4096
    kernel_size: 7
  }
}
layers {
  bottom: "fc6"
  top: "fc6"
  name: "bnfc6"
  type: BN
  bn_param {
    scale_filler {
      type: "constant"
      value: 1
    }
    shift_filler {
      type: "constant"
      value: 0.001
    }
  }
}
layers {
  bottom: "fc6"
  top: "fc6"
  name: "relu6"
  type: RELU
}
layers {
  bottom: "fc6"
  top: "fc7"
  name: "fc7"
  type: CONVOLUTION
  blobs_lr: 1
  blobs_lr: 2
  weight_decay: 1
  weight_decay: 0
  convolution_param {
    num_output: 4096
    kernel_size: 1
  }
}
layers {
  bottom: "fc7"
  top: "fc7"
  name: "bnfc7"
  type: BN
  bn_param {
    scale_filler {
      type: "constant"
      value: 1
    }
    shift_filler {
      type: "constant"
      value: 0.001
    }
  }
}
layers {
  bottom: "fc7"
  top: "fc7"
  name: "relu7"
  type: RELU
}
layers {
  bottom: "fc7"
  top: "fc6-deconv"
  name: "fc6-deconv"
  type: DECONVOLUTION
  blobs_lr: 1
  blobs_lr: 2
  weight_decay: 1
  weight_decay: 0
  convolution_param {
    num_output: 512
    kernel_size: 7
    weight_filler {
      type: "gaussian"
      std: 0.01
    }
    bias_filler {
      type: "constant"
      value: 0
    }
  }
}
layers {
  bottom: "fc6-deconv"
  top: "fc6-deconv"
  name: "fc6-deconv-bn"
  type: BN
  bn_param {
    scale_filler {
      type: "constant"
      value: 1
    }
    shift_filler {
      type: "constant"
      value: 0.001
    }
  }
}
layers {
  bottom: "fc6-deconv"
  top: "fc6-deconv"
  name: "fc6-deconv-relu"
  type: RELU
}
layers {
  bottom: "fc6-deconv"
  bottom: "pool5_mask"
  top: "unpool5"
  name: "unpool5"
  type: UNPOOLING
  unpooling_param {
    unpool: MAX
    kernel_size: 2
    stride: 2
    unpool_size: 14
  }
}
layers {
  bottom: "unpool5"
  top: "deconv5_1"
  name: "deconv5_1"
  type: DECONVOLUTION
  blobs_lr: 1
  blobs_lr: 2
  weight_decay: 1
  weight_decay: 0
  convolution_param {
    num_output: 512
    pad: 1
    kernel_size: 3
    weight_filler {
      type: "gaussian"
      std: 0.01
    }
    bias_filler {
      type: "constant"
      value: 0
    }
  }
}
layers {
  bottom: "deconv5_1"
  top: "deconv5_1"
  name: "debn5_1"
  type: BN
  bn_param {
    scale_filler {
      type: "constant"
      value: 1
    }
    shift_filler {
      type: "constant"
      value: 0.001
    }
  }
}
layers {
  bottom: "deconv5_1"
  top: "deconv5_1"
  name: "derelu5_1"
  type: RELU
}
layers {
  bottom: "deconv5_1"
  top: "deconv5_2"
  name: "deconv5_2"
  type: DECONVOLUTION
  blobs_lr: 1
  blobs_lr: 2
  weight_decay: 1
  weight_decay: 0
  convolution_param {
    num_output: 512
    pad: 1
    kernel_size: 3
    weight_filler {
      type: "gaussian"
      std: 0.01
    }
    bias_filler {
      type: "constant"
      value: 0
    }
  }
}
layers {
  bottom: "deconv5_2"
  top: "deconv5_2"
  name: "debn5_2"
  type: BN
  bn_param {
    scale_filler {
      type: "constant"
      value: 1
    }
    shift_filler {
      type: "constant"
      value: 0.001
    }
  }
}
layers {
  bottom: "deconv5_2"
  top: "deconv5_2"
  name: "derelu5_2"
  type: RELU
}
layers {
  bottom: "deconv5_2"
  top: "deconv5_3"
  name: "deconv5_3"
  type: DECONVOLUTION
  blobs_lr: 1
  blobs_lr: 2
  weight_decay: 1
  weight_decay: 0
  convolution_param {
    num_output: 512
    pad: 1
    kernel_size: 3
    weight_filler {
      type: "gaussian"
      std: 0.01
    }
    bias_filler {
      type: "constant"
      value: 0
    }
  }
}
layers {
  bottom: "deconv5_3"
  top: "deconv5_3"
  name: "debn5_3"
  type: BN
  bn_param {
    scale_filler {
      type: "constant"
      value: 1
    }
    shift_filler {
      type: "constant"
      value: 0.001
    }
  }
}
layers {
  bottom: "deconv5_3"
  top: "deconv5_3"
  name: "derelu5_3"
  type: RELU
}
layers {
  bottom: "deconv5_3"
  bottom: "pool4_mask"
  top: "unpool4"
  name: "unpool4"
  type: UNPOOLING
  unpooling_param {
    unpool: MAX
    kernel_size: 2
    stride: 2
    unpool_size: 28
  }
}
layers {
  bottom: "unpool4"
  top: "deconv4_1"
  name: "deconv4_1"
  type: DECONVOLUTION
  blobs_lr: 1
  blobs_lr: 2
  weight_decay: 1
  weight_decay: 0
  convolution_param {
    num_output: 512
    pad: 1
    kernel_size: 3
    weight_filler {
      type: "gaussian"
      std: 0.01
    }
    bias_filler {
      type: "constant"
      value: 0
    }
  }
}
layers {
  bottom: "deconv4_1"
  top: "deconv4_1"
  name: "debn4_1"
  type: BN
  bn_param {
    scale_filler {
      type: "constant"
      value: 1
    }
    shift_filler {
      type: "constant"
      value: 0.001
    }
  }
}
layers {
  bottom: "deconv4_1"
  top: "deconv4_1"
  name: "derelu4_1"
  type: RELU
}
layers {
  bottom: "deconv4_1"
  top: "deconv4_2"
  name: "deconv4_2"
  type: DECONVOLUTION
  blobs_lr: 1
  blobs_lr: 2
  weight_decay: 1
  weight_decay: 0
  convolution_param {
    num_output: 512
    pad: 1
    kernel_size: 3
    weight_filler {
      type: "gaussian"
      std: 0.01
    }
    bias_filler {
      type: "constant"
      value: 0
    }
  }
}
layers {
  bottom: "deconv4_2"
  top: "deconv4_2"
  name: "debn4_2"
  type: BN
  bn_param {
    scale_filler {
      type: "constant"
      value: 1
    }
    shift_filler {
      type: "constant"
      value: 0.001
    }
  }
}
layers {
  bottom: "deconv4_2"
  top: "deconv4_2"
  name: "derelu4_2"
  type: RELU
}
layers {
  bottom: "deconv4_2"
  top: "deconv4_3"
  name: "deconv4_3"
  type: DECONVOLUTION
  blobs_lr: 1
  blobs_lr: 2
  weight_decay: 1
  weight_decay: 0
  convolution_param {
    num_output: 256
    pad: 1
    kernel_size: 3
    weight_filler {
      type: "gaussian"
      std: 0.01
    }
    bias_filler {
      type: "constant"
      value: 0
    }
  }
}
layers {
  bottom: "deconv4_3"
  top: "deconv4_3"
  name: "debn4_3"
  type: BN
  bn_param {
    scale_filler {
      type: "constant"
      value: 1
    }
    shift_filler {
      type: "constant"
      value: 0.001
    }
  }
}
layers {
  bottom: "deconv4_3"
  top: "deconv4_3"
  name: "derelu4_3"
  type: RELU
}
layers {
  bottom: "deconv4_3"
  bottom: "pool3_mask"
  top: "unpool3"
  name: "unpool3"
  type: UNPOOLING
  unpooling_param {
    unpool: MAX
    kernel_size: 2
    stride: 2
    unpool_size: 56
  }
}
layers {
  bottom: "unpool3"
  top: "deconv3_1"
  name: "deconv3_1"
  type: DECONVOLUTION
  blobs_lr: 1
  blobs_lr: 2
  weight_decay: 1
  weight_decay: 0
  convolution_param {
    num_output: 256
    pad: 1
    kernel_size: 3
    weight_filler {
      type: "gaussian"
      std: 0.01
    }
    bias_filler {
      type: "constant"
      value: 0
    }
  }
}
layers {
  bottom: "deconv3_1"
  top: "deconv3_1"
  name: "debn3_1"
  type: BN
  bn_param {
    scale_filler {
      type: "constant"
      value: 1
    }
    shift_filler {
      type: "constant"
      value: 0.001
    }
  }
}
layers {
  bottom: "deconv3_1"
  top: "deconv3_1"
  name: "derelu3_1"
  type: RELU
}
layers {
  bottom: "deconv3_1"
  top: "deconv3_2"
  name: "deconv3_2"
  type: DECONVOLUTION
  blobs_lr: 1
  blobs_lr: 2
  weight_decay: 1
  weight_decay: 0
  convolution_param {
    num_output: 256
    pad: 1
    kernel_size: 3
    weight_filler {
      type: "gaussian"
      std: 0.01
    }
    bias_filler {
      type: "constant"
      value: 0
    }
  }
}
layers {
  bottom: "deconv3_2"
  top: "deconv3_2"
  name: "debn3_2"
  type: BN
  bn_param {
    scale_filler {
      type: "constant"
      value: 1
    }
    shift_filler {
      type: "constant"
      value: 0.001
    }
  }
}
layers {
  bottom: "deconv3_2"
  top: "deconv3_2"
  name: "derelu3_2"
  type: RELU
}
layers {
  bottom: "deconv3_2"
  top: "deconv3_3"
  name: "deconv3_3"
  type: DECONVOLUTION
  blobs_lr: 1
  blobs_lr: 2
  weight_decay: 1
  weight_decay: 0
  convolution_param {
    num_output: 128
    pad: 1
    kernel_size: 3
    weight_filler {
      type: "gaussian"
      std: 0.01
    }
    bias_filler {
      type: "constant"
      value: 0
    }
  }
}
layers {
  bottom: "deconv3_3"
  top: "deconv3_3"
  name: "debn3_3"
  type: BN
  bn_param {
    scale_filler {
      type: "constant"
      value: 1
    }
    shift_filler {
      type: "constant"
      value: 0.001
    }
  }
}
layers {
  bottom: "deconv3_3"
  top: "deconv3_3"
  name: "derelu3_3"
  type: RELU
}
layers {
  bottom: "deconv3_3"
  bottom: "pool2_mask"
  top: "unpool2"
  name: "unpool2"
  type: UNPOOLING
  unpooling_param {
    unpool: MAX
    kernel_size: 2
    stride: 2
    unpool_size: 112
  }
}
layers {
  bottom: "unpool2"
  top: "deconv2_1"
  name: "deconv2_1"
  type: DECONVOLUTION
  blobs_lr: 1
  blobs_lr: 2
  weight_decay: 1
  weight_decay: 0
  convolution_param {
    num_output: 128
    pad: 1
    kernel_size: 3
    weight_filler {
      type: "gaussian"
      std: 0.01
    }
    bias_filler {
      type: "constant"
      value: 0
    }
  }
}
layers {
  bottom: "deconv2_1"
  top: "deconv2_1"
  name: "debn2_1"
  type: BN
  bn_param {
    scale_filler {
      type: "constant"
      value: 1
    }
    shift_filler {
      type: "constant"
      value: 0.001
    }
  }
}
layers {
  bottom: "deconv2_1"
  top: "deconv2_1"
  name: "derelu2_1"
  type: RELU
}
layers {
  bottom: "deconv2_1"
  top: "deconv2_2"
  name: "deconv2_2"
  type: DECONVOLUTION
  blobs_lr: 1
  blobs_lr: 2
  weight_decay: 1
  weight_decay: 0
  convolution_param {
    num_output: 64
    pad: 1
    kernel_size: 3
    weight_filler {
      type: "gaussian"
      std: 0.01
    }
    bias_filler {
      type: "constant"
      value: 0
    }
  }
}
layers {
  bottom: "deconv2_2"
  top: "deconv2_2"
  name: "debn2_2"
  type: BN
  bn_param {
    scale_filler {
      type: "constant"
      value: 1
    }
    shift_filler {
      type: "constant"
      value: 0.001
    }
  }
}
layers {
  bottom: "deconv2_2"
  top: "deconv2_2"
  name: "derelu2_2"
  type: RELU
}
layers {
  bottom: "deconv2_2"
  bottom: "pool1_mask"
  top: "unpool1"
  name: "unpool1"
  type: UNPOOLING
  unpooling_param {
    unpool: MAX
    kernel_size: 2
    stride: 2
    unpool_size: 224
  }
}
layers {
  bottom: "unpool1"
  top: "deconv1_1"
  name: "deconv1_1"
  type: DECONVOLUTION
  blobs_lr: 1
  blobs_lr: 2
  weight_decay: 1
  weight_decay: 0
  convolution_param {
    num_output: 64
    pad: 1
    kernel_size: 3
    weight_filler {
      type: "gaussian"
      std: 0.01
    }
    bias_filler {
      type: "constant"
      value: 0
    }
  }
}
layers {
  bottom: "deconv1_1"
  top: "deconv1_1"
  name: "debn1_1"
  type: BN
  bn_param {
    scale_filler {
      type: "constant"
      value: 1
    }
    shift_filler {
      type: "constant"
      value: 0.001
    }
  }
}
layers {
  bottom: "deconv1_1"
  top: "deconv1_1"
  name: "derelu1_1"
  type: RELU
}
layers {
  bottom: "deconv1_1"
  top: "deconv1_2"
  name: "deconv1_2"
  type: DECONVOLUTION
  blobs_lr: 1
  blobs_lr: 2
  weight_decay: 1
  weight_decay: 0
  convolution_param {
    num_output: 64
    pad: 1
    kernel_size: 3
    weight_filler {
      type: "gaussian"
      std: 0.01
    }
    bias_filler {
      type: "constant"
      value: 0
    }
  }
}
layers {
  bottom: "deconv1_2"
  top: "deconv1_2"
  name: "debn1_2"
  type: BN
  bn_param {
    scale_filler {
      type: "constant"
      value: 1
    }
    shift_filler {
      type: "constant"
      value: 0.001
    }
  }
}
layers {
  bottom: "deconv1_2"
  top: "deconv1_2"
  name: "derelu1_2"
  type: RELU
}
layers {
  bottom: "deconv1_2"
  top: "seg-score"
  name: "seg-score-voc"
  type: CONVOLUTION
  blobs_lr: 1
  blobs_lr: 2
  weight_decay: 1
  weight_decay: 0
  convolution_param {
    num_output: 21
    kernel_size: 1
    weight_filler {
      type: "gaussian"
      std: 0.01
    }
    bias_filler {
      type: "constant"
      value: 0
    }
  }
}
layers {
  bottom: "seg-score"
  bottom: "seg-label"
  top: "seg-accuracy"
  name: "seg-accuracy"
  type: ELTWISE_ACCURACY
  include {
    phase: TEST
  }
  eltwise_accuracy_param {
    ignore_label: 255
  }
}
layers {
  bottom: "seg-score"
  bottom: "seg-label"
  top: "seg-loss"
  name: "seg-loss"
  type: SOFTMAX_LOSS
  loss_param {
    ignore_label: 255
  }
}
state {
  phase: TEST
}
I0922 22:33:31.231554  2573 layer_factory.hpp:78] Creating layer data
I0922 22:33:31.231577  2573 net.cpp:69] Creating Layer data
I0922 22:33:31.231583  2573 net.cpp:358] data -> data
I0922 22:33:31.231591  2573 net.cpp:358] data -> seg-label
I0922 22:33:31.231600  2573 net.cpp:358] data -> (automatic)
I0922 22:33:31.231606  2573 net.cpp:98] Setting up data
I0922 22:33:31.231611  2573 image_seg_data_layer.cpp:51] Opening file ./stage_1_train_imgset/val_reduced_07.txt
I0922 22:33:31.235496  2573 image_seg_data_layer.cpp:68] Shuffling data
I0922 22:33:31.235918  2573 image_seg_data_layer.cpp:73] A total of 4992 images.
I0922 22:33:31.237143  2573 image_seg_data_layer.cpp:119] output data size: 8,3,224,224
I0922 22:33:31.237154  2573 image_seg_data_layer.cpp:123] output label size: 8,1,224,224
I0922 22:33:31.237169  2573 image_seg_data_layer.cpp:127] output data_dim size: 8,1,1,2
I0922 22:33:31.238195  2573 net.cpp:105] Top shape: 8 3 224 224 (1204224)
I0922 22:33:31.238214  2573 net.cpp:105] Top shape: 8 1 224 224 (401408)
I0922 22:33:31.238219  2573 net.cpp:105] Top shape: 8 1 1 2 (16)
I0922 22:33:31.238224  2573 layer_factory.hpp:78] Creating layer seg-label_data_1_split
I0922 22:33:31.238231  2573 net.cpp:69] Creating Layer seg-label_data_1_split
I0922 22:33:31.238237  2573 net.cpp:396] seg-label_data_1_split <- seg-label
I0922 22:33:31.238243  2573 net.cpp:358] seg-label_data_1_split -> seg-label_data_1_split_0
I0922 22:33:31.238255  2573 net.cpp:358] seg-label_data_1_split -> seg-label_data_1_split_1
I0922 22:33:31.238273  2573 net.cpp:98] Setting up seg-label_data_1_split
I0922 22:33:31.238281  2573 net.cpp:105] Top shape: 8 1 224 224 (401408)
I0922 22:33:31.238296  2573 net.cpp:105] Top shape: 8 1 224 224 (401408)
I0922 22:33:31.238301  2573 layer_factory.hpp:78] Creating layer conv1_1
I0922 22:33:31.238307  2573 net.cpp:69] Creating Layer conv1_1
I0922 22:33:31.238312  2573 net.cpp:396] conv1_1 <- data
I0922 22:33:31.238317  2573 net.cpp:358] conv1_1 -> conv1_1
I0922 22:33:31.238323  2573 net.cpp:98] Setting up conv1_1
I0922 22:33:31.238390  2573 net.cpp:105] Top shape: 8 64 224 224 (25690112)
I0922 22:33:31.238401  2573 layer_factory.hpp:78] Creating layer bn1_1
I0922 22:33:31.238409  2573 net.cpp:69] Creating Layer bn1_1
I0922 22:33:31.238415  2573 net.cpp:396] bn1_1 <- conv1_1
I0922 22:33:31.238421  2573 net.cpp:347] bn1_1 -> conv1_1 (in-place)
I0922 22:33:31.238428  2573 net.cpp:98] Setting up bn1_1
I0922 22:33:31.238551  2573 net.cpp:105] Top shape: 8 64 224 224 (25690112)
I0922 22:33:31.238562  2573 layer_factory.hpp:78] Creating layer relu1_1
I0922 22:33:31.238569  2573 net.cpp:69] Creating Layer relu1_1
I0922 22:33:31.238574  2573 net.cpp:396] relu1_1 <- conv1_1
I0922 22:33:31.238580  2573 net.cpp:347] relu1_1 -> conv1_1 (in-place)
I0922 22:33:31.238593  2573 net.cpp:98] Setting up relu1_1
I0922 22:33:31.238600  2573 net.cpp:105] Top shape: 8 64 224 224 (25690112)
I0922 22:33:31.238603  2573 layer_factory.hpp:78] Creating layer conv1_2
I0922 22:33:31.238626  2573 net.cpp:69] Creating Layer conv1_2
I0922 22:33:31.238631  2573 net.cpp:396] conv1_2 <- conv1_1
I0922 22:33:31.238637  2573 net.cpp:358] conv1_2 -> conv1_2
I0922 22:33:31.238644  2573 net.cpp:98] Setting up conv1_2
I0922 22:33:31.238764  2573 net.cpp:105] Top shape: 8 64 224 224 (25690112)
I0922 22:33:31.238773  2573 layer_factory.hpp:78] Creating layer bn1_2
I0922 22:33:31.238781  2573 net.cpp:69] Creating Layer bn1_2
I0922 22:33:31.238786  2573 net.cpp:396] bn1_2 <- conv1_2
I0922 22:33:31.238791  2573 net.cpp:347] bn1_2 -> conv1_2 (in-place)
I0922 22:33:31.238797  2573 net.cpp:98] Setting up bn1_2
I0922 22:33:31.238903  2573 net.cpp:105] Top shape: 8 64 224 224 (25690112)
I0922 22:33:31.238912  2573 layer_factory.hpp:78] Creating layer relu1_2
I0922 22:33:31.238920  2573 net.cpp:69] Creating Layer relu1_2
I0922 22:33:31.238925  2573 net.cpp:396] relu1_2 <- conv1_2
I0922 22:33:31.238930  2573 net.cpp:347] relu1_2 -> conv1_2 (in-place)
I0922 22:33:31.238936  2573 net.cpp:98] Setting up relu1_2
I0922 22:33:31.238941  2573 net.cpp:105] Top shape: 8 64 224 224 (25690112)
I0922 22:33:31.238946  2573 layer_factory.hpp:78] Creating layer pool1
I0922 22:33:31.238952  2573 net.cpp:69] Creating Layer pool1
I0922 22:33:31.238957  2573 net.cpp:396] pool1 <- conv1_2
I0922 22:33:31.238963  2573 net.cpp:358] pool1 -> pool1
I0922 22:33:31.238981  2573 net.cpp:358] pool1 -> pool1_mask
I0922 22:33:31.238987  2573 net.cpp:98] Setting up pool1
I0922 22:33:31.239003  2573 net.cpp:105] Top shape: 8 64 112 112 (6422528)
I0922 22:33:31.239009  2573 net.cpp:105] Top shape: 8 64 112 112 (6422528)
I0922 22:33:31.239013  2573 layer_factory.hpp:78] Creating layer conv2_1
I0922 22:33:31.239018  2573 net.cpp:69] Creating Layer conv2_1
I0922 22:33:31.239023  2573 net.cpp:396] conv2_1 <- pool1
I0922 22:33:31.239030  2573 net.cpp:358] conv2_1 -> conv2_1
I0922 22:33:31.239037  2573 net.cpp:98] Setting up conv2_1
I0922 22:33:31.239133  2573 net.cpp:105] Top shape: 8 128 112 112 (12845056)
I0922 22:33:31.239143  2573 layer_factory.hpp:78] Creating layer bn2_1
I0922 22:33:31.239151  2573 net.cpp:69] Creating Layer bn2_1
I0922 22:33:31.239157  2573 net.cpp:396] bn2_1 <- conv2_1
I0922 22:33:31.239162  2573 net.cpp:347] bn2_1 -> conv2_1 (in-place)
I0922 22:33:31.239168  2573 net.cpp:98] Setting up bn2_1
I0922 22:33:31.239200  2573 net.cpp:105] Top shape: 8 128 112 112 (12845056)
I0922 22:33:31.239209  2573 layer_factory.hpp:78] Creating layer relu2_1
I0922 22:33:31.239225  2573 net.cpp:69] Creating Layer relu2_1
I0922 22:33:31.239230  2573 net.cpp:396] relu2_1 <- conv2_1
I0922 22:33:31.239236  2573 net.cpp:347] relu2_1 -> conv2_1 (in-place)
I0922 22:33:31.239251  2573 net.cpp:98] Setting up relu2_1
I0922 22:33:31.239255  2573 net.cpp:105] Top shape: 8 128 112 112 (12845056)
I0922 22:33:31.239259  2573 layer_factory.hpp:78] Creating layer conv2_2
I0922 22:33:31.239266  2573 net.cpp:69] Creating Layer conv2_2
I0922 22:33:31.239271  2573 net.cpp:396] conv2_2 <- conv2_1
I0922 22:33:31.239276  2573 net.cpp:358] conv2_2 -> conv2_2
I0922 22:33:31.239282  2573 net.cpp:98] Setting up conv2_2
I0922 22:33:31.239462  2573 net.cpp:105] Top shape: 8 128 112 112 (12845056)
I0922 22:33:31.239482  2573 layer_factory.hpp:78] Creating layer bn2_2
I0922 22:33:31.239498  2573 net.cpp:69] Creating Layer bn2_2
I0922 22:33:31.239505  2573 net.cpp:396] bn2_2 <- conv2_2
I0922 22:33:31.239509  2573 net.cpp:347] bn2_2 -> conv2_2 (in-place)
I0922 22:33:31.239516  2573 net.cpp:98] Setting up bn2_2
I0922 22:33:31.239547  2573 net.cpp:105] Top shape: 8 128 112 112 (12845056)
I0922 22:33:31.239557  2573 layer_factory.hpp:78] Creating layer relu2_2
I0922 22:33:31.239562  2573 net.cpp:69] Creating Layer relu2_2
I0922 22:33:31.239567  2573 net.cpp:396] relu2_2 <- conv2_2
I0922 22:33:31.239572  2573 net.cpp:347] relu2_2 -> conv2_2 (in-place)
I0922 22:33:31.239578  2573 net.cpp:98] Setting up relu2_2
I0922 22:33:31.239581  2573 net.cpp:105] Top shape: 8 128 112 112 (12845056)
I0922 22:33:31.239586  2573 layer_factory.hpp:78] Creating layer pool2
I0922 22:33:31.239593  2573 net.cpp:69] Creating Layer pool2
I0922 22:33:31.239603  2573 net.cpp:396] pool2 <- conv2_2
I0922 22:33:31.239610  2573 net.cpp:358] pool2 -> pool2
I0922 22:33:31.239616  2573 net.cpp:358] pool2 -> pool2_mask
I0922 22:33:31.239622  2573 net.cpp:98] Setting up pool2
I0922 22:33:31.239629  2573 net.cpp:105] Top shape: 8 128 56 56 (3211264)
I0922 22:33:31.239634  2573 net.cpp:105] Top shape: 8 128 56 56 (3211264)
I0922 22:33:31.239639  2573 layer_factory.hpp:78] Creating layer conv3_1
I0922 22:33:31.239645  2573 net.cpp:69] Creating Layer conv3_1
I0922 22:33:31.239650  2573 net.cpp:396] conv3_1 <- pool2
I0922 22:33:31.239655  2573 net.cpp:358] conv3_1 -> conv3_1
I0922 22:33:31.239661  2573 net.cpp:98] Setting up conv3_1
I0922 22:33:31.240038  2573 net.cpp:105] Top shape: 8 256 56 56 (6422528)
I0922 22:33:31.240051  2573 layer_factory.hpp:78] Creating layer bn3_1
I0922 22:33:31.240057  2573 net.cpp:69] Creating Layer bn3_1
I0922 22:33:31.240062  2573 net.cpp:396] bn3_1 <- conv3_1
I0922 22:33:31.240068  2573 net.cpp:347] bn3_1 -> conv3_1 (in-place)
I0922 22:33:31.240074  2573 net.cpp:98] Setting up bn3_1
I0922 22:33:31.240094  2573 net.cpp:105] Top shape: 8 256 56 56 (6422528)
I0922 22:33:31.240103  2573 layer_factory.hpp:78] Creating layer relu3_1
I0922 22:33:31.240109  2573 net.cpp:69] Creating Layer relu3_1
I0922 22:33:31.240114  2573 net.cpp:396] relu3_1 <- conv3_1
I0922 22:33:31.240119  2573 net.cpp:347] relu3_1 -> conv3_1 (in-place)
I0922 22:33:31.240125  2573 net.cpp:98] Setting up relu3_1
I0922 22:33:31.240130  2573 net.cpp:105] Top shape: 8 256 56 56 (6422528)
I0922 22:33:31.240135  2573 layer_factory.hpp:78] Creating layer conv3_2
I0922 22:33:31.240141  2573 net.cpp:69] Creating Layer conv3_2
I0922 22:33:31.240146  2573 net.cpp:396] conv3_2 <- conv3_1
I0922 22:33:31.240151  2573 net.cpp:358] conv3_2 -> conv3_2
I0922 22:33:31.240157  2573 net.cpp:98] Setting up conv3_2
I0922 22:33:31.240857  2573 net.cpp:105] Top shape: 8 256 56 56 (6422528)
I0922 22:33:31.240869  2573 layer_factory.hpp:78] Creating layer bn3_2
I0922 22:33:31.240877  2573 net.cpp:69] Creating Layer bn3_2
I0922 22:33:31.240881  2573 net.cpp:396] bn3_2 <- conv3_2
I0922 22:33:31.240887  2573 net.cpp:347] bn3_2 -> conv3_2 (in-place)
I0922 22:33:31.240895  2573 net.cpp:98] Setting up bn3_2
I0922 22:33:31.240908  2573 net.cpp:105] Top shape: 8 256 56 56 (6422528)
I0922 22:33:31.240914  2573 layer_factory.hpp:78] Creating layer relu3_2
I0922 22:33:31.240921  2573 net.cpp:69] Creating Layer relu3_2
I0922 22:33:31.240927  2573 net.cpp:396] relu3_2 <- conv3_2
I0922 22:33:31.240932  2573 net.cpp:347] relu3_2 -> conv3_2 (in-place)
I0922 22:33:31.240937  2573 net.cpp:98] Setting up relu3_2
I0922 22:33:31.240942  2573 net.cpp:105] Top shape: 8 256 56 56 (6422528)
I0922 22:33:31.240947  2573 layer_factory.hpp:78] Creating layer conv3_3
I0922 22:33:31.240952  2573 net.cpp:69] Creating Layer conv3_3
I0922 22:33:31.240958  2573 net.cpp:396] conv3_3 <- conv3_2
I0922 22:33:31.240963  2573 net.cpp:358] conv3_3 -> conv3_3
I0922 22:33:31.240969  2573 net.cpp:98] Setting up conv3_3
I0922 22:33:31.241619  2573 net.cpp:105] Top shape: 8 256 56 56 (6422528)
I0922 22:33:31.241629  2573 layer_factory.hpp:78] Creating layer bn3_3
I0922 22:33:31.241636  2573 net.cpp:69] Creating Layer bn3_3
I0922 22:33:31.241641  2573 net.cpp:396] bn3_3 <- conv3_3
I0922 22:33:31.241647  2573 net.cpp:347] bn3_3 -> conv3_3 (in-place)
I0922 22:33:31.241653  2573 net.cpp:98] Setting up bn3_3
I0922 22:33:31.241665  2573 net.cpp:105] Top shape: 8 256 56 56 (6422528)
I0922 22:33:31.241672  2573 layer_factory.hpp:78] Creating layer relu3_3
I0922 22:33:31.241677  2573 net.cpp:69] Creating Layer relu3_3
I0922 22:33:31.241682  2573 net.cpp:396] relu3_3 <- conv3_3
I0922 22:33:31.241688  2573 net.cpp:347] relu3_3 -> conv3_3 (in-place)
I0922 22:33:31.241693  2573 net.cpp:98] Setting up relu3_3
I0922 22:33:31.241698  2573 net.cpp:105] Top shape: 8 256 56 56 (6422528)
I0922 22:33:31.241703  2573 layer_factory.hpp:78] Creating layer pool3
I0922 22:33:31.241708  2573 net.cpp:69] Creating Layer pool3
I0922 22:33:31.241713  2573 net.cpp:396] pool3 <- conv3_3
I0922 22:33:31.241732  2573 net.cpp:358] pool3 -> pool3
I0922 22:33:31.241742  2573 net.cpp:358] pool3 -> pool3_mask
I0922 22:33:31.241749  2573 net.cpp:98] Setting up pool3
I0922 22:33:31.241755  2573 net.cpp:105] Top shape: 8 256 28 28 (1605632)
I0922 22:33:31.241760  2573 net.cpp:105] Top shape: 8 256 28 28 (1605632)
I0922 22:33:31.241765  2573 layer_factory.hpp:78] Creating layer conv4_1
I0922 22:33:31.241770  2573 net.cpp:69] Creating Layer conv4_1
I0922 22:33:31.241775  2573 net.cpp:396] conv4_1 <- pool3
I0922 22:33:31.241781  2573 net.cpp:358] conv4_1 -> conv4_1
I0922 22:33:31.241787  2573 net.cpp:98] Setting up conv4_1
I0922 22:33:31.242866  2573 net.cpp:105] Top shape: 8 512 28 28 (3211264)
I0922 22:33:31.242883  2573 layer_factory.hpp:78] Creating layer bn4_1
I0922 22:33:31.242890  2573 net.cpp:69] Creating Layer bn4_1
I0922 22:33:31.242894  2573 net.cpp:396] bn4_1 <- conv4_1
I0922 22:33:31.242911  2573 net.cpp:347] bn4_1 -> conv4_1 (in-place)
I0922 22:33:31.242918  2573 net.cpp:98] Setting up bn4_1
I0922 22:33:31.242939  2573 net.cpp:105] Top shape: 8 512 28 28 (3211264)
I0922 22:33:31.242946  2573 layer_factory.hpp:78] Creating layer relu4_1
I0922 22:33:31.242952  2573 net.cpp:69] Creating Layer relu4_1
I0922 22:33:31.242957  2573 net.cpp:396] relu4_1 <- conv4_1
I0922 22:33:31.242962  2573 net.cpp:347] relu4_1 -> conv4_1 (in-place)
I0922 22:33:31.242969  2573 net.cpp:98] Setting up relu4_1
I0922 22:33:31.242974  2573 net.cpp:105] Top shape: 8 512 28 28 (3211264)
I0922 22:33:31.242977  2573 layer_factory.hpp:78] Creating layer conv4_2
I0922 22:33:31.242982  2573 net.cpp:69] Creating Layer conv4_2
I0922 22:33:31.242987  2573 net.cpp:396] conv4_2 <- conv4_1
I0922 22:33:31.242992  2573 net.cpp:358] conv4_2 -> conv4_2
I0922 22:33:31.243000  2573 net.cpp:98] Setting up conv4_2
I0922 22:33:31.244935  2573 net.cpp:105] Top shape: 8 512 28 28 (3211264)
I0922 22:33:31.244972  2573 layer_factory.hpp:78] Creating layer bn4_2
I0922 22:33:31.244982  2573 net.cpp:69] Creating Layer bn4_2
I0922 22:33:31.244987  2573 net.cpp:396] bn4_2 <- conv4_2
I0922 22:33:31.244995  2573 net.cpp:347] bn4_2 -> conv4_2 (in-place)
I0922 22:33:31.245003  2573 net.cpp:98] Setting up bn4_2
I0922 22:33:31.245015  2573 net.cpp:105] Top shape: 8 512 28 28 (3211264)
I0922 22:33:31.245023  2573 layer_factory.hpp:78] Creating layer relu4_2
I0922 22:33:31.245030  2573 net.cpp:69] Creating Layer relu4_2
I0922 22:33:31.245035  2573 net.cpp:396] relu4_2 <- conv4_2
I0922 22:33:31.245040  2573 net.cpp:347] relu4_2 -> conv4_2 (in-place)
I0922 22:33:31.245045  2573 net.cpp:98] Setting up relu4_2
I0922 22:33:31.245050  2573 net.cpp:105] Top shape: 8 512 28 28 (3211264)
I0922 22:33:31.245055  2573 layer_factory.hpp:78] Creating layer conv4_3
I0922 22:33:31.245064  2573 net.cpp:69] Creating Layer conv4_3
I0922 22:33:31.245069  2573 net.cpp:396] conv4_3 <- conv4_2
I0922 22:33:31.245074  2573 net.cpp:358] conv4_3 -> conv4_3
I0922 22:33:31.245079  2573 net.cpp:98] Setting up conv4_3
I0922 22:33:31.247545  2573 net.cpp:105] Top shape: 8 512 28 28 (3211264)
I0922 22:33:31.247576  2573 layer_factory.hpp:78] Creating layer bn4_3
I0922 22:33:31.247587  2573 net.cpp:69] Creating Layer bn4_3
I0922 22:33:31.247593  2573 net.cpp:396] bn4_3 <- conv4_3
I0922 22:33:31.247601  2573 net.cpp:347] bn4_3 -> conv4_3 (in-place)
I0922 22:33:31.247608  2573 net.cpp:98] Setting up bn4_3
I0922 22:33:31.247620  2573 net.cpp:105] Top shape: 8 512 28 28 (3211264)
I0922 22:33:31.247627  2573 layer_factory.hpp:78] Creating layer relu4_3
I0922 22:33:31.247633  2573 net.cpp:69] Creating Layer relu4_3
I0922 22:33:31.247639  2573 net.cpp:396] relu4_3 <- conv4_3
I0922 22:33:31.247645  2573 net.cpp:347] relu4_3 -> conv4_3 (in-place)
I0922 22:33:31.247650  2573 net.cpp:98] Setting up relu4_3
I0922 22:33:31.247655  2573 net.cpp:105] Top shape: 8 512 28 28 (3211264)
I0922 22:33:31.247659  2573 layer_factory.hpp:78] Creating layer pool4
I0922 22:33:31.247665  2573 net.cpp:69] Creating Layer pool4
I0922 22:33:31.247670  2573 net.cpp:396] pool4 <- conv4_3
I0922 22:33:31.247697  2573 net.cpp:358] pool4 -> pool4
I0922 22:33:31.247706  2573 net.cpp:358] pool4 -> pool4_mask
I0922 22:33:31.247712  2573 net.cpp:98] Setting up pool4
I0922 22:33:31.247717  2573 net.cpp:105] Top shape: 8 512 14 14 (802816)
I0922 22:33:31.247722  2573 net.cpp:105] Top shape: 8 512 14 14 (802816)
I0922 22:33:31.247726  2573 layer_factory.hpp:78] Creating layer conv5_1
I0922 22:33:31.247732  2573 net.cpp:69] Creating Layer conv5_1
I0922 22:33:31.247737  2573 net.cpp:396] conv5_1 <- pool4
I0922 22:33:31.247743  2573 net.cpp:358] conv5_1 -> conv5_1
I0922 22:33:31.247750  2573 net.cpp:98] Setting up conv5_1
I0922 22:33:31.249722  2573 net.cpp:105] Top shape: 8 512 14 14 (802816)
I0922 22:33:31.249757  2573 layer_factory.hpp:78] Creating layer bn5_1
I0922 22:33:31.249769  2573 net.cpp:69] Creating Layer bn5_1
I0922 22:33:31.249775  2573 net.cpp:396] bn5_1 <- conv5_1
I0922 22:33:31.249783  2573 net.cpp:347] bn5_1 -> conv5_1 (in-place)
I0922 22:33:31.249790  2573 net.cpp:98] Setting up bn5_1
I0922 22:33:31.249800  2573 net.cpp:105] Top shape: 8 512 14 14 (802816)
I0922 22:33:31.249807  2573 layer_factory.hpp:78] Creating layer relu5_1
I0922 22:33:31.249814  2573 net.cpp:69] Creating Layer relu5_1
I0922 22:33:31.249817  2573 net.cpp:396] relu5_1 <- conv5_1
I0922 22:33:31.249824  2573 net.cpp:347] relu5_1 -> conv5_1 (in-place)
I0922 22:33:31.249830  2573 net.cpp:98] Setting up relu5_1
I0922 22:33:31.249835  2573 net.cpp:105] Top shape: 8 512 14 14 (802816)
I0922 22:33:31.249840  2573 layer_factory.hpp:78] Creating layer conv5_2
I0922 22:33:31.249845  2573 net.cpp:69] Creating Layer conv5_2
I0922 22:33:31.249850  2573 net.cpp:396] conv5_2 <- conv5_1
I0922 22:33:31.249856  2573 net.cpp:358] conv5_2 -> conv5_2
I0922 22:33:31.249862  2573 net.cpp:98] Setting up conv5_2
I0922 22:33:31.251871  2573 net.cpp:105] Top shape: 8 512 14 14 (802816)
I0922 22:33:31.251905  2573 layer_factory.hpp:78] Creating layer bn5_2
I0922 22:33:31.251922  2573 net.cpp:69] Creating Layer bn5_2
I0922 22:33:31.251929  2573 net.cpp:396] bn5_2 <- conv5_2
I0922 22:33:31.251935  2573 net.cpp:347] bn5_2 -> conv5_2 (in-place)
I0922 22:33:31.251942  2573 net.cpp:98] Setting up bn5_2
I0922 22:33:31.251953  2573 net.cpp:105] Top shape: 8 512 14 14 (802816)
I0922 22:33:31.251960  2573 layer_factory.hpp:78] Creating layer relu5_2
I0922 22:33:31.251966  2573 net.cpp:69] Creating Layer relu5_2
I0922 22:33:31.251971  2573 net.cpp:396] relu5_2 <- conv5_2
I0922 22:33:31.251976  2573 net.cpp:347] relu5_2 -> conv5_2 (in-place)
I0922 22:33:31.251981  2573 net.cpp:98] Setting up relu5_2
I0922 22:33:31.251984  2573 net.cpp:105] Top shape: 8 512 14 14 (802816)
I0922 22:33:31.251989  2573 layer_factory.hpp:78] Creating layer conv5_3
I0922 22:33:31.251996  2573 net.cpp:69] Creating Layer conv5_3
I0922 22:33:31.252001  2573 net.cpp:396] conv5_3 <- conv5_2
I0922 22:33:31.252005  2573 net.cpp:358] conv5_3 -> conv5_3
I0922 22:33:31.252012  2573 net.cpp:98] Setting up conv5_3
I0922 22:33:31.254287  2573 net.cpp:105] Top shape: 8 512 14 14 (802816)
I0922 22:33:31.254318  2573 layer_factory.hpp:78] Creating layer bn5_3
I0922 22:33:31.254329  2573 net.cpp:69] Creating Layer bn5_3
I0922 22:33:31.254335  2573 net.cpp:396] bn5_3 <- conv5_3
I0922 22:33:31.254343  2573 net.cpp:347] bn5_3 -> conv5_3 (in-place)
I0922 22:33:31.254349  2573 net.cpp:98] Setting up bn5_3
I0922 22:33:31.254361  2573 net.cpp:105] Top shape: 8 512 14 14 (802816)
I0922 22:33:31.254367  2573 layer_factory.hpp:78] Creating layer relu5_3
I0922 22:33:31.254372  2573 net.cpp:69] Creating Layer relu5_3
I0922 22:33:31.254377  2573 net.cpp:396] relu5_3 <- conv5_3
I0922 22:33:31.254382  2573 net.cpp:347] relu5_3 -> conv5_3 (in-place)
I0922 22:33:31.254395  2573 net.cpp:98] Setting up relu5_3
I0922 22:33:31.254401  2573 net.cpp:105] Top shape: 8 512 14 14 (802816)
I0922 22:33:31.254406  2573 layer_factory.hpp:78] Creating layer pool5
I0922 22:33:31.254412  2573 net.cpp:69] Creating Layer pool5
I0922 22:33:31.254416  2573 net.cpp:396] pool5 <- conv5_3
I0922 22:33:31.254422  2573 net.cpp:358] pool5 -> pool5
I0922 22:33:31.254429  2573 net.cpp:358] pool5 -> pool5_mask
I0922 22:33:31.254456  2573 net.cpp:98] Setting up pool5
I0922 22:33:31.254462  2573 net.cpp:105] Top shape: 8 512 7 7 (200704)
I0922 22:33:31.254467  2573 net.cpp:105] Top shape: 8 512 7 7 (200704)
I0922 22:33:31.254472  2573 layer_factory.hpp:78] Creating layer fc6
I0922 22:33:31.254482  2573 net.cpp:69] Creating Layer fc6
I0922 22:33:31.254488  2573 net.cpp:396] fc6 <- pool5
I0922 22:33:31.254494  2573 net.cpp:358] fc6 -> fc6
I0922 22:33:31.254499  2573 net.cpp:98] Setting up fc6
I0922 22:33:53.469287  2573 net.cpp:105] Top shape: 8 4096 1 1 (32768)
I0922 22:33:53.469347  2573 layer_factory.hpp:78] Creating layer bnfc6
I0922 22:33:53.469362  2573 net.cpp:69] Creating Layer bnfc6
I0922 22:33:53.469369  2573 net.cpp:396] bnfc6 <- fc6
I0922 22:33:53.469383  2573 net.cpp:347] bnfc6 -> fc6 (in-place)
I0922 22:33:53.469393  2573 net.cpp:98] Setting up bnfc6
I0922 22:33:53.469411  2573 net.cpp:105] Top shape: 8 4096 1 1 (32768)
I0922 22:33:53.469420  2573 layer_factory.hpp:78] Creating layer relu6
I0922 22:33:53.469426  2573 net.cpp:69] Creating Layer relu6
I0922 22:33:53.469431  2573 net.cpp:396] relu6 <- fc6
I0922 22:33:53.469439  2573 net.cpp:347] relu6 -> fc6 (in-place)
I0922 22:33:53.469445  2573 net.cpp:98] Setting up relu6
I0922 22:33:53.469451  2573 net.cpp:105] Top shape: 8 4096 1 1 (32768)
I0922 22:33:53.469457  2573 layer_factory.hpp:78] Creating layer fc7
I0922 22:33:53.469468  2573 net.cpp:69] Creating Layer fc7
I0922 22:33:53.469473  2573 net.cpp:396] fc7 <- fc6
I0922 22:33:53.469480  2573 net.cpp:358] fc7 -> fc7
I0922 22:33:53.469486  2573 net.cpp:98] Setting up fc7
I0922 22:34:06.848402  2573 net.cpp:105] Top shape: 8 4096 1 1 (32768)
I0922 22:34:06.848496  2573 layer_factory.hpp:78] Creating layer bnfc7
I0922 22:34:06.848507  2573 net.cpp:69] Creating Layer bnfc7
I0922 22:34:06.848515  2573 net.cpp:396] bnfc7 <- fc7
I0922 22:34:06.848522  2573 net.cpp:347] bnfc7 -> fc7 (in-place)
I0922 22:34:06.848531  2573 net.cpp:98] Setting up bnfc7
I0922 22:34:06.848552  2573 net.cpp:105] Top shape: 8 4096 1 1 (32768)
I0922 22:34:06.848569  2573 layer_factory.hpp:78] Creating layer relu7
I0922 22:34:06.848587  2573 net.cpp:69] Creating Layer relu7
I0922 22:34:06.848592  2573 net.cpp:396] relu7 <- fc7
I0922 22:34:06.848597  2573 net.cpp:347] relu7 -> fc7 (in-place)
I0922 22:34:06.848601  2573 net.cpp:98] Setting up relu7
I0922 22:34:06.848608  2573 net.cpp:105] Top shape: 8 4096 1 1 (32768)
I0922 22:34:06.848613  2573 layer_factory.hpp:78] Creating layer fc6-deconv
I0922 22:34:06.848620  2573 net.cpp:69] Creating Layer fc6-deconv
I0922 22:34:06.848624  2573 net.cpp:396] fc6-deconv <- fc7
I0922 22:34:06.848631  2573 net.cpp:358] fc6-deconv -> fc6-deconv
I0922 22:34:06.848639  2573 net.cpp:98] Setting up fc6-deconv
I0922 22:34:25.434422  2573 net.cpp:105] Top shape: 8 512 7 7 (200704)
I0922 22:34:25.434481  2573 layer_factory.hpp:78] Creating layer fc6-deconv-bn
I0922 22:34:25.434497  2573 net.cpp:69] Creating Layer fc6-deconv-bn
I0922 22:34:25.434505  2573 net.cpp:396] fc6-deconv-bn <- fc6-deconv
I0922 22:34:25.434515  2573 net.cpp:347] fc6-deconv-bn -> fc6-deconv (in-place)
I0922 22:34:25.434525  2573 net.cpp:98] Setting up fc6-deconv-bn
I0922 22:34:25.434537  2573 net.cpp:105] Top shape: 8 512 7 7 (200704)
I0922 22:34:25.434556  2573 layer_factory.hpp:78] Creating layer fc6-deconv-relu
I0922 22:34:25.434563  2573 net.cpp:69] Creating Layer fc6-deconv-relu
I0922 22:34:25.434578  2573 net.cpp:396] fc6-deconv-relu <- fc6-deconv
I0922 22:34:25.434583  2573 net.cpp:347] fc6-deconv-relu -> fc6-deconv (in-place)
I0922 22:34:25.434603  2573 net.cpp:98] Setting up fc6-deconv-relu
I0922 22:34:25.434612  2573 net.cpp:105] Top shape: 8 512 7 7 (200704)
I0922 22:34:25.434617  2573 layer_factory.hpp:78] Creating layer unpool5
I0922 22:34:25.434624  2573 net.cpp:69] Creating Layer unpool5
I0922 22:34:25.434638  2573 net.cpp:396] unpool5 <- fc6-deconv
I0922 22:34:25.434644  2573 net.cpp:396] unpool5 <- pool5_mask
I0922 22:34:25.434651  2573 net.cpp:358] unpool5 -> unpool5
I0922 22:34:25.434658  2573 net.cpp:98] Setting up unpool5
I0922 22:34:25.434664  2573 net.cpp:105] Top shape: 8 512 14 14 (802816)
I0922 22:34:25.434669  2573 layer_factory.hpp:78] Creating layer deconv5_1
I0922 22:34:25.434675  2573 net.cpp:69] Creating Layer deconv5_1
I0922 22:34:25.434680  2573 net.cpp:396] deconv5_1 <- unpool5
I0922 22:34:25.434689  2573 net.cpp:358] deconv5_1 -> deconv5_1
I0922 22:34:25.434700  2573 net.cpp:98] Setting up deconv5_1
I0922 22:34:25.488365  2573 net.cpp:105] Top shape: 8 512 14 14 (802816)
I0922 22:34:25.488410  2573 layer_factory.hpp:78] Creating layer debn5_1
I0922 22:34:25.488421  2573 net.cpp:69] Creating Layer debn5_1
I0922 22:34:25.488427  2573 net.cpp:396] debn5_1 <- deconv5_1
I0922 22:34:25.488437  2573 net.cpp:347] debn5_1 -> deconv5_1 (in-place)
I0922 22:34:25.488445  2573 net.cpp:98] Setting up debn5_1
I0922 22:34:25.488458  2573 net.cpp:105] Top shape: 8 512 14 14 (802816)
I0922 22:34:25.488474  2573 layer_factory.hpp:78] Creating layer derelu5_1
I0922 22:34:25.488481  2573 net.cpp:69] Creating Layer derelu5_1
I0922 22:34:25.488495  2573 net.cpp:396] derelu5_1 <- deconv5_1
I0922 22:34:25.488500  2573 net.cpp:347] derelu5_1 -> deconv5_1 (in-place)
I0922 22:34:25.488505  2573 net.cpp:98] Setting up derelu5_1
I0922 22:34:25.488510  2573 net.cpp:105] Top shape: 8 512 14 14 (802816)
I0922 22:34:25.488517  2573 layer_factory.hpp:78] Creating layer deconv5_2
I0922 22:34:25.488525  2573 net.cpp:69] Creating Layer deconv5_2
I0922 22:34:25.488530  2573 net.cpp:396] deconv5_2 <- deconv5_1
I0922 22:34:25.488535  2573 net.cpp:358] deconv5_2 -> deconv5_2
I0922 22:34:25.488543  2573 net.cpp:98] Setting up deconv5_2
I0922 22:34:25.540529  2573 net.cpp:105] Top shape: 8 512 14 14 (802816)
I0922 22:34:25.540585  2573 layer_factory.hpp:78] Creating layer debn5_2
I0922 22:34:25.540597  2573 net.cpp:69] Creating Layer debn5_2
I0922 22:34:25.540606  2573 net.cpp:396] debn5_2 <- deconv5_2
I0922 22:34:25.540612  2573 net.cpp:347] debn5_2 -> deconv5_2 (in-place)
I0922 22:34:25.540623  2573 net.cpp:98] Setting up debn5_2
I0922 22:34:25.540634  2573 net.cpp:105] Top shape: 8 512 14 14 (802816)
I0922 22:34:25.540642  2573 layer_factory.hpp:78] Creating layer derelu5_2
I0922 22:34:25.540648  2573 net.cpp:69] Creating Layer derelu5_2
I0922 22:34:25.540653  2573 net.cpp:396] derelu5_2 <- deconv5_2
I0922 22:34:25.540659  2573 net.cpp:347] derelu5_2 -> deconv5_2 (in-place)
I0922 22:34:25.540664  2573 net.cpp:98] Setting up derelu5_2
I0922 22:34:25.540670  2573 net.cpp:105] Top shape: 8 512 14 14 (802816)
I0922 22:34:25.540675  2573 layer_factory.hpp:78] Creating layer deconv5_3
I0922 22:34:25.540681  2573 net.cpp:69] Creating Layer deconv5_3
I0922 22:34:25.540686  2573 net.cpp:396] deconv5_3 <- deconv5_2
I0922 22:34:25.540693  2573 net.cpp:358] deconv5_3 -> deconv5_3
I0922 22:34:25.540699  2573 net.cpp:98] Setting up deconv5_3
I0922 22:34:25.593883  2573 net.cpp:105] Top shape: 8 512 14 14 (802816)
I0922 22:34:25.593919  2573 layer_factory.hpp:78] Creating layer debn5_3
I0922 22:34:25.593931  2573 net.cpp:69] Creating Layer debn5_3
I0922 22:34:25.593938  2573 net.cpp:396] debn5_3 <- deconv5_3
I0922 22:34:25.593947  2573 net.cpp:347] debn5_3 -> deconv5_3 (in-place)
I0922 22:34:25.593955  2573 net.cpp:98] Setting up debn5_3
I0922 22:34:25.593967  2573 net.cpp:105] Top shape: 8 512 14 14 (802816)
I0922 22:34:25.593974  2573 layer_factory.hpp:78] Creating layer derelu5_3
I0922 22:34:25.593986  2573 net.cpp:69] Creating Layer derelu5_3
I0922 22:34:25.593991  2573 net.cpp:396] derelu5_3 <- deconv5_3
I0922 22:34:25.593997  2573 net.cpp:347] derelu5_3 -> deconv5_3 (in-place)
I0922 22:34:25.594002  2573 net.cpp:98] Setting up derelu5_3
I0922 22:34:25.594008  2573 net.cpp:105] Top shape: 8 512 14 14 (802816)
I0922 22:34:25.594014  2573 layer_factory.hpp:78] Creating layer unpool4
I0922 22:34:25.594022  2573 net.cpp:69] Creating Layer unpool4
I0922 22:34:25.594027  2573 net.cpp:396] unpool4 <- deconv5_3
I0922 22:34:25.594033  2573 net.cpp:396] unpool4 <- pool4_mask
I0922 22:34:25.594039  2573 net.cpp:358] unpool4 -> unpool4
I0922 22:34:25.594045  2573 net.cpp:98] Setting up unpool4
I0922 22:34:25.594051  2573 net.cpp:105] Top shape: 8 512 28 28 (3211264)
I0922 22:34:25.594056  2573 layer_factory.hpp:78] Creating layer deconv4_1
I0922 22:34:25.594063  2573 net.cpp:69] Creating Layer deconv4_1
I0922 22:34:25.594068  2573 net.cpp:396] deconv4_1 <- unpool4
I0922 22:34:25.594074  2573 net.cpp:358] deconv4_1 -> deconv4_1
I0922 22:34:25.594079  2573 net.cpp:98] Setting up deconv4_1
I0922 22:34:25.647475  2573 net.cpp:105] Top shape: 8 512 28 28 (3211264)
I0922 22:34:25.647508  2573 layer_factory.hpp:78] Creating layer debn4_1
I0922 22:34:25.647517  2573 net.cpp:69] Creating Layer debn4_1
I0922 22:34:25.647524  2573 net.cpp:396] debn4_1 <- deconv4_1
I0922 22:34:25.647531  2573 net.cpp:347] debn4_1 -> deconv4_1 (in-place)
I0922 22:34:25.647539  2573 net.cpp:98] Setting up debn4_1
I0922 22:34:25.647552  2573 net.cpp:105] Top shape: 8 512 28 28 (3211264)
I0922 22:34:25.647568  2573 layer_factory.hpp:78] Creating layer derelu4_1
I0922 22:34:25.647574  2573 net.cpp:69] Creating Layer derelu4_1
I0922 22:34:25.647588  2573 net.cpp:396] derelu4_1 <- deconv4_1
I0922 22:34:25.647594  2573 net.cpp:347] derelu4_1 -> deconv4_1 (in-place)
I0922 22:34:25.647600  2573 net.cpp:98] Setting up derelu4_1
I0922 22:34:25.647605  2573 net.cpp:105] Top shape: 8 512 28 28 (3211264)
I0922 22:34:25.647614  2573 layer_factory.hpp:78] Creating layer deconv4_2
I0922 22:34:25.647621  2573 net.cpp:69] Creating Layer deconv4_2
I0922 22:34:25.647626  2573 net.cpp:396] deconv4_2 <- deconv4_1
I0922 22:34:25.647631  2573 net.cpp:358] deconv4_2 -> deconv4_2
I0922 22:34:25.647639  2573 net.cpp:98] Setting up deconv4_2
I0922 22:34:25.699626  2573 net.cpp:105] Top shape: 8 512 28 28 (3211264)
I0922 22:34:25.699683  2573 layer_factory.hpp:78] Creating layer debn4_2
I0922 22:34:25.699695  2573 net.cpp:69] Creating Layer debn4_2
I0922 22:34:25.699702  2573 net.cpp:396] debn4_2 <- deconv4_2
I0922 22:34:25.699710  2573 net.cpp:347] debn4_2 -> deconv4_2 (in-place)
I0922 22:34:25.699718  2573 net.cpp:98] Setting up debn4_2
I0922 22:34:25.699731  2573 net.cpp:105] Top shape: 8 512 28 28 (3211264)
I0922 22:34:25.699738  2573 layer_factory.hpp:78] Creating layer derelu4_2
I0922 22:34:25.699746  2573 net.cpp:69] Creating Layer derelu4_2
I0922 22:34:25.699753  2573 net.cpp:396] derelu4_2 <- deconv4_2
I0922 22:34:25.699759  2573 net.cpp:347] derelu4_2 -> deconv4_2 (in-place)
I0922 22:34:25.699765  2573 net.cpp:98] Setting up derelu4_2
I0922 22:34:25.699770  2573 net.cpp:105] Top shape: 8 512 28 28 (3211264)
I0922 22:34:25.699775  2573 layer_factory.hpp:78] Creating layer deconv4_3
I0922 22:34:25.699784  2573 net.cpp:69] Creating Layer deconv4_3
I0922 22:34:25.699787  2573 net.cpp:396] deconv4_3 <- deconv4_2
I0922 22:34:25.699795  2573 net.cpp:358] deconv4_3 -> deconv4_3
I0922 22:34:25.699801  2573 net.cpp:98] Setting up deconv4_3
I0922 22:34:25.725119  2573 net.cpp:105] Top shape: 8 256 28 28 (1605632)
I0922 22:34:25.725134  2573 layer_factory.hpp:78] Creating layer debn4_3
I0922 22:34:25.725142  2573 net.cpp:69] Creating Layer debn4_3
I0922 22:34:25.725148  2573 net.cpp:396] debn4_3 <- deconv4_3
I0922 22:34:25.725154  2573 net.cpp:347] debn4_3 -> deconv4_3 (in-place)
I0922 22:34:25.725162  2573 net.cpp:98] Setting up debn4_3
I0922 22:34:25.725177  2573 net.cpp:105] Top shape: 8 256 28 28 (1605632)
I0922 22:34:25.725184  2573 layer_factory.hpp:78] Creating layer derelu4_3
I0922 22:34:25.725193  2573 net.cpp:69] Creating Layer derelu4_3
I0922 22:34:25.725198  2573 net.cpp:396] derelu4_3 <- deconv4_3
I0922 22:34:25.725204  2573 net.cpp:347] derelu4_3 -> deconv4_3 (in-place)
I0922 22:34:25.725210  2573 net.cpp:98] Setting up derelu4_3
I0922 22:34:25.725215  2573 net.cpp:105] Top shape: 8 256 28 28 (1605632)
I0922 22:34:25.725220  2573 layer_factory.hpp:78] Creating layer unpool3
I0922 22:34:25.725226  2573 net.cpp:69] Creating Layer unpool3
I0922 22:34:25.725231  2573 net.cpp:396] unpool3 <- deconv4_3
I0922 22:34:25.725236  2573 net.cpp:396] unpool3 <- pool3_mask
I0922 22:34:25.725244  2573 net.cpp:358] unpool3 -> unpool3
I0922 22:34:25.725251  2573 net.cpp:98] Setting up unpool3
I0922 22:34:25.725257  2573 net.cpp:105] Top shape: 8 256 56 56 (6422528)
I0922 22:34:25.725262  2573 layer_factory.hpp:78] Creating layer deconv3_1
I0922 22:34:25.725270  2573 net.cpp:69] Creating Layer deconv3_1
I0922 22:34:25.725275  2573 net.cpp:396] deconv3_1 <- unpool3
I0922 22:34:25.725281  2573 net.cpp:358] deconv3_1 -> deconv3_1
I0922 22:34:25.725288  2573 net.cpp:98] Setting up deconv3_1
I0922 22:34:25.737314  2573 net.cpp:105] Top shape: 8 256 56 56 (6422528)
I0922 22:34:25.737326  2573 layer_factory.hpp:78] Creating layer debn3_1
I0922 22:34:25.737334  2573 net.cpp:69] Creating Layer debn3_1
I0922 22:34:25.737340  2573 net.cpp:396] debn3_1 <- deconv3_1
I0922 22:34:25.737346  2573 net.cpp:347] debn3_1 -> deconv3_1 (in-place)
I0922 22:34:25.737352  2573 net.cpp:98] Setting up debn3_1
I0922 22:34:25.737368  2573 net.cpp:105] Top shape: 8 256 56 56 (6422528)
I0922 22:34:25.737383  2573 layer_factory.hpp:78] Creating layer derelu3_1
I0922 22:34:25.737401  2573 net.cpp:69] Creating Layer derelu3_1
I0922 22:34:25.737404  2573 net.cpp:396] derelu3_1 <- deconv3_1
I0922 22:34:25.737409  2573 net.cpp:347] derelu3_1 -> deconv3_1 (in-place)
I0922 22:34:25.737416  2573 net.cpp:98] Setting up derelu3_1
I0922 22:34:25.737419  2573 net.cpp:105] Top shape: 8 256 56 56 (6422528)
I0922 22:34:25.737426  2573 layer_factory.hpp:78] Creating layer deconv3_2
I0922 22:34:25.737434  2573 net.cpp:69] Creating Layer deconv3_2
I0922 22:34:25.737440  2573 net.cpp:396] deconv3_2 <- deconv3_1
I0922 22:34:25.737445  2573 net.cpp:358] deconv3_2 -> deconv3_2
I0922 22:34:25.737452  2573 net.cpp:98] Setting up deconv3_2
I0922 22:34:25.751178  2573 net.cpp:105] Top shape: 8 256 56 56 (6422528)
I0922 22:34:25.751215  2573 layer_factory.hpp:78] Creating layer debn3_2
I0922 22:34:25.751224  2573 net.cpp:69] Creating Layer debn3_2
I0922 22:34:25.751230  2573 net.cpp:396] debn3_2 <- deconv3_2
I0922 22:34:25.751237  2573 net.cpp:347] debn3_2 -> deconv3_2 (in-place)
I0922 22:34:25.751245  2573 net.cpp:98] Setting up debn3_2
I0922 22:34:25.751260  2573 net.cpp:105] Top shape: 8 256 56 56 (6422528)
I0922 22:34:25.751276  2573 layer_factory.hpp:78] Creating layer derelu3_2
I0922 22:34:25.751291  2573 net.cpp:69] Creating Layer derelu3_2
I0922 22:34:25.751296  2573 net.cpp:396] derelu3_2 <- deconv3_2
I0922 22:34:25.751302  2573 net.cpp:347] derelu3_2 -> deconv3_2 (in-place)
I0922 22:34:25.751307  2573 net.cpp:98] Setting up derelu3_2
I0922 22:34:25.751312  2573 net.cpp:105] Top shape: 8 256 56 56 (6422528)
I0922 22:34:25.751319  2573 layer_factory.hpp:78] Creating layer deconv3_3
I0922 22:34:25.751328  2573 net.cpp:69] Creating Layer deconv3_3
I0922 22:34:25.751333  2573 net.cpp:396] deconv3_3 <- deconv3_2
I0922 22:34:25.751338  2573 net.cpp:358] deconv3_3 -> deconv3_3
I0922 22:34:25.751344  2573 net.cpp:98] Setting up deconv3_3
I0922 22:34:25.757400  2573 net.cpp:105] Top shape: 8 128 56 56 (3211264)
I0922 22:34:25.757411  2573 layer_factory.hpp:78] Creating layer debn3_3
I0922 22:34:25.757418  2573 net.cpp:69] Creating Layer debn3_3
I0922 22:34:25.757423  2573 net.cpp:396] debn3_3 <- deconv3_3
I0922 22:34:25.757429  2573 net.cpp:347] debn3_3 -> deconv3_3 (in-place)
I0922 22:34:25.757436  2573 net.cpp:98] Setting up debn3_3
I0922 22:34:25.757449  2573 net.cpp:105] Top shape: 8 128 56 56 (3211264)
I0922 22:34:25.757465  2573 layer_factory.hpp:78] Creating layer derelu3_3
I0922 22:34:25.757472  2573 net.cpp:69] Creating Layer derelu3_3
I0922 22:34:25.757486  2573 net.cpp:396] derelu3_3 <- deconv3_3
I0922 22:34:25.757491  2573 net.cpp:347] derelu3_3 -> deconv3_3 (in-place)
I0922 22:34:25.757496  2573 net.cpp:98] Setting up derelu3_3
I0922 22:34:25.757500  2573 net.cpp:105] Top shape: 8 128 56 56 (3211264)
I0922 22:34:25.757509  2573 layer_factory.hpp:78] Creating layer unpool2
I0922 22:34:25.757516  2573 net.cpp:69] Creating Layer unpool2
I0922 22:34:25.757521  2573 net.cpp:396] unpool2 <- deconv3_3
I0922 22:34:25.757526  2573 net.cpp:396] unpool2 <- pool2_mask
I0922 22:34:25.757532  2573 net.cpp:358] unpool2 -> unpool2
I0922 22:34:25.757539  2573 net.cpp:98] Setting up unpool2
I0922 22:34:25.757544  2573 net.cpp:105] Top shape: 8 128 112 112 (12845056)
I0922 22:34:25.757550  2573 layer_factory.hpp:78] Creating layer deconv2_1
I0922 22:34:25.757555  2573 net.cpp:69] Creating Layer deconv2_1
I0922 22:34:25.757560  2573 net.cpp:396] deconv2_1 <- unpool2
I0922 22:34:25.757567  2573 net.cpp:358] deconv2_1 -> deconv2_1
I0922 22:34:25.757575  2573 net.cpp:98] Setting up deconv2_1
I0922 22:34:25.760653  2573 net.cpp:105] Top shape: 8 128 112 112 (12845056)
I0922 22:34:25.760663  2573 layer_factory.hpp:78] Creating layer debn2_1
I0922 22:34:25.760673  2573 net.cpp:69] Creating Layer debn2_1
I0922 22:34:25.760679  2573 net.cpp:396] debn2_1 <- deconv2_1
I0922 22:34:25.760684  2573 net.cpp:347] debn2_1 -> deconv2_1 (in-place)
I0922 22:34:25.760690  2573 net.cpp:98] Setting up debn2_1
I0922 22:34:25.760723  2573 net.cpp:105] Top shape: 8 128 112 112 (12845056)
I0922 22:34:25.760731  2573 layer_factory.hpp:78] Creating layer derelu2_1
I0922 22:34:25.760738  2573 net.cpp:69] Creating Layer derelu2_1
I0922 22:34:25.760743  2573 net.cpp:396] derelu2_1 <- deconv2_1
I0922 22:34:25.760749  2573 net.cpp:347] derelu2_1 -> deconv2_1 (in-place)
I0922 22:34:25.760754  2573 net.cpp:98] Setting up derelu2_1
I0922 22:34:25.760759  2573 net.cpp:105] Top shape: 8 128 112 112 (12845056)
I0922 22:34:25.760764  2573 layer_factory.hpp:78] Creating layer deconv2_2
I0922 22:34:25.760771  2573 net.cpp:69] Creating Layer deconv2_2
I0922 22:34:25.760776  2573 net.cpp:396] deconv2_2 <- deconv2_1
I0922 22:34:25.760782  2573 net.cpp:358] deconv2_2 -> deconv2_2
I0922 22:34:25.760789  2573 net.cpp:98] Setting up deconv2_2
I0922 22:34:25.762370  2573 net.cpp:105] Top shape: 8 64 112 112 (6422528)
I0922 22:34:25.762389  2573 layer_factory.hpp:78] Creating layer debn2_2
I0922 22:34:25.762398  2573 net.cpp:69] Creating Layer debn2_2
I0922 22:34:25.762403  2573 net.cpp:396] debn2_2 <- deconv2_2
I0922 22:34:25.762409  2573 net.cpp:347] debn2_2 -> deconv2_2 (in-place)
I0922 22:34:25.762415  2573 net.cpp:98] Setting up debn2_2
I0922 22:34:25.762449  2573 net.cpp:105] Top shape: 8 64 112 112 (6422528)
I0922 22:34:25.762457  2573 layer_factory.hpp:78] Creating layer derelu2_2
I0922 22:34:25.762465  2573 net.cpp:69] Creating Layer derelu2_2
I0922 22:34:25.762470  2573 net.cpp:396] derelu2_2 <- deconv2_2
I0922 22:34:25.762476  2573 net.cpp:347] derelu2_2 -> deconv2_2 (in-place)
I0922 22:34:25.762482  2573 net.cpp:98] Setting up derelu2_2
I0922 22:34:25.762487  2573 net.cpp:105] Top shape: 8 64 112 112 (6422528)
I0922 22:34:25.762491  2573 layer_factory.hpp:78] Creating layer unpool1
I0922 22:34:25.762497  2573 net.cpp:69] Creating Layer unpool1
I0922 22:34:25.762502  2573 net.cpp:396] unpool1 <- deconv2_2
I0922 22:34:25.762507  2573 net.cpp:396] unpool1 <- pool1_mask
I0922 22:34:25.762513  2573 net.cpp:358] unpool1 -> unpool1
I0922 22:34:25.762521  2573 net.cpp:98] Setting up unpool1
I0922 22:34:25.762526  2573 net.cpp:105] Top shape: 8 64 224 224 (25690112)
I0922 22:34:25.762531  2573 layer_factory.hpp:78] Creating layer deconv1_1
I0922 22:34:25.762538  2573 net.cpp:69] Creating Layer deconv1_1
I0922 22:34:25.762543  2573 net.cpp:396] deconv1_1 <- unpool1
I0922 22:34:25.762550  2573 net.cpp:358] deconv1_1 -> deconv1_1
I0922 22:34:25.762557  2573 net.cpp:98] Setting up deconv1_1
I0922 22:34:25.763417  2573 net.cpp:105] Top shape: 8 64 224 224 (25690112)
I0922 22:34:25.763427  2573 layer_factory.hpp:78] Creating layer debn1_1
I0922 22:34:25.763433  2573 net.cpp:69] Creating Layer debn1_1
I0922 22:34:25.763438  2573 net.cpp:396] debn1_1 <- deconv1_1
I0922 22:34:25.763445  2573 net.cpp:347] debn1_1 -> deconv1_1 (in-place)
I0922 22:34:25.763453  2573 net.cpp:98] Setting up debn1_1
I0922 22:34:25.763569  2573 net.cpp:105] Top shape: 8 64 224 224 (25690112)
I0922 22:34:25.763578  2573 layer_factory.hpp:78] Creating layer derelu1_1
I0922 22:34:25.763584  2573 net.cpp:69] Creating Layer derelu1_1
I0922 22:34:25.763589  2573 net.cpp:396] derelu1_1 <- deconv1_1
I0922 22:34:25.763597  2573 net.cpp:347] derelu1_1 -> deconv1_1 (in-place)
I0922 22:34:25.763602  2573 net.cpp:98] Setting up derelu1_1
I0922 22:34:25.763618  2573 net.cpp:105] Top shape: 8 64 224 224 (25690112)
I0922 22:34:25.763622  2573 layer_factory.hpp:78] Creating layer deconv1_2
I0922 22:34:25.763628  2573 net.cpp:69] Creating Layer deconv1_2
I0922 22:34:25.763633  2573 net.cpp:396] deconv1_2 <- deconv1_1
I0922 22:34:25.763649  2573 net.cpp:358] deconv1_2 -> deconv1_2
I0922 22:34:25.763656  2573 net.cpp:98] Setting up deconv1_2
I0922 22:34:25.764511  2573 net.cpp:105] Top shape: 8 64 224 224 (25690112)
I0922 22:34:25.764520  2573 layer_factory.hpp:78] Creating layer debn1_2
I0922 22:34:25.764528  2573 net.cpp:69] Creating Layer debn1_2
I0922 22:34:25.764533  2573 net.cpp:396] debn1_2 <- deconv1_2
I0922 22:34:25.764539  2573 net.cpp:347] debn1_2 -> deconv1_2 (in-place)
I0922 22:34:25.764545  2573 net.cpp:98] Setting up debn1_2
I0922 22:34:25.764678  2573 net.cpp:105] Top shape: 8 64 224 224 (25690112)
I0922 22:34:25.764688  2573 layer_factory.hpp:78] Creating layer derelu1_2
I0922 22:34:25.764694  2573 net.cpp:69] Creating Layer derelu1_2
I0922 22:34:25.764699  2573 net.cpp:396] derelu1_2 <- deconv1_2
I0922 22:34:25.764705  2573 net.cpp:347] derelu1_2 -> deconv1_2 (in-place)
I0922 22:34:25.764711  2573 net.cpp:98] Setting up derelu1_2
I0922 22:34:25.764716  2573 net.cpp:105] Top shape: 8 64 224 224 (25690112)
I0922 22:34:25.764720  2573 layer_factory.hpp:78] Creating layer seg-score-voc
I0922 22:34:25.764729  2573 net.cpp:69] Creating Layer seg-score-voc
I0922 22:34:25.764734  2573 net.cpp:396] seg-score-voc <- deconv1_2
I0922 22:34:25.764740  2573 net.cpp:358] seg-score-voc -> seg-score
I0922 22:34:25.764747  2573 net.cpp:98] Setting up seg-score-voc
I0922 22:34:25.764847  2573 net.cpp:105] Top shape: 8 21 224 224 (8429568)
I0922 22:34:25.764857  2573 layer_factory.hpp:78] Creating layer seg-score_seg-score-voc_0_split
I0922 22:34:25.764873  2573 net.cpp:69] Creating Layer seg-score_seg-score-voc_0_split
I0922 22:34:25.764879  2573 net.cpp:396] seg-score_seg-score-voc_0_split <- seg-score
I0922 22:34:25.764886  2573 net.cpp:358] seg-score_seg-score-voc_0_split -> seg-score_seg-score-voc_0_split_0
I0922 22:34:25.764894  2573 net.cpp:358] seg-score_seg-score-voc_0_split -> seg-score_seg-score-voc_0_split_1
I0922 22:34:25.764910  2573 net.cpp:98] Setting up seg-score_seg-score-voc_0_split
I0922 22:34:25.764916  2573 net.cpp:105] Top shape: 8 21 224 224 (8429568)
I0922 22:34:25.764921  2573 net.cpp:105] Top shape: 8 21 224 224 (8429568)
I0922 22:34:25.764926  2573 layer_factory.hpp:78] Creating layer seg-accuracy
I0922 22:34:25.764933  2573 net.cpp:69] Creating Layer seg-accuracy
I0922 22:34:25.764938  2573 net.cpp:396] seg-accuracy <- seg-score_seg-score-voc_0_split_0
I0922 22:34:25.764945  2573 net.cpp:396] seg-accuracy <- seg-label_data_1_split_0
I0922 22:34:25.764951  2573 net.cpp:358] seg-accuracy -> seg-accuracy
I0922 22:34:25.764958  2573 net.cpp:98] Setting up seg-accuracy
I0922 22:34:25.764964  2573 net.cpp:105] Top shape: 1 1 1 1 (1)
I0922 22:34:25.764969  2573 layer_factory.hpp:78] Creating layer seg-loss
I0922 22:34:25.764977  2573 net.cpp:69] Creating Layer seg-loss
I0922 22:34:25.764982  2573 net.cpp:396] seg-loss <- seg-score_seg-score-voc_0_split_1
I0922 22:34:25.764988  2573 net.cpp:396] seg-loss <- seg-label_data_1_split_1
I0922 22:34:25.764993  2573 net.cpp:358] seg-loss -> seg-loss
I0922 22:34:25.765000  2573 net.cpp:98] Setting up seg-loss
I0922 22:34:25.765008  2573 net.cpp:105] Top shape: 1 1 1 1 (1)
I0922 22:34:25.765013  2573 net.cpp:111]     with loss weight 1
I0922 22:34:25.765024  2573 net.cpp:172] seg-loss needs backward computation.
I0922 22:34:25.765029  2573 net.cpp:174] seg-accuracy does not need backward computation.
I0922 22:34:25.765034  2573 net.cpp:172] seg-score_seg-score-voc_0_split needs backward computation.
I0922 22:34:25.765039  2573 net.cpp:172] seg-score-voc needs backward computation.
…
