…
I0923 12:28:33.554780 17250 net.cpp:277] The NetState phase (0) differed from the phase (1) specified by a rule in layer seg-accuracy
I0923 12:28:33.555248 17250 net.cpp:39] Initializing net from parameters: 
name: "stage_1_training"
layers {
  top: "data"
  top: "seg-label"
  name: "data"
  type: IMAGE_SEG_DATA
  image_data_param {
    source: "./stage_1_train_imgset/train_reduced_07.txt"
    batch_size: 8
    shuffle: true
    new_height: 250
    new_width: 250
    root_folder: "./VOC2012"
    label_type: PIXEL
  }
  include {
    phase: TRAIN
  }
  transform_param {
    mirror: true
    crop_size: 224
    mean_value: 104.008
    mean_value: 116.669
    mean_value: 122.675
  }
}
layers {
  bottom: "data"
  top: "conv1_1"
  name: "conv1_1"
  type: CONVOLUTION
  blobs_lr: 1
  blobs_lr: 2
  weight_decay: 1
  weight_decay: 0
  convolution_param {
    num_output: 64
    pad: 1
    kernel_size: 3
  }
}
layers {
  bottom: "conv1_1"
  top: "conv1_1"
  name: "bn1_1"
  type: BN
  bn_param {
    scale_filler {
      type: "constant"
      value: 1
    }
    shift_filler {
      type: "constant"
      value: 0.001
    }
  }
}
layers {
  bottom: "conv1_1"
  top: "conv1_1"
  name: "relu1_1"
  type: RELU
}
layers {
  bottom: "conv1_1"
  top: "conv1_2"
  name: "conv1_2"
  type: CONVOLUTION
  blobs_lr: 1
  blobs_lr: 2
  weight_decay: 1
  weight_decay: 0
  convolution_param {
    num_output: 64
    pad: 1
    kernel_size: 3
  }
}
layers {
  bottom: "conv1_2"
  top: "conv1_2"
  name: "bn1_2"
  type: BN
  bn_param {
    scale_filler {
      type: "constant"
      value: 1
    }
    shift_filler {
      type: "constant"
      value: 0.001
    }
  }
}
layers {
  bottom: "conv1_2"
  top: "conv1_2"
  name: "relu1_2"
  type: RELU
}
layers {
  bottom: "conv1_2"
  top: "pool1"
  name: "pool1"
  type: POOLING
  pooling_param {
    pool: MAX
    kernel_size: 2
    stride: 2
  }
}
layers {
  bottom: "pool1"
  top: "conv2_1"
  name: "conv2_1"
  type: CONVOLUTION
  blobs_lr: 1
  blobs_lr: 2
  weight_decay: 1
  weight_decay: 0
  convolution_param {
    num_output: 128
    pad: 1
    kernel_size: 3
  }
}
layers {
  bottom: "conv2_1"
  top: "conv2_1"
  name: "bn2_1"
  type: BN
  bn_param {
    scale_filler {
      type: "constant"
      value: 1
    }
    shift_filler {
      type: "constant"
      value: 0.001
    }
  }
}
layers {
  bottom: "conv2_1"
  top: "conv2_1"
  name: "relu2_1"
  type: RELU
}
layers {
  bottom: "conv2_1"
  top: "conv2_2"
  name: "conv2_2"
  type: CONVOLUTION
  blobs_lr: 1
  blobs_lr: 2
  weight_decay: 1
  weight_decay: 0
  convolution_param {
    num_output: 128
    pad: 1
    kernel_size: 3
  }
}
layers {
  bottom: "conv2_2"
  top: "conv2_2"
  name: "bn2_2"
  type: BN
  bn_param {
    scale_filler {
      type: "constant"
      value: 1
    }
    shift_filler {
      type: "constant"
      value: 0.001
    }
  }
}
layers {
  bottom: "conv2_2"
  top: "conv2_2"
  name: "relu2_2"
  type: RELU
}
layers {
  bottom: "conv2_2"
  top: "pool2"
  name: "pool2"
  type: POOLING
  pooling_param {
    pool: MAX
    kernel_size: 2
    stride: 2
  }
}
layers {
  bottom: "pool2"
  top: "conv3_1"
  name: "conv3_1"
  type: CONVOLUTION
  blobs_lr: 1
  blobs_lr: 2
  weight_decay: 1
  weight_decay: 0
  convolution_param {
    num_output: 256
    pad: 1
    kernel_size: 3
  }
}
layers {
  bottom: "conv3_1"
  top: "conv3_1"
  name: "bn3_1"
  type: BN
  bn_param {
    scale_filler {
      type: "constant"
      value: 1
    }
    shift_filler {
      type: "constant"
      value: 0.001
    }
  }
}
layers {
  bottom: "conv3_1"
  top: "conv3_1"
  name: "relu3_1"
  type: RELU
}
layers {
  bottom: "conv3_1"
  top: "conv3_2"
  name: "conv3_2"
  type: CONVOLUTION
  blobs_lr: 1
  blobs_lr: 2
  weight_decay: 1
  weight_decay: 0
  convolution_param {
    num_output: 256
    pad: 1
    kernel_size: 3
  }
}
layers {
  bottom: "conv3_2"
  top: "conv3_2"
  name: "bn3_2"
  type: BN
  bn_param {
    scale_filler {
      type: "constant"
      value: 1
    }
    shift_filler {
      type: "constant"
      value: 0.001
    }
  }
}
layers {
  bottom: "conv3_2"
  top: "conv3_2"
  name: "relu3_2"
  type: RELU
}
layers {
  bottom: "conv3_2"
  top: "conv3_3"
  name: "conv3_3"
  type: CONVOLUTION
  blobs_lr: 1
  blobs_lr: 2
  weight_decay: 1
  weight_decay: 0
  convolution_param {
    num_output: 256
    pad: 1
    kernel_size: 3
  }
}
layers {
  bottom: "conv3_3"
  top: "conv3_3"
  name: "bn3_3"
  type: BN
  bn_param {
    scale_filler {
      type: "constant"
      value: 1
    }
    shift_filler {
      type: "constant"
      value: 0.001
    }
  }
}
layers {
  bottom: "conv3_3"
  top: "conv3_3"
  name: "relu3_3"
  type: RELU
}
layers {
  bottom: "conv3_3"
  top: "pool3"
  name: "pool3"
  type: POOLING
  pooling_param {
    pool: MAX
    kernel_size: 2
    stride: 2
  }
}
layers {
  bottom: "pool3"
  top: "conv4_1"
  name: "conv4_1"
  type: CONVOLUTION
  blobs_lr: 1
  blobs_lr: 2
  weight_decay: 1
  weight_decay: 0
  convolution_param {
    num_output: 512
    pad: 1
    kernel_size: 3
  }
}
layers {
  bottom: "conv4_1"
  top: "conv4_1"
  name: "bn4_1"
  type: BN
  bn_param {
    scale_filler {
      type: "constant"
      value: 1
    }
    shift_filler {
      type: "constant"
      value: 0.001
    }
  }
}
layers {
  bottom: "conv4_1"
  top: "conv4_1"
  name: "relu4_1"
  type: RELU
}
layers {
  bottom: "conv4_1"
  top: "conv4_2"
  name: "conv4_2"
  type: CONVOLUTION
  blobs_lr: 1
  blobs_lr: 2
  weight_decay: 1
  weight_decay: 0
  convolution_param {
    num_output: 512
    pad: 1
    kernel_size: 3
  }
}
layers {
  bottom: "conv4_2"
  top: "conv4_2"
  name: "bn4_2"
  type: BN
  bn_param {
    scale_filler {
      type: "constant"
      value: 1
    }
    shift_filler {
      type: "constant"
      value: 0.001
    }
  }
}
layers {
  bottom: "conv4_2"
  top: "conv4_2"
  name: "relu4_2"
  type: RELU
}
layers {
  bottom: "conv4_2"
  top: "conv4_3"
  name: "conv4_3"
  type: CONVOLUTION
  blobs_lr: 1
  blobs_lr: 2
  weight_decay: 1
  weight_decay: 0
  convolution_param {
    num_output: 512
    pad: 1
    kernel_size: 3
  }
}
layers {
  bottom: "conv4_3"
  top: "conv4_3"
  name: "bn4_3"
  type: BN
  bn_param {
    scale_filler {
      type: "constant"
      value: 1
    }
    shift_filler {
      type: "constant"
      value: 0.001
    }
  }
}
layers {
  bottom: "conv4_3"
  top: "conv4_3"
  name: "relu4_3"
  type: RELU
}
layers {
  bottom: "conv4_3"
  top: "pool4"
  name: "pool4"
  type: POOLING
  pooling_param {
    pool: MAX
    kernel_size: 2
    stride: 2
  }
}
layers {
  bottom: "pool4"
  top: "conv5_1"
  name: "conv5_1"
  type: CONVOLUTION
  blobs_lr: 1
  blobs_lr: 2
  weight_decay: 1
  weight_decay: 0
  convolution_param {
    num_output: 512
    pad: 1
    kernel_size: 3
  }
}
layers {
  bottom: "conv5_1"
  top: "conv5_1"
  name: "bn5_1"
  type: BN
  bn_param {
    scale_filler {
      type: "constant"
      value: 1
    }
    shift_filler {
      type: "constant"
      value: 0.001
    }
  }
}
layers {
  bottom: "conv5_1"
  top: "conv5_1"
  name: "relu5_1"
  type: RELU
}
layers {
  bottom: "conv5_1"
  top: "conv5_2"
  name: "conv5_2"
  type: CONVOLUTION
  blobs_lr: 1
  blobs_lr: 2
  weight_decay: 1
  weight_decay: 0
  convolution_param {
    num_output: 512
    pad: 1
    kernel_size: 3
  }
}
layers {
  bottom: "conv5_2"
  top: "conv5_2"
  name: "bn5_2"
  type: BN
  bn_param {
    scale_filler {
      type: "constant"
      value: 1
    }
    shift_filler {
      type: "constant"
      value: 0.001
    }
  }
}
layers {
  bottom: "conv5_2"
  top: "conv5_2"
  name: "relu5_2"
  type: RELU
}
layers {
  bottom: "conv5_2"
  top: "conv5_3"
  name: "conv5_3"
  type: CONVOLUTION
  blobs_lr: 1
  blobs_lr: 2
  weight_decay: 1
  weight_decay: 0
  convolution_param {
    num_output: 512
    pad: 1
    kernel_size: 3
  }
}
layers {
  bottom: "conv5_3"
  top: "conv5_3"
  name: "bn5_3"
  type: BN
  bn_param {
    scale_filler {
      type: "constant"
      value: 1
    }
    shift_filler {
      type: "constant"
      value: 0.001
    }
  }
}
layers {
  bottom: "conv5_3"
  top: "conv5_3"
  name: "relu5_3"
  type: RELU
}
layers {
  bottom: "conv5_3"
  top: "pool5"
  name: "pool5"
  type: POOLING
  pooling_param {
    pool: MAX
    kernel_size: 2
    stride: 2
  }
}
layers {
  bottom: "pool5"
  top: "fc6"
  name: "fc6"
  type: CONVOLUTION
  blobs_lr: 1
  blobs_lr: 2
  weight_decay: 1
  weight_decay: 0
  convolution_param {
    num_output: 4096
    kernel_size: 7
  }
}
layers {
  bottom: "fc6"
  top: "fc6"
  name: "bnfc6"
  type: BN
  bn_param {
    scale_filler {
      type: "constant"
      value: 1
    }
    shift_filler {
      type: "constant"
      value: 0.001
    }
  }
}
layers {
  bottom: "fc6"
  top: "fc6"
  name: "relu6"
  type: RELU
}
layers {
  bottom: "fc6"
  top: "fc7"
  name: "fc7"
  type: CONVOLUTION
  blobs_lr: 1
  blobs_lr: 2
  weight_decay: 1
  weight_decay: 0
  convolution_param {
    num_output: 4096
    kernel_size: 1
  }
}
layers {
  bottom: "fc7"
  top: "fc7"
  name: "bnfc7"
  type: BN
  bn_param {
    scale_filler {
      type: "constant"
      value: 1
    }
    shift_filler {
      type: "constant"
      value: 0.001
    }
  }
}
layers {
  bottom: "fc7"
  top: "fc7"
  name: "relu7"
  type: RELU
}
layers {
  bottom: "fc7"
  top: "fc6-deconv"
  name: "fc6-deconv"
  type: DECONVOLUTION
  blobs_lr: 1
  blobs_lr: 2
  weight_decay: 1
  weight_decay: 0
  convolution_param {
    num_output: 512
    kernel_size: 7
    weight_filler {
      type: "gaussian"
      std: 0.01
    }
    bias_filler {
      type: "constant"
      value: 0
    }
  }
}
layers {
  bottom: "fc6-deconv"
  top: "fc6-deconv"
  name: "fc6-deconv-bn"
  type: BN
  bn_param {
    scale_filler {
      type: "constant"
      value: 1
    }
    shift_filler {
      type: "constant"
      value: 0.001
    }
  }
}
layers {
  bottom: "fc6-deconv"
  top: "fc6-deconv"
  name: "fc6-deconv-relu"
  type: RELU
}
layers {
  bottom: "fc6-deconv"
  top: "unpool5"
  name: "unpool5"
  type: UNPOOLING
  unpooling_param {
    unpool: MAX
    kernel_size: 2
    stride: 2
    unpool_size: 14
  }
}
layers {
  bottom: "unpool5"
  top: "deconv5_1"
  name: "deconv5_1"
  type: DECONVOLUTION
  blobs_lr: 1
  blobs_lr: 2
  weight_decay: 1
  weight_decay: 0
  convolution_param {
    num_output: 512
    pad: 1
    kernel_size: 3
    weight_filler {
      type: "gaussian"
      std: 0.01
    }
    bias_filler {
      type: "constant"
      value: 0
    }
  }
}
layers {
  bottom: "deconv5_1"
  top: "deconv5_1"
  name: "debn5_1"
  type: BN
  bn_param {
    scale_filler {
      type: "constant"
      value: 1
    }
    shift_filler {
      type: "constant"
      value: 0.001
    }
  }
}
layers {
  bottom: "deconv5_1"
  top: "deconv5_1"
  name: "derelu5_1"
  type: RELU
}
layers {
  bottom: "deconv5_1"
  top: "deconv5_2"
  name: "deconv5_2"
  type: DECONVOLUTION
  blobs_lr: 1
  blobs_lr: 2
  weight_decay: 1
  weight_decay: 0
  convolution_param {
    num_output: 512
    pad: 1
    kernel_size: 3
    weight_filler {
      type: "gaussian"
      std: 0.01
    }
    bias_filler {
      type: "constant"
      value: 0
    }
  }
}
layers {
  bottom: "deconv5_2"
  top: "deconv5_2"
  name: "debn5_2"
  type: BN
  bn_param {
    scale_filler {
      type: "constant"
      value: 1
    }
    shift_filler {
      type: "constant"
      value: 0.001
    }
  }
}
layers {
  bottom: "deconv5_2"
  top: "deconv5_2"
  name: "derelu5_2"
  type: RELU
}
layers {
  bottom: "deconv5_2"
  top: "deconv5_3"
  name: "deconv5_3"
  type: DECONVOLUTION
  blobs_lr: 1
  blobs_lr: 2
  weight_decay: 1
  weight_decay: 0
  convolution_param {
    num_output: 512
    pad: 1
    kernel_size: 3
    weight_filler {
      type: "gaussian"
      std: 0.01
    }
    bias_filler {
      type: "constant"
      value: 0
    }
  }
}
layers {
  bottom: "deconv5_3"
  top: "deconv5_3"
  name: "debn5_3"
  type: BN
  bn_param {
    scale_filler {
      type: "constant"
      value: 1
    }
    shift_filler {
      type: "constant"
      value: 0.001
    }
  }
}
layers {
  bottom: "deconv5_3"
  top: "deconv5_3"
  name: "derelu5_3"
  type: RELU
}
layers {
  bottom: "deconv5_3"
  top: "unpool4"
  name: "unpool4"
  type: UNPOOLING
  unpooling_param {
    unpool: MAX
    kernel_size: 2
    stride: 2
    unpool_size: 28
  }
}
layers {
  bottom: "unpool4"
  top: "deconv4_1"
  name: "deconv4_1"
  type: DECONVOLUTION
  blobs_lr: 1
  blobs_lr: 2
  weight_decay: 1
  weight_decay: 0
  convolution_param {
    num_output: 512
    pad: 1
    kernel_size: 3
    weight_filler {
      type: "gaussian"
      std: 0.01
    }
    bias_filler {
      type: "constant"
      value: 0
    }
  }
}
layers {
  bottom: "deconv4_1"
  top: "deconv4_1"
  name: "debn4_1"
  type: BN
  bn_param {
    scale_filler {
      type: "constant"
      value: 1
    }
    shift_filler {
      type: "constant"
      value: 0.001
    }
  }
}
layers {
  bottom: "deconv4_1"
  top: "deconv4_1"
  name: "derelu4_1"
  type: RELU
}
layers {
  bottom: "deconv4_1"
  top: "deconv4_2"
  name: "deconv4_2"
  type: DECONVOLUTION
  blobs_lr: 1
  blobs_lr: 2
  weight_decay: 1
  weight_decay: 0
  convolution_param {
    num_output: 512
    pad: 1
    kernel_size: 3
    weight_filler {
      type: "gaussian"
      std: 0.01
    }
    bias_filler {
      type: "constant"
      value: 0
    }
  }
}
layers {
  bottom: "deconv4_2"
  top: "deconv4_2"
  name: "debn4_2"
  type: BN
  bn_param {
    scale_filler {
      type: "constant"
      value: 1
    }
    shift_filler {
      type: "constant"
      value: 0.001
    }
  }
}
layers {
  bottom: "deconv4_2"
  top: "deconv4_2"
  name: "derelu4_2"
  type: RELU
}
layers {
  bottom: "deconv4_2"
  top: "deconv4_3"
  name: "deconv4_3"
  type: DECONVOLUTION
  blobs_lr: 1
  blobs_lr: 2
  weight_decay: 1
  weight_decay: 0
  convolution_param {
    num_output: 256
    pad: 1
    kernel_size: 3
    weight_filler {
      type: "gaussian"
      std: 0.01
    }
    bias_filler {
      type: "constant"
      value: 0
    }
  }
}
layers {
  bottom: "deconv4_3"
  top: "deconv4_3"
  name: "debn4_3"
  type: BN
  bn_param {
    scale_filler {
      type: "constant"
      value: 1
    }
    shift_filler {
      type: "constant"
      value: 0.001
    }
  }
}
layers {
  bottom: "deconv4_3"
  top: "deconv4_3"
  name: "derelu4_3"
  type: RELU
}
layers {
  bottom: "deconv4_3"
  top: "unpool3"
  name: "unpool3"
  type: UNPOOLING
  unpooling_param {
    unpool: MAX
    kernel_size: 2
    stride: 2
    unpool_size: 56
  }
}
layers {
  bottom: "unpool3"
  top: "deconv3_1"
  name: "deconv3_1"
  type: DECONVOLUTION
  blobs_lr: 1
  blobs_lr: 2
  weight_decay: 1
  weight_decay: 0
  convolution_param {
    num_output: 256
    pad: 1
    kernel_size: 3
    weight_filler {
      type: "gaussian"
      std: 0.01
    }
    bias_filler {
      type: "constant"
      value: 0
    }
  }
}
layers {
  bottom: "deconv3_1"
  top: "deconv3_1"
  name: "debn3_1"
  type: BN
  bn_param {
    scale_filler {
      type: "constant"
      value: 1
    }
    shift_filler {
      type: "constant"
      value: 0.001
    }
  }
}
layers {
  bottom: "deconv3_1"
  top: "deconv3_1"
  name: "derelu3_1"
  type: RELU
}
layers {
  bottom: "deconv3_1"
  top: "deconv3_2"
  name: "deconv3_2"
  type: DECONVOLUTION
  blobs_lr: 1
  blobs_lr: 2
  weight_decay: 1
  weight_decay: 0
  convolution_param {
    num_output: 256
    pad: 1
    kernel_size: 3
    weight_filler {
      type: "gaussian"
      std: 0.01
    }
    bias_filler {
      type: "constant"
      value: 0
    }
  }
}
layers {
  bottom: "deconv3_2"
  top: "deconv3_2"
  name: "debn3_2"
  type: BN
  bn_param {
    scale_filler {
      type: "constant"
      value: 1
    }
    shift_filler {
      type: "constant"
      value: 0.001
    }
  }
}
layers {
  bottom: "deconv3_2"
  top: "deconv3_2"
  name: "derelu3_2"
  type: RELU
}
layers {
  bottom: "deconv3_2"
  top: "deconv3_3"
  name: "deconv3_3"
  type: DECONVOLUTION
  blobs_lr: 1
  blobs_lr: 2
  weight_decay: 1
  weight_decay: 0
  convolution_param {
    num_output: 128
    pad: 1
    kernel_size: 3
    weight_filler {
      type: "gaussian"
      std: 0.01
    }
    bias_filler {
      type: "constant"
      value: 0
    }
  }
}
layers {
  bottom: "deconv3_3"
  top: "deconv3_3"
  name: "debn3_3"
  type: BN
  bn_param {
    scale_filler {
      type: "constant"
      value: 1
    }
    shift_filler {
      type: "constant"
      value: 0.001
    }
  }
}
layers {
  bottom: "deconv3_3"
  top: "deconv3_3"
  name: "derelu3_3"
  type: RELU
}
layers {
  bottom: "deconv3_3"
  top: "unpool2"
  name: "unpool2"
  type: UNPOOLING
  unpooling_param {
    unpool: MAX
    kernel_size: 2
    stride: 2
    unpool_size: 112
  }
}
layers {
  bottom: "unpool2"
  top: "deconv2_1"
  name: "deconv2_1"
  type: DECONVOLUTION
  blobs_lr: 1
  blobs_lr: 2
  weight_decay: 1
  weight_decay: 0
  convolution_param {
    num_output: 128
    pad: 1
    kernel_size: 3
    weight_filler {
      type: "gaussian"
      std: 0.01
    }
    bias_filler {
      type: "constant"
      value: 0
    }
  }
}
layers {
  bottom: "deconv2_1"
  top: "deconv2_1"
  name: "debn2_1"
  type: BN
  bn_param {
    scale_filler {
      type: "constant"
      value: 1
    }
    shift_filler {
      type: "constant"
      value: 0.001
    }
  }
}
layers {
  bottom: "deconv2_1"
  top: "deconv2_1"
  name: "derelu2_1"
  type: RELU
}
layers {
  bottom: "deconv2_1"
  top: "deconv2_2"
  name: "deconv2_2"
  type: DECONVOLUTION
  blobs_lr: 1
  blobs_lr: 2
  weight_decay: 1
  weight_decay: 0
  convolution_param {
    num_output: 64
    pad: 1
    kernel_size: 3
    weight_filler {
      type: "gaussian"
      std: 0.01
    }
    bias_filler {
      type: "constant"
      value: 0
    }
  }
}
layers {
  bottom: "deconv2_2"
  top: "deconv2_2"
  name: "debn2_2"
  type: BN
  bn_param {
    scale_filler {
      type: "constant"
      value: 1
    }
    shift_filler {
      type: "constant"
      value: 0.001
    }
  }
}
layers {
  bottom: "deconv2_2"
  top: "deconv2_2"
  name: "derelu2_2"
  type: RELU
}
layers {
  bottom: "deconv2_2"
  top: "unpool1"
  name: "unpool1"
  type: UNPOOLING
  unpooling_param {
    unpool: MAX
    kernel_size: 2
    stride: 2
    unpool_size: 224
  }
}
layers {
  bottom: "unpool1"
  top: "deconv1_1"
  name: "deconv1_1"
  type: DECONVOLUTION
  blobs_lr: 1
  blobs_lr: 2
  weight_decay: 1
  weight_decay: 0
  convolution_param {
    num_output: 64
    pad: 1
    kernel_size: 3
    weight_filler {
      type: "gaussian"
      std: 0.01
    }
    bias_filler {
      type: "constant"
      value: 0
    }
  }
}
layers {
  bottom: "deconv1_1"
  top: "deconv1_1"
  name: "debn1_1"
  type: BN
  bn_param {
    scale_filler {
      type: "constant"
      value: 1
    }
    shift_filler {
      type: "constant"
      value: 0.001
    }
  }
}
layers {
  bottom: "deconv1_1"
  top: "deconv1_1"
  name: "derelu1_1"
  type: RELU
}
layers {
  bottom: "deconv1_1"
  top: "deconv1_2"
  name: "deconv1_2"
  type: DECONVOLUTION
  blobs_lr: 1
  blobs_lr: 2
  weight_decay: 1
  weight_decay: 0
  convolution_param {
    num_output: 64
    pad: 1
    kernel_size: 3
    weight_filler {
      type: "gaussian"
      std: 0.01
    }
    bias_filler {
      type: "constant"
      value: 0
    }
  }
}
layers {
  bottom: "deconv1_2"
  top: "deconv1_2"
  name: "debn1_2"
  type: BN
  bn_param {
    scale_filler {
      type: "constant"
      value: 1
    }
    shift_filler {
      type: "constant"
      value: 0.001
    }
  }
}
layers {
  bottom: "deconv1_2"
  top: "deconv1_2"
  name: "derelu1_2"
  type: RELU
}
layers {
  bottom: "deconv1_2"
  top: "seg-score"
  name: "seg-score-voc"
  type: CONVOLUTION
  blobs_lr: 1
  blobs_lr: 2
  weight_decay: 1
  weight_decay: 0
  convolution_param {
    num_output: 21
    kernel_size: 1
    weight_filler {
      type: "gaussian"
      std: 0.01
    }
    bias_filler {
      type: "constant"
      value: 0
    }
  }
}
layers {
  bottom: "seg-score"
  bottom: "seg-label"
  top: "seg-loss"
  name: "seg-loss"
  type: SOFTMAX_LOSS
  loss_param {
    ignore_label: 255
  }
}
state {
  phase: TRAIN
}
I0923 12:28:33.558511 17250 layer_factory.hpp:78] Creating layer data
I0923 12:28:33.559001 17250 net.cpp:69] Creating Layer data
I0923 12:28:33.559018 17250 net.cpp:358] data -> data
I0923 12:28:33.559034 17250 net.cpp:358] data -> seg-label
I0923 12:28:33.559051 17250 net.cpp:358] data -> (automatic)
I0923 12:28:33.559062 17250 net.cpp:98] Setting up data
I0923 12:28:33.559070 17250 image_seg_data_layer.cpp:51] Opening file ./stage_1_train_imgset/train_reduced_07.txt
I0923 12:28:33.630734 17250 image_seg_data_layer.cpp:68] Shuffling data
I0923 12:28:33.637482 17250 image_seg_data_layer.cpp:73] A total of 53412 images.
I0923 12:28:33.672755 17250 image_seg_data_layer.cpp:119] output data size: 8,3,224,224
I0923 12:28:33.672770 17250 image_seg_data_layer.cpp:123] output label size: 8,1,224,224
I0923 12:28:33.672776 17250 image_seg_data_layer.cpp:127] output data_dim size: 8,1,1,2
I0923 12:28:33.674448 17250 net.cpp:105] Top shape: 8 3 224 224 (1204224)
I0923 12:28:33.674463 17250 net.cpp:105] Top shape: 8 1 224 224 (401408)
I0923 12:28:33.674468 17250 net.cpp:105] Top shape: 8 1 1 2 (16)
I0923 12:28:33.674473 17250 layer_factory.hpp:78] Creating layer conv1_1
I0923 12:28:33.674484 17250 net.cpp:69] Creating Layer conv1_1
I0923 12:28:33.674489 17250 net.cpp:396] conv1_1 <- data
I0923 12:28:33.674499 17250 net.cpp:358] conv1_1 -> conv1_1
I0923 12:28:33.674507 17250 net.cpp:98] Setting up conv1_1
I0923 12:28:33.674767 17250 net.cpp:105] Top shape: 8 64 224 224 (25690112)
I0923 12:28:33.674783 17250 layer_factory.hpp:78] Creating layer bn1_1
I0923 12:28:33.674978 17250 net.cpp:69] Creating Layer bn1_1
I0923 12:28:33.674986 17250 net.cpp:396] bn1_1 <- conv1_1
I0923 12:28:33.674993 17250 net.cpp:347] bn1_1 -> conv1_1 (in-place)
I0923 12:28:33.675001 17250 net.cpp:98] Setting up bn1_1
I0923 12:28:33.675068 17250 net.cpp:105] Top shape: 8 64 224 224 (25690112)
I0923 12:28:33.675079 17250 layer_factory.hpp:78] Creating layer relu1_1
I0923 12:28:33.675094 17250 net.cpp:69] Creating Layer relu1_1
I0923 12:28:33.675101 17250 net.cpp:396] relu1_1 <- conv1_1
I0923 12:28:33.675108 17250 net.cpp:347] relu1_1 -> conv1_1 (in-place)
I0923 12:28:33.675113 17250 net.cpp:98] Setting up relu1_1
I0923 12:28:33.675120 17250 net.cpp:105] Top shape: 8 64 224 224 (25690112)
I0923 12:28:33.675125 17250 layer_factory.hpp:78] Creating layer conv1_2
I0923 12:28:33.675132 17250 net.cpp:69] Creating Layer conv1_2
I0923 12:28:33.675137 17250 net.cpp:396] conv1_2 <- conv1_1
I0923 12:28:33.675143 17250 net.cpp:358] conv1_2 -> conv1_2
I0923 12:28:33.675151 17250 net.cpp:98] Setting up conv1_2
I0923 12:28:33.675217 17250 net.cpp:105] Top shape: 8 64 224 224 (25690112)
I0923 12:28:33.675226 17250 layer_factory.hpp:78] Creating layer bn1_2
I0923 12:28:33.675233 17250 net.cpp:69] Creating Layer bn1_2
I0923 12:28:33.675238 17250 net.cpp:396] bn1_2 <- conv1_2
I0923 12:28:33.675243 17250 net.cpp:347] bn1_2 -> conv1_2 (in-place)
I0923 12:28:33.675250 17250 net.cpp:98] Setting up bn1_2
I0923 12:28:33.675309 17250 net.cpp:105] Top shape: 8 64 224 224 (25690112)
I0923 12:28:33.675318 17250 layer_factory.hpp:78] Creating layer relu1_2
I0923 12:28:33.675323 17250 net.cpp:69] Creating Layer relu1_2
I0923 12:28:33.675328 17250 net.cpp:396] relu1_2 <- conv1_2
I0923 12:28:33.675333 17250 net.cpp:347] relu1_2 -> conv1_2 (in-place)
I0923 12:28:33.675339 17250 net.cpp:98] Setting up relu1_2
I0923 12:28:33.675344 17250 net.cpp:105] Top shape: 8 64 224 224 (25690112)
I0923 12:28:33.675348 17250 layer_factory.hpp:78] Creating layer pool1
I0923 12:28:33.675354 17250 net.cpp:69] Creating Layer pool1
I0923 12:28:33.675359 17250 net.cpp:396] pool1 <- conv1_2
I0923 12:28:33.675364 17250 net.cpp:358] pool1 -> pool1
I0923 12:28:33.675371 17250 net.cpp:98] Setting up pool1
I0923 12:28:33.675571 17250 net.cpp:105] Top shape: 8 64 112 112 (6422528)
I0923 12:28:33.675590 17250 layer_factory.hpp:78] Creating layer conv2_1
I0923 12:28:33.675596 17250 net.cpp:69] Creating Layer conv2_1
I0923 12:28:33.675601 17250 net.cpp:396] conv2_1 <- pool1
I0923 12:28:33.675608 17250 net.cpp:358] conv2_1 -> conv2_1
I0923 12:28:33.675616 17250 net.cpp:98] Setting up conv2_1
I0923 12:28:33.675717 17250 net.cpp:105] Top shape: 8 128 112 112 (12845056)
I0923 12:28:33.675729 17250 layer_factory.hpp:78] Creating layer bn2_1
I0923 12:28:33.675737 17250 net.cpp:69] Creating Layer bn2_1
I0923 12:28:33.675742 17250 net.cpp:396] bn2_1 <- conv2_1
I0923 12:28:33.675750 17250 net.cpp:347] bn2_1 -> conv2_1 (in-place)
I0923 12:28:33.675755 17250 net.cpp:98] Setting up bn2_1
I0923 12:28:33.675788 17250 net.cpp:105] Top shape: 8 128 112 112 (12845056)
I0923 12:28:33.675796 17250 layer_factory.hpp:78] Creating layer relu2_1
I0923 12:28:33.675802 17250 net.cpp:69] Creating Layer relu2_1
I0923 12:28:33.675807 17250 net.cpp:396] relu2_1 <- conv2_1
I0923 12:28:33.675813 17250 net.cpp:347] relu2_1 -> conv2_1 (in-place)
I0923 12:28:33.675819 17250 net.cpp:98] Setting up relu2_1
I0923 12:28:33.675824 17250 net.cpp:105] Top shape: 8 128 112 112 (12845056)
I0923 12:28:33.675829 17250 layer_factory.hpp:78] Creating layer conv2_2
I0923 12:28:33.675835 17250 net.cpp:69] Creating Layer conv2_2
I0923 12:28:33.675840 17250 net.cpp:396] conv2_2 <- conv2_1
I0923 12:28:33.675845 17250 net.cpp:358] conv2_2 -> conv2_2
I0923 12:28:33.675853 17250 net.cpp:98] Setting up conv2_2
I0923 12:28:33.676025 17250 net.cpp:105] Top shape: 8 128 112 112 (12845056)
I0923 12:28:33.676034 17250 layer_factory.hpp:78] Creating layer bn2_2
I0923 12:28:33.676040 17250 net.cpp:69] Creating Layer bn2_2
I0923 12:28:33.676045 17250 net.cpp:396] bn2_2 <- conv2_2
I0923 12:28:33.676051 17250 net.cpp:347] bn2_2 -> conv2_2 (in-place)
I0923 12:28:33.676057 17250 net.cpp:98] Setting up bn2_2
I0923 12:28:33.676115 17250 net.cpp:105] Top shape: 8 128 112 112 (12845056)
I0923 12:28:33.676129 17250 layer_factory.hpp:78] Creating layer relu2_2
I0923 12:28:33.676138 17250 net.cpp:69] Creating Layer relu2_2
I0923 12:28:33.676148 17250 net.cpp:396] relu2_2 <- conv2_2
I0923 12:28:33.676157 17250 net.cpp:347] relu2_2 -> conv2_2 (in-place)
I0923 12:28:33.676169 17250 net.cpp:98] Setting up relu2_2
I0923 12:28:33.676178 17250 net.cpp:105] Top shape: 8 128 112 112 (12845056)
I0923 12:28:33.676187 17250 layer_factory.hpp:78] Creating layer pool2
I0923 12:28:33.676194 17250 net.cpp:69] Creating Layer pool2
I0923 12:28:33.676203 17250 net.cpp:396] pool2 <- conv2_2
I0923 12:28:33.676214 17250 net.cpp:358] pool2 -> pool2
I0923 12:28:33.676226 17250 net.cpp:98] Setting up pool2
I0923 12:28:33.676241 17250 net.cpp:105] Top shape: 8 128 56 56 (3211264)
I0923 12:28:33.676265 17250 layer_factory.hpp:78] Creating layer conv3_1
I0923 12:28:33.676275 17250 net.cpp:69] Creating Layer conv3_1
I0923 12:28:33.676283 17250 net.cpp:396] conv3_1 <- pool2
I0923 12:28:33.676293 17250 net.cpp:358] conv3_1 -> conv3_1
I0923 12:28:33.676306 17250 net.cpp:98] Setting up conv3_1
I0923 12:28:33.677551 17250 net.cpp:105] Top shape: 8 256 56 56 (6422528)
I0923 12:28:33.677578 17250 layer_factory.hpp:78] Creating layer bn3_1
I0923 12:28:33.677588 17250 net.cpp:69] Creating Layer bn3_1
I0923 12:28:33.677593 17250 net.cpp:396] bn3_1 <- conv3_1
I0923 12:28:33.677600 17250 net.cpp:347] bn3_1 -> conv3_1 (in-place)
I0923 12:28:33.677608 17250 net.cpp:98] Setting up bn3_1
I0923 12:28:33.677624 17250 net.cpp:105] Top shape: 8 256 56 56 (6422528)
I0923 12:28:33.677631 17250 layer_factory.hpp:78] Creating layer relu3_1
I0923 12:28:33.677638 17250 net.cpp:69] Creating Layer relu3_1
I0923 12:28:33.677642 17250 net.cpp:396] relu3_1 <- conv3_1
I0923 12:28:33.677647 17250 net.cpp:347] relu3_1 -> conv3_1 (in-place)
I0923 12:28:33.677654 17250 net.cpp:98] Setting up relu3_1
I0923 12:28:33.677659 17250 net.cpp:105] Top shape: 8 256 56 56 (6422528)
I0923 12:28:33.677664 17250 layer_factory.hpp:78] Creating layer conv3_2
I0923 12:28:33.677671 17250 net.cpp:69] Creating Layer conv3_2
I0923 12:28:33.677705 17250 net.cpp:396] conv3_2 <- conv3_1
I0923 12:28:33.677733 17250 net.cpp:358] conv3_2 -> conv3_2
I0923 12:28:33.677745 17250 net.cpp:98] Setting up conv3_2
I0923 12:28:33.681350 17250 net.cpp:105] Top shape: 8 256 56 56 (6422528)
I0923 12:28:33.681377 17250 layer_factory.hpp:78] Creating layer bn3_2
I0923 12:28:33.681387 17250 net.cpp:69] Creating Layer bn3_2
I0923 12:28:33.681392 17250 net.cpp:396] bn3_2 <- conv3_2
I0923 12:28:33.681401 17250 net.cpp:347] bn3_2 -> conv3_2 (in-place)
I0923 12:28:33.681411 17250 net.cpp:98] Setting up bn3_2
I0923 12:28:33.681427 17250 net.cpp:105] Top shape: 8 256 56 56 (6422528)
I0923 12:28:33.681434 17250 layer_factory.hpp:78] Creating layer relu3_2
I0923 12:28:33.681440 17250 net.cpp:69] Creating Layer relu3_2
I0923 12:28:33.681445 17250 net.cpp:396] relu3_2 <- conv3_2
I0923 12:28:33.681450 17250 net.cpp:347] relu3_2 -> conv3_2 (in-place)
I0923 12:28:33.681455 17250 net.cpp:98] Setting up relu3_2
I0923 12:28:33.681460 17250 net.cpp:105] Top shape: 8 256 56 56 (6422528)
I0923 12:28:33.681466 17250 layer_factory.hpp:78] Creating layer conv3_3
I0923 12:28:33.681473 17250 net.cpp:69] Creating Layer conv3_3
I0923 12:28:33.681478 17250 net.cpp:396] conv3_3 <- conv3_2
I0923 12:28:33.681483 17250 net.cpp:358] conv3_3 -> conv3_3
I0923 12:28:33.681489 17250 net.cpp:98] Setting up conv3_3
I0923 12:28:33.682152 17250 net.cpp:105] Top shape: 8 256 56 56 (6422528)
I0923 12:28:33.682173 17250 layer_factory.hpp:78] Creating layer bn3_3
I0923 12:28:33.682180 17250 net.cpp:69] Creating Layer bn3_3
I0923 12:28:33.682185 17250 net.cpp:396] bn3_3 <- conv3_3
I0923 12:28:33.682191 17250 net.cpp:347] bn3_3 -> conv3_3 (in-place)
I0923 12:28:33.682199 17250 net.cpp:98] Setting up bn3_3
I0923 12:28:33.682215 17250 net.cpp:105] Top shape: 8 256 56 56 (6422528)
I0923 12:28:33.682222 17250 layer_factory.hpp:78] Creating layer relu3_3
I0923 12:28:33.682229 17250 net.cpp:69] Creating Layer relu3_3
I0923 12:28:33.682235 17250 net.cpp:396] relu3_3 <- conv3_3
I0923 12:28:33.682240 17250 net.cpp:347] relu3_3 -> conv3_3 (in-place)
I0923 12:28:33.682245 17250 net.cpp:98] Setting up relu3_3
I0923 12:28:33.682250 17250 net.cpp:105] Top shape: 8 256 56 56 (6422528)
I0923 12:28:33.682255 17250 layer_factory.hpp:78] Creating layer pool3
I0923 12:28:33.682262 17250 net.cpp:69] Creating Layer pool3
I0923 12:28:33.682267 17250 net.cpp:396] pool3 <- conv3_3
I0923 12:28:33.682273 17250 net.cpp:358] pool3 -> pool3
I0923 12:28:33.682279 17250 net.cpp:98] Setting up pool3
I0923 12:28:33.682286 17250 net.cpp:105] Top shape: 8 256 28 28 (1605632)
I0923 12:28:33.682291 17250 layer_factory.hpp:78] Creating layer conv4_1
I0923 12:28:33.682297 17250 net.cpp:69] Creating Layer conv4_1
I0923 12:28:33.682301 17250 net.cpp:396] conv4_1 <- pool3
I0923 12:28:33.682308 17250 net.cpp:358] conv4_1 -> conv4_1
I0923 12:28:33.682315 17250 net.cpp:98] Setting up conv4_1
I0923 12:28:33.697613 17250 net.cpp:105] Top shape: 8 512 28 28 (3211264)
I0923 12:28:33.697641 17250 layer_factory.hpp:78] Creating layer bn4_1
I0923 12:28:33.697650 17250 net.cpp:69] Creating Layer bn4_1
I0923 12:28:33.697655 17250 net.cpp:396] bn4_1 <- conv4_1
I0923 12:28:33.697664 17250 net.cpp:347] bn4_1 -> conv4_1 (in-place)
I0923 12:28:33.697670 17250 net.cpp:98] Setting up bn4_1
I0923 12:28:33.697687 17250 net.cpp:105] Top shape: 8 512 28 28 (3211264)
I0923 12:28:33.697697 17250 layer_factory.hpp:78] Creating layer relu4_1
I0923 12:28:33.697706 17250 net.cpp:69] Creating Layer relu4_1
I0923 12:28:33.697711 17250 net.cpp:396] relu4_1 <- conv4_1
I0923 12:28:33.697717 17250 net.cpp:347] relu4_1 -> conv4_1 (in-place)
I0923 12:28:33.697726 17250 net.cpp:98] Setting up relu4_1
I0923 12:28:33.698190 17250 net.cpp:105] Top shape: 8 512 28 28 (3211264)
I0923 12:28:33.698216 17250 layer_factory.hpp:78] Creating layer conv4_2
I0923 12:28:33.698225 17250 net.cpp:69] Creating Layer conv4_2
I0923 12:28:33.698231 17250 net.cpp:396] conv4_2 <- conv4_1
I0923 12:28:33.698238 17250 net.cpp:358] conv4_2 -> conv4_2
I0923 12:28:33.698247 17250 net.cpp:98] Setting up conv4_2
I0923 12:28:33.708442 17250 net.cpp:105] Top shape: 8 512 28 28 (3211264)
I0923 12:28:33.708472 17250 layer_factory.hpp:78] Creating layer bn4_2
I0923 12:28:33.708480 17250 net.cpp:69] Creating Layer bn4_2
I0923 12:28:33.708487 17250 net.cpp:396] bn4_2 <- conv4_2
I0923 12:28:33.708494 17250 net.cpp:347] bn4_2 -> conv4_2 (in-place)
I0923 12:28:33.708503 17250 net.cpp:98] Setting up bn4_2
I0923 12:28:33.708516 17250 net.cpp:105] Top shape: 8 512 28 28 (3211264)
I0923 12:28:33.708528 17250 layer_factory.hpp:78] Creating layer relu4_2
I0923 12:28:33.708540 17250 net.cpp:69] Creating Layer relu4_2
I0923 12:28:33.708555 17250 net.cpp:396] relu4_2 <- conv4_2
I0923 12:28:33.709013 17250 net.cpp:347] relu4_2 -> conv4_2 (in-place)
I0923 12:28:33.709036 17250 net.cpp:98] Setting up relu4_2
I0923 12:28:33.709043 17250 net.cpp:105] Top shape: 8 512 28 28 (3211264)
I0923 12:28:33.709049 17250 layer_factory.hpp:78] Creating layer conv4_3
I0923 12:28:33.709056 17250 net.cpp:69] Creating Layer conv4_3
I0923 12:28:33.709061 17250 net.cpp:396] conv4_3 <- conv4_2
I0923 12:28:33.709069 17250 net.cpp:358] conv4_3 -> conv4_3
I0923 12:28:33.709075 17250 net.cpp:98] Setting up conv4_3
I0923 12:28:33.715215 17250 net.cpp:105] Top shape: 8 512 28 28 (3211264)
I0923 12:28:33.715248 17250 layer_factory.hpp:78] Creating layer bn4_3
I0923 12:28:33.715281 17250 net.cpp:69] Creating Layer bn4_3
I0923 12:28:33.715306 17250 net.cpp:396] bn4_3 <- conv4_3
I0923 12:28:33.715317 17250 net.cpp:347] bn4_3 -> conv4_3 (in-place)
I0923 12:28:33.715324 17250 net.cpp:98] Setting up bn4_3
I0923 12:28:33.715339 17250 net.cpp:105] Top shape: 8 512 28 28 (3211264)
I0923 12:28:33.715348 17250 layer_factory.hpp:78] Creating layer relu4_3
I0923 12:28:33.715354 17250 net.cpp:69] Creating Layer relu4_3
I0923 12:28:33.715359 17250 net.cpp:396] relu4_3 <- conv4_3
I0923 12:28:33.715365 17250 net.cpp:347] relu4_3 -> conv4_3 (in-place)
I0923 12:28:33.715371 17250 net.cpp:98] Setting up relu4_3
I0923 12:28:33.715376 17250 net.cpp:105] Top shape: 8 512 28 28 (3211264)
I0923 12:28:33.715381 17250 layer_factory.hpp:78] Creating layer pool4
I0923 12:28:33.715387 17250 net.cpp:69] Creating Layer pool4
I0923 12:28:33.715392 17250 net.cpp:396] pool4 <- conv4_3
I0923 12:28:33.715399 17250 net.cpp:358] pool4 -> pool4
I0923 12:28:33.715406 17250 net.cpp:98] Setting up pool4
I0923 12:28:33.715414 17250 net.cpp:105] Top shape: 8 512 14 14 (802816)
I0923 12:28:33.715418 17250 layer_factory.hpp:78] Creating layer conv5_1
I0923 12:28:33.715425 17250 net.cpp:69] Creating Layer conv5_1
I0923 12:28:33.715430 17250 net.cpp:396] conv5_1 <- pool4
I0923 12:28:33.715443 17250 net.cpp:358] conv5_1 -> conv5_1
I0923 12:28:33.715451 17250 net.cpp:98] Setting up conv5_1
I0923 12:28:33.721633 17250 net.cpp:105] Top shape: 8 512 14 14 (802816)
I0923 12:28:33.721662 17250 layer_factory.hpp:78] Creating layer bn5_1
I0923 12:28:33.721671 17250 net.cpp:69] Creating Layer bn5_1
I0923 12:28:33.721680 17250 net.cpp:396] bn5_1 <- conv5_1
I0923 12:28:33.721691 17250 net.cpp:347] bn5_1 -> conv5_1 (in-place)
I0923 12:28:33.721705 17250 net.cpp:98] Setting up bn5_1
I0923 12:28:33.721732 17250 net.cpp:105] Top shape: 8 512 14 14 (802816)
I0923 12:28:33.721756 17250 layer_factory.hpp:78] Creating layer relu5_1
I0923 12:28:33.721763 17250 net.cpp:69] Creating Layer relu5_1
I0923 12:28:33.721768 17250 net.cpp:396] relu5_1 <- conv5_1
I0923 12:28:33.721773 17250 net.cpp:347] relu5_1 -> conv5_1 (in-place)
I0923 12:28:33.721779 17250 net.cpp:98] Setting up relu5_1
I0923 12:28:33.721784 17250 net.cpp:105] Top shape: 8 512 14 14 (802816)
I0923 12:28:33.721788 17250 layer_factory.hpp:78] Creating layer conv5_2
I0923 12:28:33.721794 17250 net.cpp:69] Creating Layer conv5_2
I0923 12:28:33.721799 17250 net.cpp:396] conv5_2 <- conv5_1
I0923 12:28:33.721892 17250 net.cpp:358] conv5_2 -> conv5_2
I0923 12:28:33.721900 17250 net.cpp:98] Setting up conv5_2
I0923 12:28:33.725421 17250 net.cpp:105] Top shape: 8 512 14 14 (802816)
I0923 12:28:33.725453 17250 layer_factory.hpp:78] Creating layer bn5_2
I0923 12:28:33.725464 17250 net.cpp:69] Creating Layer bn5_2
I0923 12:28:33.725493 17250 net.cpp:396] bn5_2 <- conv5_2
I0923 12:28:33.725502 17250 net.cpp:347] bn5_2 -> conv5_2 (in-place)
I0923 12:28:33.725508 17250 net.cpp:98] Setting up bn5_2
I0923 12:28:33.725525 17250 net.cpp:105] Top shape: 8 512 14 14 (802816)
I0923 12:28:33.725533 17250 layer_factory.hpp:78] Creating layer relu5_2
I0923 12:28:33.725539 17250 net.cpp:69] Creating Layer relu5_2
I0923 12:28:33.725544 17250 net.cpp:396] relu5_2 <- conv5_2
I0923 12:28:33.725549 17250 net.cpp:347] relu5_2 -> conv5_2 (in-place)
I0923 12:28:33.725555 17250 net.cpp:98] Setting up relu5_2
I0923 12:28:33.725560 17250 net.cpp:105] Top shape: 8 512 14 14 (802816)
I0923 12:28:33.725564 17250 layer_factory.hpp:78] Creating layer conv5_3
I0923 12:28:33.725571 17250 net.cpp:69] Creating Layer conv5_3
I0923 12:28:33.725575 17250 net.cpp:396] conv5_3 <- conv5_2
I0923 12:28:33.725581 17250 net.cpp:358] conv5_3 -> conv5_3
I0923 12:28:33.725589 17250 net.cpp:98] Setting up conv5_3
I0923 12:28:33.737653 17250 net.cpp:105] Top shape: 8 512 14 14 (802816)
I0923 12:28:33.737685 17250 layer_factory.hpp:78] Creating layer bn5_3
I0923 12:28:33.737699 17250 net.cpp:69] Creating Layer bn5_3
I0923 12:28:33.737705 17250 net.cpp:396] bn5_3 <- conv5_3
I0923 12:28:33.737712 17250 net.cpp:347] bn5_3 -> conv5_3 (in-place)
I0923 12:28:33.737720 17250 net.cpp:98] Setting up bn5_3
I0923 12:28:33.737732 17250 net.cpp:105] Top shape: 8 512 14 14 (802816)
I0923 12:28:33.737740 17250 layer_factory.hpp:78] Creating layer relu5_3
I0923 12:28:33.737747 17250 net.cpp:69] Creating Layer relu5_3
I0923 12:28:33.737752 17250 net.cpp:396] relu5_3 <- conv5_3
I0923 12:28:33.737757 17250 net.cpp:347] relu5_3 -> conv5_3 (in-place)
I0923 12:28:33.737763 17250 net.cpp:98] Setting up relu5_3
I0923 12:28:33.737768 17250 net.cpp:105] Top shape: 8 512 14 14 (802816)
I0923 12:28:33.737774 17250 layer_factory.hpp:78] Creating layer pool5
I0923 12:28:33.737782 17250 net.cpp:69] Creating Layer pool5
I0923 12:28:33.737787 17250 net.cpp:396] pool5 <- conv5_3
I0923 12:28:33.737792 17250 net.cpp:358] pool5 -> pool5
I0923 12:28:33.737799 17250 net.cpp:98] Setting up pool5
I0923 12:28:33.737805 17250 net.cpp:105] Top shape: 8 512 7 7 (200704)
I0923 12:28:33.737810 17250 layer_factory.hpp:78] Creating layer fc6
I0923 12:28:33.737817 17250 net.cpp:69] Creating Layer fc6
I0923 12:28:33.737821 17250 net.cpp:396] fc6 <- pool5
I0923 12:28:33.737826 17250 net.cpp:358] fc6 -> fc6
I0923 12:28:33.737833 17250 net.cpp:98] Setting up fc6
I0923 12:28:34.167769 17250 net.cpp:105] Top shape: 8 4096 1 1 (32768)
I0923 12:28:34.167805 17250 layer_factory.hpp:78] Creating layer bnfc6
I0923 12:28:34.167819 17250 net.cpp:69] Creating Layer bnfc6
I0923 12:28:34.167825 17250 net.cpp:396] bnfc6 <- fc6
I0923 12:28:34.167834 17250 net.cpp:347] bnfc6 -> fc6 (in-place)
I0923 12:28:34.167842 17250 net.cpp:98] Setting up bnfc6
I0923 12:28:34.167861 17250 net.cpp:105] Top shape: 8 4096 1 1 (32768)
I0923 12:28:34.167870 17250 layer_factory.hpp:78] Creating layer relu6
I0923 12:28:34.167876 17250 net.cpp:69] Creating Layer relu6
I0923 12:28:34.167879 17250 net.cpp:396] relu6 <- fc6
I0923 12:28:34.167887 17250 net.cpp:347] relu6 -> fc6 (in-place)
I0923 12:28:34.167894 17250 net.cpp:98] Setting up relu6
I0923 12:28:34.167901 17250 net.cpp:105] Top shape: 8 4096 1 1 (32768)
I0923 12:28:34.167906 17250 layer_factory.hpp:78] Creating layer fc7
I0923 12:28:34.167912 17250 net.cpp:69] Creating Layer fc7
I0923 12:28:34.167918 17250 net.cpp:396] fc7 <- fc6
I0923 12:28:34.167923 17250 net.cpp:358] fc7 -> fc7
I0923 12:28:34.167929 17250 net.cpp:98] Setting up fc7
I0923 12:28:34.196841 17250 net.cpp:105] Top shape: 8 4096 1 1 (32768)
I0923 12:28:34.196872 17250 layer_factory.hpp:78] Creating layer bnfc7
I0923 12:28:34.196882 17250 net.cpp:69] Creating Layer bnfc7
I0923 12:28:34.196887 17250 net.cpp:396] bnfc7 <- fc7
I0923 12:28:34.196895 17250 net.cpp:347] bnfc7 -> fc7 (in-place)
I0923 12:28:34.196903 17250 net.cpp:98] Setting up bnfc7
I0923 12:28:34.196921 17250 net.cpp:105] Top shape: 8 4096 1 1 (32768)
I0923 12:28:34.196928 17250 layer_factory.hpp:78] Creating layer relu7
I0923 12:28:34.196949 17250 net.cpp:69] Creating Layer relu7
I0923 12:28:34.196954 17250 net.cpp:396] relu7 <- fc7
I0923 12:28:34.196959 17250 net.cpp:347] relu7 -> fc7 (in-place)
I0923 12:28:34.196964 17250 net.cpp:98] Setting up relu7
I0923 12:28:34.196969 17250 net.cpp:105] Top shape: 8 4096 1 1 (32768)
I0923 12:28:34.196974 17250 layer_factory.hpp:78] Creating layer fc6-deconv
I0923 12:28:34.196987 17250 net.cpp:69] Creating Layer fc6-deconv
I0923 12:28:34.196992 17250 net.cpp:396] fc6-deconv <- fc7
I0923 12:28:34.196998 17250 net.cpp:358] fc6-deconv -> fc6-deconv
I0923 12:28:34.197005 17250 net.cpp:98] Setting up fc6-deconv
I0923 12:28:36.501711 17250 net.cpp:105] Top shape: 8 512 7 7 (200704)
I0923 12:28:36.501739 17250 layer_factory.hpp:78] Creating layer fc6-deconv-bn
I0923 12:28:36.501749 17250 net.cpp:69] Creating Layer fc6-deconv-bn
I0923 12:28:36.501759 17250 net.cpp:396] fc6-deconv-bn <- fc6-deconv
I0923 12:28:36.501765 17250 net.cpp:347] fc6-deconv-bn -> fc6-deconv (in-place)
I0923 12:28:36.501772 17250 net.cpp:98] Setting up fc6-deconv-bn
I0923 12:28:36.501787 17250 net.cpp:105] Top shape: 8 512 7 7 (200704)
I0923 12:28:36.501793 17250 layer_factory.hpp:78] Creating layer fc6-deconv-relu
I0923 12:28:36.501799 17250 net.cpp:69] Creating Layer fc6-deconv-relu
I0923 12:28:36.501803 17250 net.cpp:396] fc6-deconv-relu <- fc6-deconv
I0923 12:28:36.501809 17250 net.cpp:347] fc6-deconv-relu -> fc6-deconv (in-place)
I0923 12:28:36.501816 17250 net.cpp:98] Setting up fc6-deconv-relu
I0923 12:28:36.501821 17250 net.cpp:105] Top shape: 8 512 7 7 (200704)
I0923 12:28:36.501824 17250 layer_factory.hpp:78] Creating layer unpool5
I0923 12:28:36.501833 17250 net.cpp:69] Creating Layer unpool5
I0923 12:28:36.501838 17250 net.cpp:396] unpool5 <- fc6-deconv
I0923 12:28:36.501845 17250 net.cpp:358] unpool5 -> unpool5
I0923 12:28:36.501852 17250 net.cpp:98] Setting up unpool5
I0923 12:28:36.501857 17250 net.cpp:105] Top shape: 8 512 14 14 (802816)
I0923 12:28:36.501862 17250 layer_factory.hpp:78] Creating layer deconv5_1
I0923 12:28:36.501869 17250 net.cpp:69] Creating Layer deconv5_1
I0923 12:28:36.501874 17250 net.cpp:396] deconv5_1 <- unpool5
I0923 12:28:36.501880 17250 net.cpp:358] deconv5_1 -> deconv5_1
I0923 12:28:36.501886 17250 net.cpp:98] Setting up deconv5_1
I0923 12:28:36.554210 17250 net.cpp:105] Top shape: 8 512 14 14 (802816)
I0923 12:28:36.554234 17250 layer_factory.hpp:78] Creating layer debn5_1
I0923 12:28:36.554244 17250 net.cpp:69] Creating Layer debn5_1
I0923 12:28:36.554250 17250 net.cpp:396] debn5_1 <- deconv5_1
I0923 12:28:36.554256 17250 net.cpp:347] debn5_1 -> deconv5_1 (in-place)
I0923 12:28:36.554266 17250 net.cpp:98] Setting up debn5_1
I0923 12:28:36.554277 17250 net.cpp:105] Top shape: 8 512 14 14 (802816)
I0923 12:28:36.554285 17250 layer_factory.hpp:78] Creating layer derelu5_1
I0923 12:28:36.554291 17250 net.cpp:69] Creating Layer derelu5_1
I0923 12:28:36.554296 17250 net.cpp:396] derelu5_1 <- deconv5_1
I0923 12:28:36.554302 17250 net.cpp:347] derelu5_1 -> deconv5_1 (in-place)
I0923 12:28:36.554308 17250 net.cpp:98] Setting up derelu5_1
I0923 12:28:36.554313 17250 net.cpp:105] Top shape: 8 512 14 14 (802816)
I0923 12:28:36.554318 17250 layer_factory.hpp:78] Creating layer deconv5_2
I0923 12:28:36.554324 17250 net.cpp:69] Creating Layer deconv5_2
I0923 12:28:36.554329 17250 net.cpp:396] deconv5_2 <- deconv5_1
I0923 12:28:36.554334 17250 net.cpp:358] deconv5_2 -> deconv5_2
I0923 12:28:36.554340 17250 net.cpp:98] Setting up deconv5_2
I0923 12:28:36.605388 17250 net.cpp:105] Top shape: 8 512 14 14 (802816)
I0923 12:28:36.605407 17250 layer_factory.hpp:78] Creating layer debn5_2
I0923 12:28:36.605417 17250 net.cpp:69] Creating Layer debn5_2
I0923 12:28:36.605424 17250 net.cpp:396] debn5_2 <- deconv5_2
I0923 12:28:36.605430 17250 net.cpp:347] debn5_2 -> deconv5_2 (in-place)
I0923 12:28:36.605437 17250 net.cpp:98] Setting up debn5_2
I0923 12:28:36.605453 17250 net.cpp:105] Top shape: 8 512 14 14 (802816)
I0923 12:28:36.605458 17250 layer_factory.hpp:78] Creating layer derelu5_2
I0923 12:28:36.605479 17250 net.cpp:69] Creating Layer derelu5_2
I0923 12:28:36.605484 17250 net.cpp:396] derelu5_2 <- deconv5_2
I0923 12:28:36.605492 17250 net.cpp:347] derelu5_2 -> deconv5_2 (in-place)
I0923 12:28:36.605499 17250 net.cpp:98] Setting up derelu5_2
I0923 12:28:36.605504 17250 net.cpp:105] Top shape: 8 512 14 14 (802816)
I0923 12:28:36.605509 17250 layer_factory.hpp:78] Creating layer deconv5_3
I0923 12:28:36.605516 17250 net.cpp:69] Creating Layer deconv5_3
I0923 12:28:36.605520 17250 net.cpp:396] deconv5_3 <- deconv5_2
I0923 12:28:36.605526 17250 net.cpp:358] deconv5_3 -> deconv5_3
I0923 12:28:36.605532 17250 net.cpp:98] Setting up deconv5_3
I0923 12:28:36.656846 17250 net.cpp:105] Top shape: 8 512 14 14 (802816)
I0923 12:28:36.656865 17250 layer_factory.hpp:78] Creating layer debn5_3
I0923 12:28:36.656875 17250 net.cpp:69] Creating Layer debn5_3
I0923 12:28:36.656882 17250 net.cpp:396] debn5_3 <- deconv5_3
I0923 12:28:36.656888 17250 net.cpp:347] debn5_3 -> deconv5_3 (in-place)
I0923 12:28:36.656895 17250 net.cpp:98] Setting up debn5_3
I0923 12:28:36.656908 17250 net.cpp:105] Top shape: 8 512 14 14 (802816)
I0923 12:28:36.656914 17250 layer_factory.hpp:78] Creating layer derelu5_3
I0923 12:28:36.656920 17250 net.cpp:69] Creating Layer derelu5_3
I0923 12:28:36.656924 17250 net.cpp:396] derelu5_3 <- deconv5_3
I0923 12:28:36.656929 17250 net.cpp:347] derelu5_3 -> deconv5_3 (in-place)
I0923 12:28:36.656936 17250 net.cpp:98] Setting up derelu5_3
I0923 12:28:36.656942 17250 net.cpp:105] Top shape: 8 512 14 14 (802816)
I0923 12:28:36.656946 17250 layer_factory.hpp:78] Creating layer unpool4
I0923 12:28:36.656957 17250 net.cpp:69] Creating Layer unpool4
I0923 12:28:36.656962 17250 net.cpp:396] unpool4 <- deconv5_3
I0923 12:28:36.656968 17250 net.cpp:358] unpool4 -> unpool4
I0923 12:28:36.656975 17250 net.cpp:98] Setting up unpool4
I0923 12:28:36.656980 17250 net.cpp:105] Top shape: 8 512 28 28 (3211264)
I0923 12:28:36.656985 17250 layer_factory.hpp:78] Creating layer deconv4_1
I0923 12:28:36.656991 17250 net.cpp:69] Creating Layer deconv4_1
I0923 12:28:36.656996 17250 net.cpp:396] deconv4_1 <- unpool4
I0923 12:28:36.657001 17250 net.cpp:358] deconv4_1 -> deconv4_1
I0923 12:28:36.657007 17250 net.cpp:98] Setting up deconv4_1
I0923 12:28:36.707875 17250 net.cpp:105] Top shape: 8 512 28 28 (3211264)
I0923 12:28:36.707896 17250 layer_factory.hpp:78] Creating layer debn4_1
I0923 12:28:36.707906 17250 net.cpp:69] Creating Layer debn4_1
I0923 12:28:36.707911 17250 net.cpp:396] debn4_1 <- deconv4_1
I0923 12:28:36.707918 17250 net.cpp:347] debn4_1 -> deconv4_1 (in-place)
I0923 12:28:36.707926 17250 net.cpp:98] Setting up debn4_1
I0923 12:28:36.707937 17250 net.cpp:105] Top shape: 8 512 28 28 (3211264)
I0923 12:28:36.707943 17250 layer_factory.hpp:78] Creating layer derelu4_1
I0923 12:28:36.707949 17250 net.cpp:69] Creating Layer derelu4_1
I0923 12:28:36.707953 17250 net.cpp:396] derelu4_1 <- deconv4_1
I0923 12:28:36.707962 17250 net.cpp:347] derelu4_1 -> deconv4_1 (in-place)
I0923 12:28:36.707967 17250 net.cpp:98] Setting up derelu4_1
I0923 12:28:36.707974 17250 net.cpp:105] Top shape: 8 512 28 28 (3211264)
I0923 12:28:36.707978 17250 layer_factory.hpp:78] Creating layer deconv4_2
I0923 12:28:36.707986 17250 net.cpp:69] Creating Layer deconv4_2
I0923 12:28:36.707991 17250 net.cpp:396] deconv4_2 <- deconv4_1
I0923 12:28:36.707996 17250 net.cpp:358] deconv4_2 -> deconv4_2
I0923 12:28:36.708003 17250 net.cpp:98] Setting up deconv4_2
I0923 12:28:36.760081 17250 net.cpp:105] Top shape: 8 512 28 28 (3211264)
I0923 12:28:36.760103 17250 layer_factory.hpp:78] Creating layer debn4_2
I0923 12:28:36.760114 17250 net.cpp:69] Creating Layer debn4_2
I0923 12:28:36.760120 17250 net.cpp:396] debn4_2 <- deconv4_2
I0923 12:28:36.760128 17250 net.cpp:347] debn4_2 -> deconv4_2 (in-place)
I0923 12:28:36.760135 17250 net.cpp:98] Setting up debn4_2
I0923 12:28:36.760149 17250 net.cpp:105] Top shape: 8 512 28 28 (3211264)
I0923 12:28:36.760154 17250 layer_factory.hpp:78] Creating layer derelu4_2
I0923 12:28:36.760161 17250 net.cpp:69] Creating Layer derelu4_2
I0923 12:28:36.760177 17250 net.cpp:396] derelu4_2 <- deconv4_2
I0923 12:28:36.760184 17250 net.cpp:347] derelu4_2 -> deconv4_2 (in-place)
I0923 12:28:36.760188 17250 net.cpp:98] Setting up derelu4_2
I0923 12:28:36.760193 17250 net.cpp:105] Top shape: 8 512 28 28 (3211264)
I0923 12:28:36.760197 17250 layer_factory.hpp:78] Creating layer deconv4_3
I0923 12:28:36.760205 17250 net.cpp:69] Creating Layer deconv4_3
I0923 12:28:36.760210 17250 net.cpp:396] deconv4_3 <- deconv4_2
I0923 12:28:36.760218 17250 net.cpp:358] deconv4_3 -> deconv4_3
I0923 12:28:36.760226 17250 net.cpp:98] Setting up deconv4_3
I0923 12:28:36.784698 17250 net.cpp:105] Top shape: 8 256 28 28 (1605632)
I0923 12:28:36.784710 17250 layer_factory.hpp:78] Creating layer debn4_3
I0923 12:28:36.784718 17250 net.cpp:69] Creating Layer debn4_3
I0923 12:28:36.784723 17250 net.cpp:396] debn4_3 <- deconv4_3
I0923 12:28:36.784728 17250 net.cpp:347] debn4_3 -> deconv4_3 (in-place)
I0923 12:28:36.784734 17250 net.cpp:98] Setting up debn4_3
I0923 12:28:36.784744 17250 net.cpp:105] Top shape: 8 256 28 28 (1605632)
I0923 12:28:36.784749 17250 layer_factory.hpp:78] Creating layer derelu4_3
I0923 12:28:36.784756 17250 net.cpp:69] Creating Layer derelu4_3
I0923 12:28:36.784762 17250 net.cpp:396] derelu4_3 <- deconv4_3
I0923 12:28:36.784770 17250 net.cpp:347] derelu4_3 -> deconv4_3 (in-place)
I0923 12:28:36.784775 17250 net.cpp:98] Setting up derelu4_3
I0923 12:28:36.784780 17250 net.cpp:105] Top shape: 8 256 28 28 (1605632)
I0923 12:28:36.784783 17250 layer_factory.hpp:78] Creating layer unpool3
I0923 12:28:36.784790 17250 net.cpp:69] Creating Layer unpool3
I0923 12:28:36.784793 17250 net.cpp:396] unpool3 <- deconv4_3
I0923 12:28:36.784800 17250 net.cpp:358] unpool3 -> unpool3
I0923 12:28:36.784808 17250 net.cpp:98] Setting up unpool3
I0923 12:28:36.784814 17250 net.cpp:105] Top shape: 8 256 56 56 (6422528)
I0923 12:28:36.784819 17250 layer_factory.hpp:78] Creating layer deconv3_1
I0923 12:28:36.784827 17250 net.cpp:69] Creating Layer deconv3_1
I0923 12:28:36.784832 17250 net.cpp:396] deconv3_1 <- unpool3
I0923 12:28:36.784839 17250 net.cpp:358] deconv3_1 -> deconv3_1
I0923 12:28:36.784845 17250 net.cpp:98] Setting up deconv3_1
I0923 12:28:36.796556 17250 net.cpp:105] Top shape: 8 256 56 56 (6422528)
I0923 12:28:36.796567 17250 layer_factory.hpp:78] Creating layer debn3_1
I0923 12:28:36.796573 17250 net.cpp:69] Creating Layer debn3_1
I0923 12:28:36.796579 17250 net.cpp:396] debn3_1 <- deconv3_1
I0923 12:28:36.796586 17250 net.cpp:347] debn3_1 -> deconv3_1 (in-place)
I0923 12:28:36.796592 17250 net.cpp:98] Setting up debn3_1
I0923 12:28:36.796608 17250 net.cpp:105] Top shape: 8 256 56 56 (6422528)
I0923 12:28:36.796615 17250 layer_factory.hpp:78] Creating layer derelu3_1
I0923 12:28:36.796622 17250 net.cpp:69] Creating Layer derelu3_1
I0923 12:28:36.796627 17250 net.cpp:396] derelu3_1 <- deconv3_1
I0923 12:28:36.796633 17250 net.cpp:347] derelu3_1 -> deconv3_1 (in-place)
I0923 12:28:36.796639 17250 net.cpp:98] Setting up derelu3_1
I0923 12:28:36.796644 17250 net.cpp:105] Top shape: 8 256 56 56 (6422528)
I0923 12:28:36.796649 17250 layer_factory.hpp:78] Creating layer deconv3_2
I0923 12:28:36.796655 17250 net.cpp:69] Creating Layer deconv3_2
I0923 12:28:36.796659 17250 net.cpp:396] deconv3_2 <- deconv3_1
I0923 12:28:36.796666 17250 net.cpp:358] deconv3_2 -> deconv3_2
I0923 12:28:36.796674 17250 net.cpp:98] Setting up deconv3_2
I0923 12:28:36.808342 17250 net.cpp:105] Top shape: 8 256 56 56 (6422528)
I0923 12:28:36.808352 17250 layer_factory.hpp:78] Creating layer debn3_2
I0923 12:28:36.808359 17250 net.cpp:69] Creating Layer debn3_2
I0923 12:28:36.808364 17250 net.cpp:396] debn3_2 <- deconv3_2
I0923 12:28:36.808372 17250 net.cpp:347] debn3_2 -> deconv3_2 (in-place)
I0923 12:28:36.808378 17250 net.cpp:98] Setting up debn3_2
I0923 12:28:36.808392 17250 net.cpp:105] Top shape: 8 256 56 56 (6422528)
I0923 12:28:36.808398 17250 layer_factory.hpp:78] Creating layer derelu3_2
I0923 12:28:36.808403 17250 net.cpp:69] Creating Layer derelu3_2
I0923 12:28:36.808416 17250 net.cpp:396] derelu3_2 <- deconv3_2
I0923 12:28:36.808423 17250 net.cpp:347] derelu3_2 -> deconv3_2 (in-place)
I0923 12:28:36.808429 17250 net.cpp:98] Setting up derelu3_2
I0923 12:28:36.808434 17250 net.cpp:105] Top shape: 8 256 56 56 (6422528)
I0923 12:28:36.808439 17250 layer_factory.hpp:78] Creating layer deconv3_3
I0923 12:28:36.808445 17250 net.cpp:69] Creating Layer deconv3_3
I0923 12:28:36.808450 17250 net.cpp:396] deconv3_3 <- deconv3_2
I0923 12:28:36.808456 17250 net.cpp:358] deconv3_3 -> deconv3_3
I0923 12:28:36.808464 17250 net.cpp:98] Setting up deconv3_3
I0923 12:28:36.814303 17250 net.cpp:105] Top shape: 8 128 56 56 (3211264)
I0923 12:28:36.814313 17250 layer_factory.hpp:78] Creating layer debn3_3
I0923 12:28:36.814322 17250 net.cpp:69] Creating Layer debn3_3
I0923 12:28:36.814327 17250 net.cpp:396] debn3_3 <- deconv3_3
I0923 12:28:36.814333 17250 net.cpp:347] debn3_3 -> deconv3_3 (in-place)
I0923 12:28:36.814338 17250 net.cpp:98] Setting up debn3_3
I0923 12:28:36.814353 17250 net.cpp:105] Top shape: 8 128 56 56 (3211264)
I0923 12:28:36.814360 17250 layer_factory.hpp:78] Creating layer derelu3_3
I0923 12:28:36.814365 17250 net.cpp:69] Creating Layer derelu3_3
I0923 12:28:36.814369 17250 net.cpp:396] derelu3_3 <- deconv3_3
I0923 12:28:36.814374 17250 net.cpp:347] derelu3_3 -> deconv3_3 (in-place)
I0923 12:28:36.814379 17250 net.cpp:98] Setting up derelu3_3
I0923 12:28:36.814383 17250 net.cpp:105] Top shape: 8 128 56 56 (3211264)
I0923 12:28:36.814388 17250 layer_factory.hpp:78] Creating layer unpool2
I0923 12:28:36.814394 17250 net.cpp:69] Creating Layer unpool2
I0923 12:28:36.814399 17250 net.cpp:396] unpool2 <- deconv3_3
I0923 12:28:36.814404 17250 net.cpp:358] unpool2 -> unpool2
I0923 12:28:36.814410 17250 net.cpp:98] Setting up unpool2
I0923 12:28:36.814415 17250 net.cpp:105] Top shape: 8 128 112 112 (12845056)
I0923 12:28:36.814420 17250 layer_factory.hpp:78] Creating layer deconv2_1
I0923 12:28:36.814427 17250 net.cpp:69] Creating Layer deconv2_1
I0923 12:28:36.814432 17250 net.cpp:396] deconv2_1 <- unpool2
I0923 12:28:36.814438 17250 net.cpp:358] deconv2_1 -> deconv2_1
I0923 12:28:36.814445 17250 net.cpp:98] Setting up deconv2_1
I0923 12:28:36.817391 17250 net.cpp:105] Top shape: 8 128 112 112 (12845056)
I0923 12:28:36.817401 17250 layer_factory.hpp:78] Creating layer debn2_1
I0923 12:28:36.817409 17250 net.cpp:69] Creating Layer debn2_1
I0923 12:28:36.817414 17250 net.cpp:396] debn2_1 <- deconv2_1
I0923 12:28:36.817420 17250 net.cpp:347] debn2_1 -> deconv2_1 (in-place)
I0923 12:28:36.817427 17250 net.cpp:98] Setting up debn2_1
I0923 12:28:36.817459 17250 net.cpp:105] Top shape: 8 128 112 112 (12845056)
I0923 12:28:36.817467 17250 layer_factory.hpp:78] Creating layer derelu2_1
I0923 12:28:36.817473 17250 net.cpp:69] Creating Layer derelu2_1
I0923 12:28:36.817478 17250 net.cpp:396] derelu2_1 <- deconv2_1
I0923 12:28:36.817484 17250 net.cpp:347] derelu2_1 -> deconv2_1 (in-place)
I0923 12:28:36.817489 17250 net.cpp:98] Setting up derelu2_1
I0923 12:28:36.817494 17250 net.cpp:105] Top shape: 8 128 112 112 (12845056)
I0923 12:28:36.817499 17250 layer_factory.hpp:78] Creating layer deconv2_2
I0923 12:28:36.817507 17250 net.cpp:69] Creating Layer deconv2_2
I0923 12:28:36.817512 17250 net.cpp:396] deconv2_2 <- deconv2_1
I0923 12:28:36.817517 17250 net.cpp:358] deconv2_2 -> deconv2_2
I0923 12:28:36.817523 17250 net.cpp:98] Setting up deconv2_2
I0923 12:28:36.818999 17250 net.cpp:105] Top shape: 8 64 112 112 (6422528)
I0923 12:28:36.819007 17250 layer_factory.hpp:78] Creating layer debn2_2
I0923 12:28:36.819015 17250 net.cpp:69] Creating Layer debn2_2
I0923 12:28:36.819020 17250 net.cpp:396] debn2_2 <- deconv2_2
I0923 12:28:36.819025 17250 net.cpp:347] debn2_2 -> deconv2_2 (in-place)
I0923 12:28:36.819031 17250 net.cpp:98] Setting up debn2_2
I0923 12:28:36.819064 17250 net.cpp:105] Top shape: 8 64 112 112 (6422528)
I0923 12:28:36.819072 17250 layer_factory.hpp:78] Creating layer derelu2_2
I0923 12:28:36.819078 17250 net.cpp:69] Creating Layer derelu2_2
I0923 12:28:36.819083 17250 net.cpp:396] derelu2_2 <- deconv2_2
I0923 12:28:36.819095 17250 net.cpp:347] derelu2_2 -> deconv2_2 (in-place)
I0923 12:28:36.819103 17250 net.cpp:98] Setting up derelu2_2
I0923 12:28:36.819108 17250 net.cpp:105] Top shape: 8 64 112 112 (6422528)
I0923 12:28:36.819113 17250 layer_factory.hpp:78] Creating layer unpool1
I0923 12:28:36.819118 17250 net.cpp:69] Creating Layer unpool1
I0923 12:28:36.819123 17250 net.cpp:396] unpool1 <- deconv2_2
I0923 12:28:36.819129 17250 net.cpp:358] unpool1 -> unpool1
I0923 12:28:36.819135 17250 net.cpp:98] Setting up unpool1
I0923 12:28:36.819141 17250 net.cpp:105] Top shape: 8 64 224 224 (25690112)
I0923 12:28:36.819146 17250 layer_factory.hpp:78] Creating layer deconv1_1
I0923 12:28:36.819152 17250 net.cpp:69] Creating Layer deconv1_1
I0923 12:28:36.819157 17250 net.cpp:396] deconv1_1 <- unpool1
I0923 12:28:36.819164 17250 net.cpp:358] deconv1_1 -> deconv1_1
I0923 12:28:36.819170 17250 net.cpp:98] Setting up deconv1_1
I0923 12:28:36.819954 17250 net.cpp:105] Top shape: 8 64 224 224 (25690112)
I0923 12:28:36.819963 17250 layer_factory.hpp:78] Creating layer debn1_1
I0923 12:28:36.819970 17250 net.cpp:69] Creating Layer debn1_1
I0923 12:28:36.819975 17250 net.cpp:396] debn1_1 <- deconv1_1
I0923 12:28:36.819982 17250 net.cpp:347] debn1_1 -> deconv1_1 (in-place)
I0923 12:28:36.819988 17250 net.cpp:98] Setting up debn1_1
I0923 12:28:36.820088 17250 net.cpp:105] Top shape: 8 64 224 224 (25690112)
I0923 12:28:36.820096 17250 layer_factory.hpp:78] Creating layer derelu1_1
I0923 12:28:36.820102 17250 net.cpp:69] Creating Layer derelu1_1
I0923 12:28:36.820107 17250 net.cpp:396] derelu1_1 <- deconv1_1
I0923 12:28:36.820113 17250 net.cpp:347] derelu1_1 -> deconv1_1 (in-place)
I0923 12:28:36.820119 17250 net.cpp:98] Setting up derelu1_1
I0923 12:28:36.820124 17250 net.cpp:105] Top shape: 8 64 224 224 (25690112)
I0923 12:28:36.820129 17250 layer_factory.hpp:78] Creating layer deconv1_2
I0923 12:28:36.820137 17250 net.cpp:69] Creating Layer deconv1_2
I0923 12:28:36.820142 17250 net.cpp:396] deconv1_2 <- deconv1_1
I0923 12:28:36.820147 17250 net.cpp:358] deconv1_2 -> deconv1_2
I0923 12:28:36.820153 17250 net.cpp:98] Setting up deconv1_2
I0923 12:28:36.820940 17250 net.cpp:105] Top shape: 8 64 224 224 (25690112)
I0923 12:28:36.820950 17250 layer_factory.hpp:78] Creating layer debn1_2
I0923 12:28:36.820956 17250 net.cpp:69] Creating Layer debn1_2
I0923 12:28:36.820961 17250 net.cpp:396] debn1_2 <- deconv1_2
I0923 12:28:36.820969 17250 net.cpp:347] debn1_2 -> deconv1_2 (in-place)
I0923 12:28:36.820976 17250 net.cpp:98] Setting up debn1_2
I0923 12:28:36.821074 17250 net.cpp:105] Top shape: 8 64 224 224 (25690112)
I0923 12:28:36.821082 17250 layer_factory.hpp:78] Creating layer derelu1_2
I0923 12:28:36.821089 17250 net.cpp:69] Creating Layer derelu1_2
I0923 12:28:36.821094 17250 net.cpp:396] derelu1_2 <- deconv1_2
I0923 12:28:36.821099 17250 net.cpp:347] derelu1_2 -> deconv1_2 (in-place)
I0923 12:28:36.821105 17250 net.cpp:98] Setting up derelu1_2
I0923 12:28:36.821108 17250 net.cpp:105] Top shape: 8 64 224 224 (25690112)
I0923 12:28:36.821113 17250 layer_factory.hpp:78] Creating layer seg-score-voc
I0923 12:28:36.821120 17250 net.cpp:69] Creating Layer seg-score-voc
I0923 12:28:36.821125 17250 net.cpp:396] seg-score-voc <- deconv1_2
I0923 12:28:36.821131 17250 net.cpp:358] seg-score-voc -> seg-score
I0923 12:28:36.821137 17250 net.cpp:98] Setting up seg-score-voc
I0923 12:28:36.821219 17250 net.cpp:105] Top shape: 8 21 224 224 (8429568)
I0923 12:28:36.821228 17250 layer_factory.hpp:78] Creating layer seg-loss
I0923 12:28:36.821238 17250 net.cpp:69] Creating Layer seg-loss
I0923 12:28:36.821243 17250 net.cpp:396] seg-loss <- seg-score
I0923 12:28:36.821247 17250 net.cpp:396] seg-loss <- seg-label
I0923 12:28:36.821254 17250 net.cpp:358] seg-loss -> seg-loss
I0923 12:28:36.821261 17250 net.cpp:98] Setting up seg-loss
I0923 12:28:36.835461 17250 net.cpp:105] Top shape: 1 1 1 1 (1)
I0923 12:28:36.835476 17250 net.cpp:111]     with loss weight 1
I0923 12:28:36.835495 17250 net.cpp:172] seg-loss needs backward computation.
I0923 12:28:36.835510 17250 net.cpp:172] seg-score-voc needs backward computation.
I0923 12:28:36.835515 17250 net.cpp:172] derelu1_2 needs backward computation.
I0923 12:28:36.835520 17250 net.cpp:172] debn1_2 needs backward computation.
I0923 12:28:36.835526 17250 net.cpp:172] deconv1_2 needs backward computation.
…
I0923 12:28:36.837679 17250 net.cpp:277] The NetState phase (1) differed from the phase (0) specified by a rule in layer data
I0923 12:28:36.838042 17250 net.cpp:39] Initializing net from parameters: 
name: "stage_1_training"
layers {
  top: "data"
  top: "seg-label"
  name: "data"
  type: IMAGE_SEG_DATA
  image_data_param {
    source: "./stage_1_train_imgset/val_reduced_07.txt"
    batch_size: 8
    shuffle: true
    new_height: 250
    new_width: 250
    root_folder: "./VOC2012"
    label_type: PIXEL
  }
  include {
    phase: TEST
  }
  transform_param {
    mirror: true
    crop_size: 224
    mean_value: 104.008
    mean_value: 116.669
    mean_value: 122.675
  }
}
layers {
  bottom: "data"
  top: "conv1_1"
  name: "conv1_1"
  type: CONVOLUTION
  blobs_lr: 1
  blobs_lr: 2
  weight_decay: 1
  weight_decay: 0
  convolution_param {
    num_output: 64
    pad: 1
    kernel_size: 3
  }
}
layers {
  bottom: "conv1_1"
  top: "conv1_1"
  name: "bn1_1"
  type: BN
  bn_param {
    scale_filler {
      type: "constant"
      value: 1
    }
    shift_filler {
      type: "constant"
      value: 0.001
    }
  }
}
layers {
  bottom: "conv1_1"
  top: "conv1_1"
  name: "relu1_1"
  type: RELU
}
layers {
  bottom: "conv1_1"
  top: "conv1_2"
  name: "conv1_2"
  type: CONVOLUTION
  blobs_lr: 1
  blobs_lr: 2
  weight_decay: 1
  weight_decay: 0
  convolution_param {
    num_output: 64
    pad: 1
    kernel_size: 3
  }
}
layers {
  bottom: "conv1_2"
  top: "conv1_2"
  name: "bn1_2"
  type: BN
  bn_param {
    scale_filler {
      type: "constant"
      value: 1
    }
    shift_filler {
      type: "constant"
      value: 0.001
    }
  }
}
layers {
  bottom: "conv1_2"
  top: "conv1_2"
  name: "relu1_2"
  type: RELU
}
layers {
  bottom: "conv1_2"
  top: "pool1"
  name: "pool1"
  type: POOLING
  pooling_param {
    pool: MAX
    kernel_size: 2
    stride: 2
  }
}
layers {
  bottom: "pool1"
  top: "conv2_1"
  name: "conv2_1"
  type: CONVOLUTION
  blobs_lr: 1
  blobs_lr: 2
  weight_decay: 1
  weight_decay: 0
  convolution_param {
    num_output: 128
    pad: 1
    kernel_size: 3
  }
}
layers {
  bottom: "conv2_1"
  top: "conv2_1"
  name: "bn2_1"
  type: BN
  bn_param {
    scale_filler {
      type: "constant"
      value: 1
    }
    shift_filler {
      type: "constant"
      value: 0.001
    }
  }
}
layers {
  bottom: "conv2_1"
  top: "conv2_1"
  name: "relu2_1"
  type: RELU
}
layers {
  bottom: "conv2_1"
  top: "conv2_2"
  name: "conv2_2"
  type: CONVOLUTION
  blobs_lr: 1
  blobs_lr: 2
  weight_decay: 1
  weight_decay: 0
  convolution_param {
    num_output: 128
    pad: 1
    kernel_size: 3
  }
}
layers {
  bottom: "conv2_2"
  top: "conv2_2"
  name: "bn2_2"
  type: BN
  bn_param {
    scale_filler {
      type: "constant"
      value: 1
    }
    shift_filler {
      type: "constant"
      value: 0.001
    }
  }
}
layers {
  bottom: "conv2_2"
  top: "conv2_2"
  name: "relu2_2"
  type: RELU
}
layers {
  bottom: "conv2_2"
  top: "pool2"
  name: "pool2"
  type: POOLING
  pooling_param {
    pool: MAX
    kernel_size: 2
    stride: 2
  }
}
layers {
  bottom: "pool2"
  top: "conv3_1"
  name: "conv3_1"
  type: CONVOLUTION
  blobs_lr: 1
  blobs_lr: 2
  weight_decay: 1
  weight_decay: 0
  convolution_param {
    num_output: 256
    pad: 1
    kernel_size: 3
  }
}
layers {
  bottom: "conv3_1"
  top: "conv3_1"
  name: "bn3_1"
  type: BN
  bn_param {
    scale_filler {
      type: "constant"
      value: 1
    }
    shift_filler {
      type: "constant"
      value: 0.001
    }
  }
}
layers {
  bottom: "conv3_1"
  top: "conv3_1"
  name: "relu3_1"
  type: RELU
}
layers {
  bottom: "conv3_1"
  top: "conv3_2"
  name: "conv3_2"
  type: CONVOLUTION
  blobs_lr: 1
  blobs_lr: 2
  weight_decay: 1
  weight_decay: 0
  convolution_param {
    num_output: 256
    pad: 1
    kernel_size: 3
  }
}
layers {
  bottom: "conv3_2"
  top: "conv3_2"
  name: "bn3_2"
  type: BN
  bn_param {
    scale_filler {
      type: "constant"
      value: 1
    }
    shift_filler {
      type: "constant"
      value: 0.001
    }
  }
}
layers {
  bottom: "conv3_2"
  top: "conv3_2"
  name: "relu3_2"
  type: RELU
}
layers {
  bottom: "conv3_2"
  top: "conv3_3"
  name: "conv3_3"
  type: CONVOLUTION
  blobs_lr: 1
  blobs_lr: 2
  weight_decay: 1
  weight_decay: 0
  convolution_param {
    num_output: 256
    pad: 1
    kernel_size: 3
  }
}
layers {
  bottom: "conv3_3"
  top: "conv3_3"
  name: "bn3_3"
  type: BN
  bn_param {
    scale_filler {
      type: "constant"
      value: 1
    }
    shift_filler {
      type: "constant"
      value: 0.001
    }
  }
}
layers {
  bottom: "conv3_3"
  top: "conv3_3"
  name: "relu3_3"
  type: RELU
}
layers {
  bottom: "conv3_3"
  top: "pool3"
  name: "pool3"
  type: POOLING
  pooling_param {
    pool: MAX
    kernel_size: 2
    stride: 2
  }
}
layers {
  bottom: "pool3"
  top: "conv4_1"
  name: "conv4_1"
  type: CONVOLUTION
  blobs_lr: 1
  blobs_lr: 2
  weight_decay: 1
  weight_decay: 0
  convolution_param {
    num_output: 512
    pad: 1
    kernel_size: 3
  }
}
layers {
  bottom: "conv4_1"
  top: "conv4_1"
  name: "bn4_1"
  type: BN
  bn_param {
    scale_filler {
      type: "constant"
      value: 1
    }
    shift_filler {
      type: "constant"
      value: 0.001
    }
  }
}
layers {
  bottom: "conv4_1"
  top: "conv4_1"
  name: "relu4_1"
  type: RELU
}
layers {
  bottom: "conv4_1"
  top: "conv4_2"
  name: "conv4_2"
  type: CONVOLUTION
  blobs_lr: 1
  blobs_lr: 2
  weight_decay: 1
  weight_decay: 0
  convolution_param {
    num_output: 512
    pad: 1
    kernel_size: 3
  }
}
layers {
  bottom: "conv4_2"
  top: "conv4_2"
  name: "bn4_2"
  type: BN
  bn_param {
    scale_filler {
      type: "constant"
      value: 1
    }
    shift_filler {
      type: "constant"
      value: 0.001
    }
  }
}
layers {
  bottom: "conv4_2"
  top: "conv4_2"
  name: "relu4_2"
  type: RELU
}
layers {
  bottom: "conv4_2"
  top: "conv4_3"
  name: "conv4_3"
  type: CONVOLUTION
  blobs_lr: 1
  blobs_lr: 2
  weight_decay: 1
  weight_decay: 0
  convolution_param {
    num_output: 512
    pad: 1
    kernel_size: 3
  }
}
layers {
  bottom: "conv4_3"
  top: "conv4_3"
  name: "bn4_3"
  type: BN
  bn_param {
    scale_filler {
      type: "constant"
      value: 1
    }
    shift_filler {
      type: "constant"
      value: 0.001
    }
  }
}
layers {
  bottom: "conv4_3"
  top: "conv4_3"
  name: "relu4_3"
  type: RELU
}
layers {
  bottom: "conv4_3"
  top: "pool4"
  name: "pool4"
  type: POOLING
  pooling_param {
    pool: MAX
    kernel_size: 2
    stride: 2
  }
}
layers {
  bottom: "pool4"
  top: "conv5_1"
  name: "conv5_1"
  type: CONVOLUTION
  blobs_lr: 1
  blobs_lr: 2
  weight_decay: 1
  weight_decay: 0
  convolution_param {
    num_output: 512
    pad: 1
    kernel_size: 3
  }
}
layers {
  bottom: "conv5_1"
  top: "conv5_1"
  name: "bn5_1"
  type: BN
  bn_param {
    scale_filler {
      type: "constant"
      value: 1
    }
    shift_filler {
      type: "constant"
      value: 0.001
    }
  }
}
layers {
  bottom: "conv5_1"
  top: "conv5_1"
  name: "relu5_1"
  type: RELU
}
layers {
  bottom: "conv5_1"
  top: "conv5_2"
  name: "conv5_2"
  type: CONVOLUTION
  blobs_lr: 1
  blobs_lr: 2
  weight_decay: 1
  weight_decay: 0
  convolution_param {
    num_output: 512
    pad: 1
    kernel_size: 3
  }
}
layers {
  bottom: "conv5_2"
  top: "conv5_2"
  name: "bn5_2"
  type: BN
  bn_param {
    scale_filler {
      type: "constant"
      value: 1
    }
    shift_filler {
      type: "constant"
      value: 0.001
    }
  }
}
layers {
  bottom: "conv5_2"
  top: "conv5_2"
  name: "relu5_2"
  type: RELU
}
layers {
  bottom: "conv5_2"
  top: "conv5_3"
  name: "conv5_3"
  type: CONVOLUTION
  blobs_lr: 1
  blobs_lr: 2
  weight_decay: 1
  weight_decay: 0
  convolution_param {
    num_output: 512
    pad: 1
    kernel_size: 3
  }
}
layers {
  bottom: "conv5_3"
  top: "conv5_3"
  name: "bn5_3"
  type: BN
  bn_param {
    scale_filler {
      type: "constant"
      value: 1
    }
    shift_filler {
      type: "constant"
      value: 0.001
    }
  }
}
layers {
  bottom: "conv5_3"
  top: "conv5_3"
  name: "relu5_3"
  type: RELU
}
layers {
  bottom: "conv5_3"
  top: "pool5"
  name: "pool5"
  type: POOLING
  pooling_param {
    pool: MAX
    kernel_size: 2
    stride: 2
  }
}
layers {
  bottom: "pool5"
  top: "fc6"
  name: "fc6"
  type: CONVOLUTION
  blobs_lr: 1
  blobs_lr: 2
  weight_decay: 1
  weight_decay: 0
  convolution_param {
    num_output: 4096
    kernel_size: 7
  }
}
layers {
  bottom: "fc6"
  top: "fc6"
  name: "bnfc6"
  type: BN
  bn_param {
    scale_filler {
      type: "constant"
      value: 1
    }
    shift_filler {
      type: "constant"
      value: 0.001
    }
  }
}
layers {
  bottom: "fc6"
  top: "fc6"
  name: "relu6"
  type: RELU
}
layers {
  bottom: "fc6"
  top: "fc7"
  name: "fc7"
  type: CONVOLUTION
  blobs_lr: 1
  blobs_lr: 2
  weight_decay: 1
  weight_decay: 0
  convolution_param {
    num_output: 4096
    kernel_size: 1
  }
}
layers {
  bottom: "fc7"
  top: "fc7"
  name: "bnfc7"
  type: BN
  bn_param {
    scale_filler {
      type: "constant"
      value: 1
    }
    shift_filler {
      type: "constant"
      value: 0.001
    }
  }
}
layers {
  bottom: "fc7"
  top: "fc7"
  name: "relu7"
  type: RELU
}
layers {
  bottom: "fc7"
  top: "fc6-deconv"
  name: "fc6-deconv"
  type: DECONVOLUTION
  blobs_lr: 1
  blobs_lr: 2
  weight_decay: 1
  weight_decay: 0
  convolution_param {
    num_output: 512
    kernel_size: 7
    weight_filler {
      type: "gaussian"
      std: 0.01
    }
    bias_filler {
      type: "constant"
      value: 0
    }
  }
}
layers {
  bottom: "fc6-deconv"
  top: "fc6-deconv"
  name: "fc6-deconv-bn"
  type: BN
  bn_param {
    scale_filler {
      type: "constant"
      value: 1
    }
    shift_filler {
      type: "constant"
      value: 0.001
    }
  }
}
layers {
  bottom: "fc6-deconv"
  top: "fc6-deconv"
  name: "fc6-deconv-relu"
  type: RELU
}
layers {
  bottom: "fc6-deconv"
  top: "unpool5"
  name: "unpool5"
  type: UNPOOLING
  unpooling_param {
    unpool: MAX
    kernel_size: 2
    stride: 2
    unpool_size: 14
  }
}
layers {
  bottom: "unpool5"
  top: "deconv5_1"
  name: "deconv5_1"
  type: DECONVOLUTION
  blobs_lr: 1
  blobs_lr: 2
  weight_decay: 1
  weight_decay: 0
  convolution_param {
    num_output: 512
    pad: 1
    kernel_size: 3
    weight_filler {
      type: "gaussian"
      std: 0.01
    }
    bias_filler {
      type: "constant"
      value: 0
    }
  }
}
layers {
  bottom: "deconv5_1"
  top: "deconv5_1"
  name: "debn5_1"
  type: BN
  bn_param {
    scale_filler {
      type: "constant"
      value: 1
    }
    shift_filler {
      type: "constant"
      value: 0.001
    }
  }
}
layers {
  bottom: "deconv5_1"
  top: "deconv5_1"
  name: "derelu5_1"
  type: RELU
}
layers {
  bottom: "deconv5_1"
  top: "deconv5_2"
  name: "deconv5_2"
  type: DECONVOLUTION
  blobs_lr: 1
  blobs_lr: 2
  weight_decay: 1
  weight_decay: 0
  convolution_param {
    num_output: 512
    pad: 1
    kernel_size: 3
    weight_filler {
      type: "gaussian"
      std: 0.01
    }
    bias_filler {
      type: "constant"
      value: 0
    }
  }
}
layers {
  bottom: "deconv5_2"
  top: "deconv5_2"
  name: "debn5_2"
  type: BN
  bn_param {
    scale_filler {
      type: "constant"
      value: 1
    }
    shift_filler {
      type: "constant"
      value: 0.001
    }
  }
}
layers {
  bottom: "deconv5_2"
  top: "deconv5_2"
  name: "derelu5_2"
  type: RELU
}
layers {
  bottom: "deconv5_2"
  top: "deconv5_3"
  name: "deconv5_3"
  type: DECONVOLUTION
  blobs_lr: 1
  blobs_lr: 2
  weight_decay: 1
  weight_decay: 0
  convolution_param {
    num_output: 512
    pad: 1
    kernel_size: 3
    weight_filler {
      type: "gaussian"
      std: 0.01
    }
    bias_filler {
      type: "constant"
      value: 0
    }
  }
}
layers {
  bottom: "deconv5_3"
  top: "deconv5_3"
  name: "debn5_3"
  type: BN
  bn_param {
    scale_filler {
      type: "constant"
      value: 1
    }
    shift_filler {
      type: "constant"
      value: 0.001
    }
  }
}
layers {
  bottom: "deconv5_3"
  top: "deconv5_3"
  name: "derelu5_3"
  type: RELU
}
layers {
  bottom: "deconv5_3"
  top: "unpool4"
  name: "unpool4"
  type: UNPOOLING
  unpooling_param {
    unpool: MAX
    kernel_size: 2
    stride: 2
    unpool_size: 28
  }
}
layers {
  bottom: "unpool4"
  top: "deconv4_1"
  name: "deconv4_1"
  type: DECONVOLUTION
  blobs_lr: 1
  blobs_lr: 2
  weight_decay: 1
  weight_decay: 0
  convolution_param {
    num_output: 512
    pad: 1
    kernel_size: 3
    weight_filler {
      type: "gaussian"
      std: 0.01
    }
    bias_filler {
      type: "constant"
      value: 0
    }
  }
}
layers {
  bottom: "deconv4_1"
  top: "deconv4_1"
  name: "debn4_1"
  type: BN
  bn_param {
    scale_filler {
      type: "constant"
      value: 1
    }
    shift_filler {
      type: "constant"
      value: 0.001
    }
  }
}
layers {
  bottom: "deconv4_1"
  top: "deconv4_1"
  name: "derelu4_1"
  type: RELU
}
layers {
  bottom: "deconv4_1"
  top: "deconv4_2"
  name: "deconv4_2"
  type: DECONVOLUTION
  blobs_lr: 1
  blobs_lr: 2
  weight_decay: 1
  weight_decay: 0
  convolution_param {
    num_output: 512
    pad: 1
    kernel_size: 3
    weight_filler {
      type: "gaussian"
      std: 0.01
    }
    bias_filler {
      type: "constant"
      value: 0
    }
  }
}
layers {
  bottom: "deconv4_2"
  top: "deconv4_2"
  name: "debn4_2"
  type: BN
  bn_param {
    scale_filler {
      type: "constant"
      value: 1
    }
    shift_filler {
      type: "constant"
      value: 0.001
    }
  }
}
layers {
  bottom: "deconv4_2"
  top: "deconv4_2"
  name: "derelu4_2"
  type: RELU
}
layers {
  bottom: "deconv4_2"
  top: "deconv4_3"
  name: "deconv4_3"
  type: DECONVOLUTION
  blobs_lr: 1
  blobs_lr: 2
  weight_decay: 1
  weight_decay: 0
  convolution_param {
    num_output: 256
    pad: 1
    kernel_size: 3
    weight_filler {
      type: "gaussian"
      std: 0.01
    }
    bias_filler {
      type: "constant"
      value: 0
    }
  }
}
layers {
  bottom: "deconv4_3"
  top: "deconv4_3"
  name: "debn4_3"
  type: BN
  bn_param {
    scale_filler {
      type: "constant"
      value: 1
    }
    shift_filler {
      type: "constant"
      value: 0.001
    }
  }
}
layers {
  bottom: "deconv4_3"
  top: "deconv4_3"
  name: "derelu4_3"
  type: RELU
}
layers {
  bottom: "deconv4_3"
  top: "unpool3"
  name: "unpool3"
  type: UNPOOLING
  unpooling_param {
    unpool: MAX
    kernel_size: 2
    stride: 2
    unpool_size: 56
  }
}
layers {
  bottom: "unpool3"
  top: "deconv3_1"
  name: "deconv3_1"
  type: DECONVOLUTION
  blobs_lr: 1
  blobs_lr: 2
  weight_decay: 1
  weight_decay: 0
  convolution_param {
    num_output: 256
    pad: 1
    kernel_size: 3
    weight_filler {
      type: "gaussian"
      std: 0.01
    }
    bias_filler {
      type: "constant"
      value: 0
    }
  }
}
layers {
  bottom: "deconv3_1"
  top: "deconv3_1"
  name: "debn3_1"
  type: BN
  bn_param {
    scale_filler {
      type: "constant"
      value: 1
    }
    shift_filler {
      type: "constant"
      value: 0.001
    }
  }
}
layers {
  bottom: "deconv3_1"
  top: "deconv3_1"
  name: "derelu3_1"
  type: RELU
}
layers {
  bottom: "deconv3_1"
  top: "deconv3_2"
  name: "deconv3_2"
  type: DECONVOLUTION
  blobs_lr: 1
  blobs_lr: 2
  weight_decay: 1
  weight_decay: 0
  convolution_param {
    num_output: 256
    pad: 1
    kernel_size: 3
    weight_filler {
      type: "gaussian"
      std: 0.01
    }
    bias_filler {
      type: "constant"
      value: 0
    }
  }
}
layers {
  bottom: "deconv3_2"
  top: "deconv3_2"
  name: "debn3_2"
  type: BN
  bn_param {
    scale_filler {
      type: "constant"
      value: 1
    }
    shift_filler {
      type: "constant"
      value: 0.001
    }
  }
}
layers {
  bottom: "deconv3_2"
  top: "deconv3_2"
  name: "derelu3_2"
  type: RELU
}
layers {
  bottom: "deconv3_2"
  top: "deconv3_3"
  name: "deconv3_3"
  type: DECONVOLUTION
  blobs_lr: 1
  blobs_lr: 2
  weight_decay: 1
  weight_decay: 0
  convolution_param {
    num_output: 128
    pad: 1
    kernel_size: 3
    weight_filler {
      type: "gaussian"
      std: 0.01
    }
    bias_filler {
      type: "constant"
      value: 0
    }
  }
}
layers {
  bottom: "deconv3_3"
  top: "deconv3_3"
  name: "debn3_3"
  type: BN
  bn_param {
    scale_filler {
      type: "constant"
      value: 1
    }
    shift_filler {
      type: "constant"
      value: 0.001
    }
  }
}
layers {
  bottom: "deconv3_3"
  top: "deconv3_3"
  name: "derelu3_3"
  type: RELU
}
layers {
  bottom: "deconv3_3"
  top: "unpool2"
  name: "unpool2"
  type: UNPOOLING
  unpooling_param {
    unpool: MAX
    kernel_size: 2
    stride: 2
    unpool_size: 112
  }
}
layers {
  bottom: "unpool2"
  top: "deconv2_1"
  name: "deconv2_1"
  type: DECONVOLUTION
  blobs_lr: 1
  blobs_lr: 2
  weight_decay: 1
  weight_decay: 0
  convolution_param {
    num_output: 128
    pad: 1
    kernel_size: 3
    weight_filler {
      type: "gaussian"
      std: 0.01
    }
    bias_filler {
      type: "constant"
      value: 0
    }
  }
}
layers {
  bottom: "deconv2_1"
  top: "deconv2_1"
  name: "debn2_1"
  type: BN
  bn_param {
    scale_filler {
      type: "constant"
      value: 1
    }
    shift_filler {
      type: "constant"
      value: 0.001
    }
  }
}
layers {
  bottom: "deconv2_1"
  top: "deconv2_1"
  name: "derelu2_1"
  type: RELU
}
layers {
  bottom: "deconv2_1"
  top: "deconv2_2"
  name: "deconv2_2"
  type: DECONVOLUTION
  blobs_lr: 1
  blobs_lr: 2
  weight_decay: 1
  weight_decay: 0
  convolution_param {
    num_output: 64
    pad: 1
    kernel_size: 3
    weight_filler {
      type: "gaussian"
      std: 0.01
    }
    bias_filler {
      type: "constant"
      value: 0
    }
  }
}
layers {
  bottom: "deconv2_2"
  top: "deconv2_2"
  name: "debn2_2"
  type: BN
  bn_param {
    scale_filler {
      type: "constant"
      value: 1
    }
    shift_filler {
      type: "constant"
      value: 0.001
    }
  }
}
layers {
  bottom: "deconv2_2"
  top: "deconv2_2"
  name: "derelu2_2"
  type: RELU
}
layers {
  bottom: "deconv2_2"
  top: "unpool1"
  name: "unpool1"
  type: UNPOOLING
  unpooling_param {
    unpool: MAX
    kernel_size: 2
    stride: 2
    unpool_size: 224
  }
}
layers {
  bottom: "unpool1"
  top: "deconv1_1"
  name: "deconv1_1"
  type: DECONVOLUTION
  blobs_lr: 1
  blobs_lr: 2
  weight_decay: 1
  weight_decay: 0
  convolution_param {
    num_output: 64
    pad: 1
    kernel_size: 3
    weight_filler {
      type: "gaussian"
      std: 0.01
    }
    bias_filler {
      type: "constant"
      value: 0
    }
  }
}
layers {
  bottom: "deconv1_1"
  top: "deconv1_1"
  name: "debn1_1"
  type: BN
  bn_param {
    scale_filler {
      type: "constant"
      value: 1
    }
    shift_filler {
      type: "constant"
      value: 0.001
    }
  }
}
layers {
  bottom: "deconv1_1"
  top: "deconv1_1"
  name: "derelu1_1"
  type: RELU
}
layers {
  bottom: "deconv1_1"
  top: "deconv1_2"
  name: "deconv1_2"
  type: DECONVOLUTION
  blobs_lr: 1
  blobs_lr: 2
  weight_decay: 1
  weight_decay: 0
  convolution_param {
    num_output: 64
    pad: 1
    kernel_size: 3
    weight_filler {
      type: "gaussian"
      std: 0.01
    }
    bias_filler {
      type: "constant"
      value: 0
    }
  }
}
layers {
  bottom: "deconv1_2"
  top: "deconv1_2"
  name: "debn1_2"
  type: BN
  bn_param {
    scale_filler {
      type: "constant"
      value: 1
    }
    shift_filler {
      type: "constant"
      value: 0.001
    }
  }
}
layers {
  bottom: "deconv1_2"
  top: "deconv1_2"
  name: "derelu1_2"
  type: RELU
}
layers {
  bottom: "deconv1_2"
  top: "seg-score"
  name: "seg-score-voc"
  type: CONVOLUTION
  blobs_lr: 1
  blobs_lr: 2
  weight_decay: 1
  weight_decay: 0
  convolution_param {
    num_output: 21
    kernel_size: 1
    weight_filler {
      type: "gaussian"
      std: 0.01
    }
    bias_filler {
      type: "constant"
      value: 0
    }
  }
}
layers {
  bottom: "seg-score"
  bottom: "seg-label"
  top: "seg-accuracy"
  name: "seg-accuracy"
  type: ELTWISE_ACCURACY
  include {
    phase: TEST
  }
  eltwise_accuracy_param {
    ignore_label: 255
  }
}
layers {
  bottom: "seg-score"
  bottom: "seg-label"
  top: "seg-loss"
  name: "seg-loss"
  type: SOFTMAX_LOSS
  loss_param {
    ignore_label: 255
  }
}
state {
  phase: TEST
}
I0923 12:28:36.840435 17250 layer_factory.hpp:78] Creating layer data
I0923 12:28:36.840447 17250 net.cpp:69] Creating Layer data
I0923 12:28:36.840453 17250 net.cpp:358] data -> data
I0923 12:28:36.840461 17250 net.cpp:358] data -> seg-label
I0923 12:28:36.840468 17250 net.cpp:358] data -> (automatic)
I0923 12:28:36.840481 17250 net.cpp:98] Setting up data
I0923 12:28:36.840487 17250 image_seg_data_layer.cpp:51] Opening file ./stage_1_train_imgset/val_reduced_07.txt
I0923 12:28:36.860837 17250 image_seg_data_layer.cpp:68] Shuffling data
I0923 12:28:36.861253 17250 image_seg_data_layer.cpp:73] A total of 4992 images.
I0923 12:28:36.882686 17250 image_seg_data_layer.cpp:119] output data size: 8,3,224,224
I0923 12:28:36.882699 17250 image_seg_data_layer.cpp:123] output label size: 8,1,224,224
I0923 12:28:36.882704 17250 image_seg_data_layer.cpp:127] output data_dim size: 8,1,1,2
I0923 12:28:36.885282 17250 net.cpp:105] Top shape: 8 3 224 224 (1204224)
I0923 12:28:36.885292 17250 net.cpp:105] Top shape: 8 1 224 224 (401408)
I0923 12:28:36.885296 17250 net.cpp:105] Top shape: 8 1 1 2 (16)
I0923 12:28:36.885301 17250 layer_factory.hpp:78] Creating layer seg-label_data_1_split
I0923 12:28:36.885308 17250 net.cpp:69] Creating Layer seg-label_data_1_split
I0923 12:28:36.885313 17250 net.cpp:396] seg-label_data_1_split <- seg-label
I0923 12:28:36.885320 17250 net.cpp:358] seg-label_data_1_split -> seg-label_data_1_split_0
I0923 12:28:36.885330 17250 net.cpp:358] seg-label_data_1_split -> seg-label_data_1_split_1
I0923 12:28:36.885339 17250 net.cpp:98] Setting up seg-label_data_1_split
I0923 12:28:36.885344 17250 net.cpp:105] Top shape: 8 1 224 224 (401408)
I0923 12:28:36.885350 17250 net.cpp:105] Top shape: 8 1 224 224 (401408)
I0923 12:28:36.885355 17250 layer_factory.hpp:78] Creating layer conv1_1
I0923 12:28:36.885362 17250 net.cpp:69] Creating Layer conv1_1
I0923 12:28:36.885367 17250 net.cpp:396] conv1_1 <- data
I0923 12:28:36.885373 17250 net.cpp:358] conv1_1 -> conv1_1
I0923 12:28:36.885380 17250 net.cpp:98] Setting up conv1_1
I0923 12:28:36.885450 17250 net.cpp:105] Top shape: 8 64 224 224 (25690112)
I0923 12:28:36.885460 17250 layer_factory.hpp:78] Creating layer bn1_1
I0923 12:28:36.885468 17250 net.cpp:69] Creating Layer bn1_1
I0923 12:28:36.885474 17250 net.cpp:396] bn1_1 <- conv1_1
I0923 12:28:36.885480 17250 net.cpp:347] bn1_1 -> conv1_1 (in-place)
I0923 12:28:36.885486 17250 net.cpp:98] Setting up bn1_1
I0923 12:28:36.885601 17250 net.cpp:105] Top shape: 8 64 224 224 (25690112)
I0923 12:28:36.885609 17250 layer_factory.hpp:78] Creating layer relu1_1
I0923 12:28:36.885617 17250 net.cpp:69] Creating Layer relu1_1
I0923 12:28:36.885622 17250 net.cpp:396] relu1_1 <- conv1_1
I0923 12:28:36.885628 17250 net.cpp:347] relu1_1 -> conv1_1 (in-place)
I0923 12:28:36.885634 17250 net.cpp:98] Setting up relu1_1
I0923 12:28:36.885639 17250 net.cpp:105] Top shape: 8 64 224 224 (25690112)
I0923 12:28:36.885644 17250 layer_factory.hpp:78] Creating layer conv1_2
I0923 12:28:36.885651 17250 net.cpp:69] Creating Layer conv1_2
I0923 12:28:36.885656 17250 net.cpp:396] conv1_2 <- conv1_1
I0923 12:28:36.885663 17250 net.cpp:358] conv1_2 -> conv1_2
I0923 12:28:36.885668 17250 net.cpp:98] Setting up conv1_2
I0923 12:28:36.885772 17250 net.cpp:105] Top shape: 8 64 224 224 (25690112)
I0923 12:28:36.885782 17250 layer_factory.hpp:78] Creating layer bn1_2
I0923 12:28:36.885788 17250 net.cpp:69] Creating Layer bn1_2
I0923 12:28:36.885793 17250 net.cpp:396] bn1_2 <- conv1_2
I0923 12:28:36.885799 17250 net.cpp:347] bn1_2 -> conv1_2 (in-place)
I0923 12:28:36.885805 17250 net.cpp:98] Setting up bn1_2
I0923 12:28:36.885907 17250 net.cpp:105] Top shape: 8 64 224 224 (25690112)
I0923 12:28:36.885915 17250 layer_factory.hpp:78] Creating layer relu1_2
I0923 12:28:36.885922 17250 net.cpp:69] Creating Layer relu1_2
I0923 12:28:36.885927 17250 net.cpp:396] relu1_2 <- conv1_2
I0923 12:28:36.885932 17250 net.cpp:347] relu1_2 -> conv1_2 (in-place)
I0923 12:28:36.885938 17250 net.cpp:98] Setting up relu1_2
I0923 12:28:36.885943 17250 net.cpp:105] Top shape: 8 64 224 224 (25690112)
I0923 12:28:36.885948 17250 layer_factory.hpp:78] Creating layer pool1
I0923 12:28:36.885956 17250 net.cpp:69] Creating Layer pool1
I0923 12:28:36.885960 17250 net.cpp:396] pool1 <- conv1_2
I0923 12:28:36.885967 17250 net.cpp:358] pool1 -> pool1
I0923 12:28:36.885972 17250 net.cpp:98] Setting up pool1
I0923 12:28:36.885988 17250 net.cpp:105] Top shape: 8 64 112 112 (6422528)
I0923 12:28:36.885994 17250 layer_factory.hpp:78] Creating layer conv2_1
I0923 12:28:36.886001 17250 net.cpp:69] Creating Layer conv2_1
I0923 12:28:36.886006 17250 net.cpp:396] conv2_1 <- pool1
I0923 12:28:36.886011 17250 net.cpp:358] conv2_1 -> conv2_1
I0923 12:28:36.886018 17250 net.cpp:98] Setting up conv2_1
I0923 12:28:36.886114 17250 net.cpp:105] Top shape: 8 128 112 112 (12845056)
I0923 12:28:36.886123 17250 layer_factory.hpp:78] Creating layer bn2_1
I0923 12:28:36.886132 17250 net.cpp:69] Creating Layer bn2_1
I0923 12:28:36.886137 17250 net.cpp:396] bn2_1 <- conv2_1
I0923 12:28:36.886143 17250 net.cpp:347] bn2_1 -> conv2_1 (in-place)
I0923 12:28:36.886149 17250 net.cpp:98] Setting up bn2_1
I0923 12:28:36.886180 17250 net.cpp:105] Top shape: 8 128 112 112 (12845056)
I0923 12:28:36.886188 17250 layer_factory.hpp:78] Creating layer relu2_1
I0923 12:28:36.886193 17250 net.cpp:69] Creating Layer relu2_1
I0923 12:28:36.886198 17250 net.cpp:396] relu2_1 <- conv2_1
I0923 12:28:36.886204 17250 net.cpp:347] relu2_1 -> conv2_1 (in-place)
I0923 12:28:36.886210 17250 net.cpp:98] Setting up relu2_1
I0923 12:28:36.886215 17250 net.cpp:105] Top shape: 8 128 112 112 (12845056)
I0923 12:28:36.886219 17250 layer_factory.hpp:78] Creating layer conv2_2
I0923 12:28:36.886226 17250 net.cpp:69] Creating Layer conv2_2
I0923 12:28:36.886231 17250 net.cpp:396] conv2_2 <- conv2_1
I0923 12:28:36.886237 17250 net.cpp:358] conv2_2 -> conv2_2
I0923 12:28:36.886245 17250 net.cpp:98] Setting up conv2_2
I0923 12:28:36.886411 17250 net.cpp:105] Top shape: 8 128 112 112 (12845056)
I0923 12:28:36.886420 17250 layer_factory.hpp:78] Creating layer bn2_2
I0923 12:28:36.886427 17250 net.cpp:69] Creating Layer bn2_2
I0923 12:28:36.886432 17250 net.cpp:396] bn2_2 <- conv2_2
I0923 12:28:36.886438 17250 net.cpp:347] bn2_2 -> conv2_2 (in-place)
I0923 12:28:36.886445 17250 net.cpp:98] Setting up bn2_2
I0923 12:28:36.886476 17250 net.cpp:105] Top shape: 8 128 112 112 (12845056)
I0923 12:28:36.886484 17250 layer_factory.hpp:78] Creating layer relu2_2
I0923 12:28:36.886489 17250 net.cpp:69] Creating Layer relu2_2
I0923 12:28:36.886494 17250 net.cpp:396] relu2_2 <- conv2_2
I0923 12:28:36.886500 17250 net.cpp:347] relu2_2 -> conv2_2 (in-place)
I0923 12:28:36.886507 17250 net.cpp:98] Setting up relu2_2
I0923 12:28:36.886512 17250 net.cpp:105] Top shape: 8 128 112 112 (12845056)
I0923 12:28:36.886515 17250 layer_factory.hpp:78] Creating layer pool2
I0923 12:28:36.886523 17250 net.cpp:69] Creating Layer pool2
I0923 12:28:36.886528 17250 net.cpp:396] pool2 <- conv2_2
I0923 12:28:36.886533 17250 net.cpp:358] pool2 -> pool2
I0923 12:28:36.886539 17250 net.cpp:98] Setting up pool2
I0923 12:28:36.886545 17250 net.cpp:105] Top shape: 8 128 56 56 (3211264)
I0923 12:28:36.886549 17250 layer_factory.hpp:78] Creating layer conv3_1
I0923 12:28:36.886556 17250 net.cpp:69] Creating Layer conv3_1
I0923 12:28:36.886561 17250 net.cpp:396] conv3_1 <- pool2
I0923 12:28:36.886567 17250 net.cpp:358] conv3_1 -> conv3_1
I0923 12:28:36.886574 17250 net.cpp:98] Setting up conv3_1
I0923 12:28:36.886883 17250 net.cpp:105] Top shape: 8 256 56 56 (6422528)
I0923 12:28:36.886893 17250 layer_factory.hpp:78] Creating layer bn3_1
I0923 12:28:36.886900 17250 net.cpp:69] Creating Layer bn3_1
I0923 12:28:36.886905 17250 net.cpp:396] bn3_1 <- conv3_1
I0923 12:28:36.886911 17250 net.cpp:347] bn3_1 -> conv3_1 (in-place)
I0923 12:28:36.886919 17250 net.cpp:98] Setting up bn3_1
I0923 12:28:36.886936 17250 net.cpp:105] Top shape: 8 256 56 56 (6422528)
I0923 12:28:36.886942 17250 layer_factory.hpp:78] Creating layer relu3_1
I0923 12:28:36.886948 17250 net.cpp:69] Creating Layer relu3_1
I0923 12:28:36.886953 17250 net.cpp:396] relu3_1 <- conv3_1
I0923 12:28:36.886958 17250 net.cpp:347] relu3_1 -> conv3_1 (in-place)
I0923 12:28:36.886965 17250 net.cpp:98] Setting up relu3_1
I0923 12:28:36.886970 17250 net.cpp:105] Top shape: 8 256 56 56 (6422528)
I0923 12:28:36.886975 17250 layer_factory.hpp:78] Creating layer conv3_2
I0923 12:28:36.886986 17250 net.cpp:69] Creating Layer conv3_2
I0923 12:28:36.886991 17250 net.cpp:396] conv3_2 <- conv3_1
I0923 12:28:36.886997 17250 net.cpp:358] conv3_2 -> conv3_2
I0923 12:28:36.887003 17250 net.cpp:98] Setting up conv3_2
I0923 12:28:36.887609 17250 net.cpp:105] Top shape: 8 256 56 56 (6422528)
I0923 12:28:36.887617 17250 layer_factory.hpp:78] Creating layer bn3_2
I0923 12:28:36.887624 17250 net.cpp:69] Creating Layer bn3_2
I0923 12:28:36.887629 17250 net.cpp:396] bn3_2 <- conv3_2
I0923 12:28:36.887634 17250 net.cpp:347] bn3_2 -> conv3_2 (in-place)
I0923 12:28:36.887639 17250 net.cpp:98] Setting up bn3_2
I0923 12:28:36.887652 17250 net.cpp:105] Top shape: 8 256 56 56 (6422528)
I0923 12:28:36.887658 17250 layer_factory.hpp:78] Creating layer relu3_2
I0923 12:28:36.887665 17250 net.cpp:69] Creating Layer relu3_2
I0923 12:28:36.887668 17250 net.cpp:396] relu3_2 <- conv3_2
I0923 12:28:36.887673 17250 net.cpp:347] relu3_2 -> conv3_2 (in-place)
I0923 12:28:36.887680 17250 net.cpp:98] Setting up relu3_2
I0923 12:28:36.887683 17250 net.cpp:105] Top shape: 8 256 56 56 (6422528)
I0923 12:28:36.887688 17250 layer_factory.hpp:78] Creating layer conv3_3
I0923 12:28:36.887696 17250 net.cpp:69] Creating Layer conv3_3
I0923 12:28:36.887699 17250 net.cpp:396] conv3_3 <- conv3_2
I0923 12:28:36.887704 17250 net.cpp:358] conv3_3 -> conv3_3
I0923 12:28:36.887709 17250 net.cpp:98] Setting up conv3_3
I0923 12:28:36.888336 17250 net.cpp:105] Top shape: 8 256 56 56 (6422528)
I0923 12:28:36.888346 17250 layer_factory.hpp:78] Creating layer bn3_3
I0923 12:28:36.888353 17250 net.cpp:69] Creating Layer bn3_3
I0923 12:28:36.888357 17250 net.cpp:396] bn3_3 <- conv3_3
I0923 12:28:36.888363 17250 net.cpp:347] bn3_3 -> conv3_3 (in-place)
I0923 12:28:36.888370 17250 net.cpp:98] Setting up bn3_3
I0923 12:28:36.888382 17250 net.cpp:105] Top shape: 8 256 56 56 (6422528)
I0923 12:28:36.888389 17250 layer_factory.hpp:78] Creating layer relu3_3
I0923 12:28:36.888394 17250 net.cpp:69] Creating Layer relu3_3
I0923 12:28:36.888399 17250 net.cpp:396] relu3_3 <- conv3_3
I0923 12:28:36.888411 17250 net.cpp:347] relu3_3 -> conv3_3 (in-place)
I0923 12:28:36.888417 17250 net.cpp:98] Setting up relu3_3
I0923 12:28:36.888422 17250 net.cpp:105] Top shape: 8 256 56 56 (6422528)
I0923 12:28:36.888427 17250 layer_factory.hpp:78] Creating layer pool3
I0923 12:28:36.888432 17250 net.cpp:69] Creating Layer pool3
I0923 12:28:36.888437 17250 net.cpp:396] pool3 <- conv3_3
I0923 12:28:36.888442 17250 net.cpp:358] pool3 -> pool3
I0923 12:28:36.888449 17250 net.cpp:98] Setting up pool3
I0923 12:28:36.888454 17250 net.cpp:105] Top shape: 8 256 28 28 (1605632)
I0923 12:28:36.888459 17250 layer_factory.hpp:78] Creating layer conv4_1
I0923 12:28:36.888465 17250 net.cpp:69] Creating Layer conv4_1
I0923 12:28:36.888469 17250 net.cpp:396] conv4_1 <- pool3
I0923 12:28:36.888475 17250 net.cpp:358] conv4_1 -> conv4_1
I0923 12:28:36.888481 17250 net.cpp:98] Setting up conv4_1
I0923 12:28:36.891381 17250 net.cpp:105] Top shape: 8 512 28 28 (3211264)
I0923 12:28:36.891396 17250 layer_factory.hpp:78] Creating layer bn4_1
I0923 12:28:36.891404 17250 net.cpp:69] Creating Layer bn4_1
I0923 12:28:36.891410 17250 net.cpp:396] bn4_1 <- conv4_1
I0923 12:28:36.891417 17250 net.cpp:347] bn4_1 -> conv4_1 (in-place)
I0923 12:28:36.891422 17250 net.cpp:98] Setting up bn4_1
I0923 12:28:36.891434 17250 net.cpp:105] Top shape: 8 512 28 28 (3211264)
I0923 12:28:36.891441 17250 layer_factory.hpp:78] Creating layer relu4_1
I0923 12:28:36.891449 17250 net.cpp:69] Creating Layer relu4_1
I0923 12:28:36.891454 17250 net.cpp:396] relu4_1 <- conv4_1
I0923 12:28:36.891459 17250 net.cpp:347] relu4_1 -> conv4_1 (in-place)
I0923 12:28:36.891464 17250 net.cpp:98] Setting up relu4_1
I0923 12:28:36.891471 17250 net.cpp:105] Top shape: 8 512 28 28 (3211264)
I0923 12:28:36.891476 17250 layer_factory.hpp:78] Creating layer conv4_2
I0923 12:28:36.891482 17250 net.cpp:69] Creating Layer conv4_2
I0923 12:28:36.891487 17250 net.cpp:396] conv4_2 <- conv4_1
I0923 12:28:36.891494 17250 net.cpp:358] conv4_2 -> conv4_2
I0923 12:28:36.891510 17250 net.cpp:98] Setting up conv4_2
I0923 12:28:36.901067 17250 net.cpp:105] Top shape: 8 512 28 28 (3211264)
I0923 12:28:36.901088 17250 layer_factory.hpp:78] Creating layer bn4_2
I0923 12:28:36.901096 17250 net.cpp:69] Creating Layer bn4_2
I0923 12:28:36.901103 17250 net.cpp:396] bn4_2 <- conv4_2
I0923 12:28:36.901109 17250 net.cpp:347] bn4_2 -> conv4_2 (in-place)
I0923 12:28:36.901116 17250 net.cpp:98] Setting up bn4_2
I0923 12:28:36.901130 17250 net.cpp:105] Top shape: 8 512 28 28 (3211264)
I0923 12:28:36.901137 17250 layer_factory.hpp:78] Creating layer relu4_2
I0923 12:28:36.901144 17250 net.cpp:69] Creating Layer relu4_2
I0923 12:28:36.901149 17250 net.cpp:396] relu4_2 <- conv4_2
I0923 12:28:36.901156 17250 net.cpp:347] relu4_2 -> conv4_2 (in-place)
I0923 12:28:36.901162 17250 net.cpp:98] Setting up relu4_2
I0923 12:28:36.901168 17250 net.cpp:105] Top shape: 8 512 28 28 (3211264)
I0923 12:28:36.901173 17250 layer_factory.hpp:78] Creating layer conv4_3
I0923 12:28:36.901181 17250 net.cpp:69] Creating Layer conv4_3
I0923 12:28:36.901186 17250 net.cpp:396] conv4_3 <- conv4_2
I0923 12:28:36.901191 17250 net.cpp:358] conv4_3 -> conv4_3
I0923 12:28:36.901198 17250 net.cpp:98] Setting up conv4_3
I0923 12:28:36.909616 17250 net.cpp:105] Top shape: 8 512 28 28 (3211264)
I0923 12:28:36.909642 17250 layer_factory.hpp:78] Creating layer bn4_3
I0923 12:28:36.909657 17250 net.cpp:69] Creating Layer bn4_3
I0923 12:28:36.909664 17250 net.cpp:396] bn4_3 <- conv4_3
I0923 12:28:36.909674 17250 net.cpp:347] bn4_3 -> conv4_3 (in-place)
I0923 12:28:36.909687 17250 net.cpp:98] Setting up bn4_3
I0923 12:28:36.909704 17250 net.cpp:105] Top shape: 8 512 28 28 (3211264)
I0923 12:28:36.909715 17250 layer_factory.hpp:78] Creating layer relu4_3
I0923 12:28:36.909724 17250 net.cpp:69] Creating Layer relu4_3
I0923 12:28:36.909730 17250 net.cpp:396] relu4_3 <- conv4_3
I0923 12:28:36.909740 17250 net.cpp:347] relu4_3 -> conv4_3 (in-place)
I0923 12:28:36.909750 17250 net.cpp:98] Setting up relu4_3
I0923 12:28:36.909759 17250 net.cpp:105] Top shape: 8 512 28 28 (3211264)
I0923 12:28:36.909766 17250 layer_factory.hpp:78] Creating layer pool4
I0923 12:28:36.909775 17250 net.cpp:69] Creating Layer pool4
I0923 12:28:36.909782 17250 net.cpp:396] pool4 <- conv4_3
I0923 12:28:36.909791 17250 net.cpp:358] pool4 -> pool4
I0923 12:28:36.909801 17250 net.cpp:98] Setting up pool4
I0923 12:28:36.909811 17250 net.cpp:105] Top shape: 8 512 14 14 (802816)
I0923 12:28:36.909818 17250 layer_factory.hpp:78] Creating layer conv5_1
I0923 12:28:36.909828 17250 net.cpp:69] Creating Layer conv5_1
I0923 12:28:36.909836 17250 net.cpp:396] conv5_1 <- pool4
I0923 12:28:36.909845 17250 net.cpp:358] conv5_1 -> conv5_1
I0923 12:28:36.909855 17250 net.cpp:98] Setting up conv5_1
I0923 12:28:36.917158 17250 net.cpp:105] Top shape: 8 512 14 14 (802816)
I0923 12:28:36.917178 17250 layer_factory.hpp:78] Creating layer bn5_1
I0923 12:28:36.917187 17250 net.cpp:69] Creating Layer bn5_1
I0923 12:28:36.917193 17250 net.cpp:396] bn5_1 <- conv5_1
I0923 12:28:36.917202 17250 net.cpp:347] bn5_1 -> conv5_1 (in-place)
I0923 12:28:36.917210 17250 net.cpp:98] Setting up bn5_1
I0923 12:28:36.917222 17250 net.cpp:105] Top shape: 8 512 14 14 (802816)
I0923 12:28:36.917227 17250 layer_factory.hpp:78] Creating layer relu5_1
I0923 12:28:36.917234 17250 net.cpp:69] Creating Layer relu5_1
I0923 12:28:36.917239 17250 net.cpp:396] relu5_1 <- conv5_1
I0923 12:28:36.917245 17250 net.cpp:347] relu5_1 -> conv5_1 (in-place)
I0923 12:28:36.917251 17250 net.cpp:98] Setting up relu5_1
I0923 12:28:36.917258 17250 net.cpp:105] Top shape: 8 512 14 14 (802816)
I0923 12:28:36.917263 17250 layer_factory.hpp:78] Creating layer conv5_2
I0923 12:28:36.917268 17250 net.cpp:69] Creating Layer conv5_2
I0923 12:28:36.917274 17250 net.cpp:396] conv5_2 <- conv5_1
I0923 12:28:36.917279 17250 net.cpp:358] conv5_2 -> conv5_2
I0923 12:28:36.917286 17250 net.cpp:98] Setting up conv5_2
I0923 12:28:36.925277 17250 net.cpp:105] Top shape: 8 512 14 14 (802816)
I0923 12:28:36.925297 17250 layer_factory.hpp:78] Creating layer bn5_2
I0923 12:28:36.925314 17250 net.cpp:69] Creating Layer bn5_2
I0923 12:28:36.925320 17250 net.cpp:396] bn5_2 <- conv5_2
I0923 12:28:36.925326 17250 net.cpp:347] bn5_2 -> conv5_2 (in-place)
I0923 12:28:36.925333 17250 net.cpp:98] Setting up bn5_2
I0923 12:28:36.925348 17250 net.cpp:105] Top shape: 8 512 14 14 (802816)
I0923 12:28:36.925355 17250 layer_factory.hpp:78] Creating layer relu5_2
I0923 12:28:36.925361 17250 net.cpp:69] Creating Layer relu5_2
I0923 12:28:36.925365 17250 net.cpp:396] relu5_2 <- conv5_2
I0923 12:28:36.925370 17250 net.cpp:347] relu5_2 -> conv5_2 (in-place)
I0923 12:28:36.925376 17250 net.cpp:98] Setting up relu5_2
I0923 12:28:36.925381 17250 net.cpp:105] Top shape: 8 512 14 14 (802816)
I0923 12:28:36.925386 17250 layer_factory.hpp:78] Creating layer conv5_3
I0923 12:28:36.925392 17250 net.cpp:69] Creating Layer conv5_3
I0923 12:28:36.925400 17250 net.cpp:396] conv5_3 <- conv5_2
I0923 12:28:36.925406 17250 net.cpp:358] conv5_3 -> conv5_3
I0923 12:28:36.925413 17250 net.cpp:98] Setting up conv5_3
I0923 12:28:36.932111 17250 net.cpp:105] Top shape: 8 512 14 14 (802816)
I0923 12:28:36.932128 17250 layer_factory.hpp:78] Creating layer bn5_3
I0923 12:28:36.932137 17250 net.cpp:69] Creating Layer bn5_3
I0923 12:28:36.932143 17250 net.cpp:396] bn5_3 <- conv5_3
I0923 12:28:36.932149 17250 net.cpp:347] bn5_3 -> conv5_3 (in-place)
I0923 12:28:36.932157 17250 net.cpp:98] Setting up bn5_3
I0923 12:28:36.932170 17250 net.cpp:105] Top shape: 8 512 14 14 (802816)
I0923 12:28:36.932178 17250 layer_factory.hpp:78] Creating layer relu5_3
I0923 12:28:36.932183 17250 net.cpp:69] Creating Layer relu5_3
I0923 12:28:36.932188 17250 net.cpp:396] relu5_3 <- conv5_3
I0923 12:28:36.932193 17250 net.cpp:347] relu5_3 -> conv5_3 (in-place)
I0923 12:28:36.932199 17250 net.cpp:98] Setting up relu5_3
I0923 12:28:36.932204 17250 net.cpp:105] Top shape: 8 512 14 14 (802816)
I0923 12:28:36.932209 17250 layer_factory.hpp:78] Creating layer pool5
I0923 12:28:36.932215 17250 net.cpp:69] Creating Layer pool5
I0923 12:28:36.932220 17250 net.cpp:396] pool5 <- conv5_3
I0923 12:28:36.932226 17250 net.cpp:358] pool5 -> pool5
I0923 12:28:36.932232 17250 net.cpp:98] Setting up pool5
I0923 12:28:36.932240 17250 net.cpp:105] Top shape: 8 512 7 7 (200704)
I0923 12:28:36.932250 17250 layer_factory.hpp:78] Creating layer fc6
I0923 12:28:36.932256 17250 net.cpp:69] Creating Layer fc6
I0923 12:28:36.932261 17250 net.cpp:396] fc6 <- pool5
I0923 12:28:36.932268 17250 net.cpp:358] fc6 -> fc6
I0923 12:28:36.932274 17250 net.cpp:98] Setting up fc6
I0923 12:28:37.262367 17250 net.cpp:105] Top shape: 8 4096 1 1 (32768)
I0923 12:28:37.262405 17250 layer_factory.hpp:78] Creating layer bnfc6
I0923 12:28:37.262416 17250 net.cpp:69] Creating Layer bnfc6
I0923 12:28:37.262423 17250 net.cpp:396] bnfc6 <- fc6
I0923 12:28:37.262431 17250 net.cpp:347] bnfc6 -> fc6 (in-place)
I0923 12:28:37.262439 17250 net.cpp:98] Setting up bnfc6
I0923 12:28:37.262454 17250 net.cpp:105] Top shape: 8 4096 1 1 (32768)
I0923 12:28:37.262462 17250 layer_factory.hpp:78] Creating layer relu6
I0923 12:28:37.262470 17250 net.cpp:69] Creating Layer relu6
I0923 12:28:37.262475 17250 net.cpp:396] relu6 <- fc6
I0923 12:28:37.262480 17250 net.cpp:347] relu6 -> fc6 (in-place)
I0923 12:28:37.262486 17250 net.cpp:98] Setting up relu6
I0923 12:28:37.262492 17250 net.cpp:105] Top shape: 8 4096 1 1 (32768)
I0923 12:28:37.262496 17250 layer_factory.hpp:78] Creating layer fc7
I0923 12:28:37.262503 17250 net.cpp:69] Creating Layer fc7
I0923 12:28:37.262508 17250 net.cpp:396] fc7 <- fc6
I0923 12:28:37.262514 17250 net.cpp:358] fc7 -> fc7
I0923 12:28:37.262521 17250 net.cpp:98] Setting up fc7
I0923 12:28:37.316217 17250 net.cpp:105] Top shape: 8 4096 1 1 (32768)
I0923 12:28:37.316256 17250 layer_factory.hpp:78] Creating layer bnfc7
I0923 12:28:37.316267 17250 net.cpp:69] Creating Layer bnfc7
I0923 12:28:37.316274 17250 net.cpp:396] bnfc7 <- fc7
I0923 12:28:37.316282 17250 net.cpp:347] bnfc7 -> fc7 (in-place)
I0923 12:28:37.316290 17250 net.cpp:98] Setting up bnfc7
I0923 12:28:37.316313 17250 net.cpp:105] Top shape: 8 4096 1 1 (32768)
I0923 12:28:37.316337 17250 layer_factory.hpp:78] Creating layer relu7
I0923 12:28:37.316345 17250 net.cpp:69] Creating Layer relu7
I0923 12:28:37.316349 17250 net.cpp:396] relu7 <- fc7
I0923 12:28:37.316354 17250 net.cpp:347] relu7 -> fc7 (in-place)
I0923 12:28:37.316360 17250 net.cpp:98] Setting up relu7
I0923 12:28:37.316370 17250 net.cpp:105] Top shape: 8 4096 1 1 (32768)
I0923 12:28:37.316375 17250 layer_factory.hpp:78] Creating layer fc6-deconv
I0923 12:28:37.316382 17250 net.cpp:69] Creating Layer fc6-deconv
I0923 12:28:37.316387 17250 net.cpp:396] fc6-deconv <- fc7
I0923 12:28:37.316395 17250 net.cpp:358] fc6-deconv -> fc6-deconv
I0923 12:28:37.316401 17250 net.cpp:98] Setting up fc6-deconv
I0923 12:28:39.571452 17250 net.cpp:105] Top shape: 8 512 7 7 (200704)
I0923 12:28:39.571478 17250 layer_factory.hpp:78] Creating layer fc6-deconv-bn
I0923 12:28:39.571491 17250 net.cpp:69] Creating Layer fc6-deconv-bn
I0923 12:28:39.571496 17250 net.cpp:396] fc6-deconv-bn <- fc6-deconv
I0923 12:28:39.571504 17250 net.cpp:347] fc6-deconv-bn -> fc6-deconv (in-place)
I0923 12:28:39.571513 17250 net.cpp:98] Setting up fc6-deconv-bn
I0923 12:28:39.571527 17250 net.cpp:105] Top shape: 8 512 7 7 (200704)
I0923 12:28:39.571532 17250 layer_factory.hpp:78] Creating layer fc6-deconv-relu
I0923 12:28:39.571539 17250 net.cpp:69] Creating Layer fc6-deconv-relu
I0923 12:28:39.571544 17250 net.cpp:396] fc6-deconv-relu <- fc6-deconv
I0923 12:28:39.571549 17250 net.cpp:347] fc6-deconv-relu -> fc6-deconv (in-place)
I0923 12:28:39.571555 17250 net.cpp:98] Setting up fc6-deconv-relu
I0923 12:28:39.571560 17250 net.cpp:105] Top shape: 8 512 7 7 (200704)
I0923 12:28:39.571564 17250 layer_factory.hpp:78] Creating layer unpool5
I0923 12:28:39.571570 17250 net.cpp:69] Creating Layer unpool5
I0923 12:28:39.571575 17250 net.cpp:396] unpool5 <- fc6-deconv
I0923 12:28:39.571583 17250 net.cpp:358] unpool5 -> unpool5
I0923 12:28:39.571588 17250 net.cpp:98] Setting up unpool5
I0923 12:28:39.571594 17250 net.cpp:105] Top shape: 8 512 14 14 (802816)
I0923 12:28:39.571599 17250 layer_factory.hpp:78] Creating layer deconv5_1
I0923 12:28:39.571607 17250 net.cpp:69] Creating Layer deconv5_1
I0923 12:28:39.571612 17250 net.cpp:396] deconv5_1 <- unpool5
I0923 12:28:39.571619 17250 net.cpp:358] deconv5_1 -> deconv5_1
I0923 12:28:39.571625 17250 net.cpp:98] Setting up deconv5_1
I0923 12:28:39.624501 17250 net.cpp:105] Top shape: 8 512 14 14 (802816)
I0923 12:28:39.624531 17250 layer_factory.hpp:78] Creating layer debn5_1
I0923 12:28:39.624541 17250 net.cpp:69] Creating Layer debn5_1
I0923 12:28:39.624547 17250 net.cpp:396] debn5_1 <- deconv5_1
I0923 12:28:39.624555 17250 net.cpp:347] debn5_1 -> deconv5_1 (in-place)
I0923 12:28:39.624563 17250 net.cpp:98] Setting up debn5_1
I0923 12:28:39.624574 17250 net.cpp:105] Top shape: 8 512 14 14 (802816)
I0923 12:28:39.624580 17250 layer_factory.hpp:78] Creating layer derelu5_1
I0923 12:28:39.624588 17250 net.cpp:69] Creating Layer derelu5_1
I0923 12:28:39.624593 17250 net.cpp:396] derelu5_1 <- deconv5_1
I0923 12:28:39.624601 17250 net.cpp:347] derelu5_1 -> deconv5_1 (in-place)
I0923 12:28:39.624608 17250 net.cpp:98] Setting up derelu5_1
I0923 12:28:39.624611 17250 net.cpp:105] Top shape: 8 512 14 14 (802816)
I0923 12:28:39.624616 17250 layer_factory.hpp:78] Creating layer deconv5_2
I0923 12:28:39.624622 17250 net.cpp:69] Creating Layer deconv5_2
I0923 12:28:39.624627 17250 net.cpp:396] deconv5_2 <- deconv5_1
I0923 12:28:39.624632 17250 net.cpp:358] deconv5_2 -> deconv5_2
I0923 12:28:39.624639 17250 net.cpp:98] Setting up deconv5_2
I0923 12:28:39.674783 17250 net.cpp:105] Top shape: 8 512 14 14 (802816)
I0923 12:28:39.674806 17250 layer_factory.hpp:78] Creating layer debn5_2
I0923 12:28:39.674816 17250 net.cpp:69] Creating Layer debn5_2
I0923 12:28:39.674823 17250 net.cpp:396] debn5_2 <- deconv5_2
I0923 12:28:39.674831 17250 net.cpp:347] debn5_2 -> deconv5_2 (in-place)
I0923 12:28:39.674839 17250 net.cpp:98] Setting up debn5_2
I0923 12:28:39.674850 17250 net.cpp:105] Top shape: 8 512 14 14 (802816)
I0923 12:28:39.674867 17250 layer_factory.hpp:78] Creating layer derelu5_2
I0923 12:28:39.674873 17250 net.cpp:69] Creating Layer derelu5_2
I0923 12:28:39.674877 17250 net.cpp:396] derelu5_2 <- deconv5_2
I0923 12:28:39.674885 17250 net.cpp:347] derelu5_2 -> deconv5_2 (in-place)
I0923 12:28:39.674890 17250 net.cpp:98] Setting up derelu5_2
I0923 12:28:39.674897 17250 net.cpp:105] Top shape: 8 512 14 14 (802816)
I0923 12:28:39.674903 17250 layer_factory.hpp:78] Creating layer deconv5_3
I0923 12:28:39.674911 17250 net.cpp:69] Creating Layer deconv5_3
I0923 12:28:39.674916 17250 net.cpp:396] deconv5_3 <- deconv5_2
I0923 12:28:39.674921 17250 net.cpp:358] deconv5_3 -> deconv5_3
I0923 12:28:39.674927 17250 net.cpp:98] Setting up deconv5_3
I0923 12:28:39.726563 17250 net.cpp:105] Top shape: 8 512 14 14 (802816)
I0923 12:28:39.726588 17250 layer_factory.hpp:78] Creating layer debn5_3
I0923 12:28:39.726598 17250 net.cpp:69] Creating Layer debn5_3
I0923 12:28:39.726603 17250 net.cpp:396] debn5_3 <- deconv5_3
I0923 12:28:39.726611 17250 net.cpp:347] debn5_3 -> deconv5_3 (in-place)
I0923 12:28:39.726619 17250 net.cpp:98] Setting up debn5_3
I0923 12:28:39.726630 17250 net.cpp:105] Top shape: 8 512 14 14 (802816)
I0923 12:28:39.726636 17250 layer_factory.hpp:78] Creating layer derelu5_3
I0923 12:28:39.726649 17250 net.cpp:69] Creating Layer derelu5_3
I0923 12:28:39.726654 17250 net.cpp:396] derelu5_3 <- deconv5_3
I0923 12:28:39.726658 17250 net.cpp:347] derelu5_3 -> deconv5_3 (in-place)
I0923 12:28:39.726665 17250 net.cpp:98] Setting up derelu5_3
I0923 12:28:39.726670 17250 net.cpp:105] Top shape: 8 512 14 14 (802816)
I0923 12:28:39.726675 17250 layer_factory.hpp:78] Creating layer unpool4
I0923 12:28:39.726682 17250 net.cpp:69] Creating Layer unpool4
I0923 12:28:39.726686 17250 net.cpp:396] unpool4 <- deconv5_3
I0923 12:28:39.726692 17250 net.cpp:358] unpool4 -> unpool4
I0923 12:28:39.726698 17250 net.cpp:98] Setting up unpool4
I0923 12:28:39.726704 17250 net.cpp:105] Top shape: 8 512 28 28 (3211264)
I0923 12:28:39.726708 17250 layer_factory.hpp:78] Creating layer deconv4_1
I0923 12:28:39.726716 17250 net.cpp:69] Creating Layer deconv4_1
I0923 12:28:39.726722 17250 net.cpp:396] deconv4_1 <- unpool4
I0923 12:28:39.726727 17250 net.cpp:358] deconv4_1 -> deconv4_1
I0923 12:28:39.726733 17250 net.cpp:98] Setting up deconv4_1
I0923 12:28:39.777829 17250 net.cpp:105] Top shape: 8 512 28 28 (3211264)
I0923 12:28:39.777851 17250 layer_factory.hpp:78] Creating layer debn4_1
I0923 12:28:39.777863 17250 net.cpp:69] Creating Layer debn4_1
I0923 12:28:39.777869 17250 net.cpp:396] debn4_1 <- deconv4_1
I0923 12:28:39.777878 17250 net.cpp:347] debn4_1 -> deconv4_1 (in-place)
I0923 12:28:39.777884 17250 net.cpp:98] Setting up debn4_1
I0923 12:28:39.777899 17250 net.cpp:105] Top shape: 8 512 28 28 (3211264)
I0923 12:28:39.777905 17250 layer_factory.hpp:78] Creating layer derelu4_1
I0923 12:28:39.777910 17250 net.cpp:69] Creating Layer derelu4_1
I0923 12:28:39.777915 17250 net.cpp:396] derelu4_1 <- deconv4_1
I0923 12:28:39.777920 17250 net.cpp:347] derelu4_1 -> deconv4_1 (in-place)
I0923 12:28:39.777925 17250 net.cpp:98] Setting up derelu4_1
I0923 12:28:39.777930 17250 net.cpp:105] Top shape: 8 512 28 28 (3211264)
I0923 12:28:39.777935 17250 layer_factory.hpp:78] Creating layer deconv4_2
I0923 12:28:39.777940 17250 net.cpp:69] Creating Layer deconv4_2
I0923 12:28:39.777946 17250 net.cpp:396] deconv4_2 <- deconv4_1
I0923 12:28:39.777956 17250 net.cpp:358] deconv4_2 -> deconv4_2
I0923 12:28:39.777966 17250 net.cpp:98] Setting up deconv4_2
I0923 12:28:39.828728 17250 net.cpp:105] Top shape: 8 512 28 28 (3211264)
I0923 12:28:39.828750 17250 layer_factory.hpp:78] Creating layer debn4_2
I0923 12:28:39.828761 17250 net.cpp:69] Creating Layer debn4_2
I0923 12:28:39.828768 17250 net.cpp:396] debn4_2 <- deconv4_2
I0923 12:28:39.828774 17250 net.cpp:347] debn4_2 -> deconv4_2 (in-place)
I0923 12:28:39.828783 17250 net.cpp:98] Setting up debn4_2
I0923 12:28:39.828797 17250 net.cpp:105] Top shape: 8 512 28 28 (3211264)
I0923 12:28:39.828804 17250 layer_factory.hpp:78] Creating layer derelu4_2
I0923 12:28:39.828820 17250 net.cpp:69] Creating Layer derelu4_2
I0923 12:28:39.828825 17250 net.cpp:396] derelu4_2 <- deconv4_2
I0923 12:28:39.828830 17250 net.cpp:347] derelu4_2 -> deconv4_2 (in-place)
I0923 12:28:39.828835 17250 net.cpp:98] Setting up derelu4_2
I0923 12:28:39.828842 17250 net.cpp:105] Top shape: 8 512 28 28 (3211264)
I0923 12:28:39.828848 17250 layer_factory.hpp:78] Creating layer deconv4_3
I0923 12:28:39.828856 17250 net.cpp:69] Creating Layer deconv4_3
I0923 12:28:39.828861 17250 net.cpp:396] deconv4_3 <- deconv4_2
I0923 12:28:39.828867 17250 net.cpp:358] deconv4_3 -> deconv4_3
I0923 12:28:39.828874 17250 net.cpp:98] Setting up deconv4_3
I0923 12:28:39.853773 17250 net.cpp:105] Top shape: 8 256 28 28 (1605632)
I0923 12:28:39.853790 17250 layer_factory.hpp:78] Creating layer debn4_3
I0923 12:28:39.853797 17250 net.cpp:69] Creating Layer debn4_3
I0923 12:28:39.853801 17250 net.cpp:396] debn4_3 <- deconv4_3
I0923 12:28:39.853807 17250 net.cpp:347] debn4_3 -> deconv4_3 (in-place)
I0923 12:28:39.853813 17250 net.cpp:98] Setting up debn4_3
I0923 12:28:39.853831 17250 net.cpp:105] Top shape: 8 256 28 28 (1605632)
I0923 12:28:39.853837 17250 layer_factory.hpp:78] Creating layer derelu4_3
I0923 12:28:39.853843 17250 net.cpp:69] Creating Layer derelu4_3
I0923 12:28:39.853847 17250 net.cpp:396] derelu4_3 <- deconv4_3
I0923 12:28:39.853852 17250 net.cpp:347] derelu4_3 -> deconv4_3 (in-place)
I0923 12:28:39.853857 17250 net.cpp:98] Setting up derelu4_3
I0923 12:28:39.853863 17250 net.cpp:105] Top shape: 8 256 28 28 (1605632)
I0923 12:28:39.853870 17250 layer_factory.hpp:78] Creating layer unpool3
I0923 12:28:39.853878 17250 net.cpp:69] Creating Layer unpool3
I0923 12:28:39.853883 17250 net.cpp:396] unpool3 <- deconv4_3
I0923 12:28:39.853888 17250 net.cpp:358] unpool3 -> unpool3
I0923 12:28:39.853894 17250 net.cpp:98] Setting up unpool3
I0923 12:28:39.853900 17250 net.cpp:105] Top shape: 8 256 56 56 (6422528)
I0923 12:28:39.853905 17250 layer_factory.hpp:78] Creating layer deconv3_1
I0923 12:28:39.853911 17250 net.cpp:69] Creating Layer deconv3_1
I0923 12:28:39.853916 17250 net.cpp:396] deconv3_1 <- unpool3
I0923 12:28:39.853922 17250 net.cpp:358] deconv3_1 -> deconv3_1
I0923 12:28:39.853929 17250 net.cpp:98] Setting up deconv3_1
I0923 12:28:39.865617 17250 net.cpp:105] Top shape: 8 256 56 56 (6422528)
I0923 12:28:39.865627 17250 layer_factory.hpp:78] Creating layer debn3_1
I0923 12:28:39.865633 17250 net.cpp:69] Creating Layer debn3_1
I0923 12:28:39.865638 17250 net.cpp:396] debn3_1 <- deconv3_1
I0923 12:28:39.865644 17250 net.cpp:347] debn3_1 -> deconv3_1 (in-place)
I0923 12:28:39.865650 17250 net.cpp:98] Setting up debn3_1
I0923 12:28:39.865664 17250 net.cpp:105] Top shape: 8 256 56 56 (6422528)
I0923 12:28:39.865670 17250 layer_factory.hpp:78] Creating layer derelu3_1
I0923 12:28:39.865676 17250 net.cpp:69] Creating Layer derelu3_1
I0923 12:28:39.865680 17250 net.cpp:396] derelu3_1 <- deconv3_1
I0923 12:28:39.865685 17250 net.cpp:347] derelu3_1 -> deconv3_1 (in-place)
I0923 12:28:39.865690 17250 net.cpp:98] Setting up derelu3_1
I0923 12:28:39.865695 17250 net.cpp:105] Top shape: 8 256 56 56 (6422528)
I0923 12:28:39.865700 17250 layer_factory.hpp:78] Creating layer deconv3_2
I0923 12:28:39.865710 17250 net.cpp:69] Creating Layer deconv3_2
I0923 12:28:39.865715 17250 net.cpp:396] deconv3_2 <- deconv3_1
I0923 12:28:39.865720 17250 net.cpp:358] deconv3_2 -> deconv3_2
I0923 12:28:39.865726 17250 net.cpp:98] Setting up deconv3_2
I0923 12:28:39.878942 17250 net.cpp:105] Top shape: 8 256 56 56 (6422528)
I0923 12:28:39.878955 17250 layer_factory.hpp:78] Creating layer debn3_2
I0923 12:28:39.878962 17250 net.cpp:69] Creating Layer debn3_2
I0923 12:28:39.878968 17250 net.cpp:396] debn3_2 <- deconv3_2
I0923 12:28:39.878973 17250 net.cpp:347] debn3_2 -> deconv3_2 (in-place)
I0923 12:28:39.878978 17250 net.cpp:98] Setting up debn3_2
I0923 12:28:39.878994 17250 net.cpp:105] Top shape: 8 256 56 56 (6422528)
I0923 12:28:39.879000 17250 layer_factory.hpp:78] Creating layer derelu3_2
I0923 12:28:39.879014 17250 net.cpp:69] Creating Layer derelu3_2
I0923 12:28:39.879019 17250 net.cpp:396] derelu3_2 <- deconv3_2
I0923 12:28:39.879024 17250 net.cpp:347] derelu3_2 -> deconv3_2 (in-place)
I0923 12:28:39.879030 17250 net.cpp:98] Setting up derelu3_2
I0923 12:28:39.879035 17250 net.cpp:105] Top shape: 8 256 56 56 (6422528)
I0923 12:28:39.879040 17250 layer_factory.hpp:78] Creating layer deconv3_3
I0923 12:28:39.879045 17250 net.cpp:69] Creating Layer deconv3_3
I0923 12:28:39.879050 17250 net.cpp:396] deconv3_3 <- deconv3_2
I0923 12:28:39.879056 17250 net.cpp:358] deconv3_3 -> deconv3_3
I0923 12:28:39.879062 17250 net.cpp:98] Setting up deconv3_3
I0923 12:28:39.884914 17250 net.cpp:105] Top shape: 8 128 56 56 (3211264)
I0923 12:28:39.884924 17250 layer_factory.hpp:78] Creating layer debn3_3
I0923 12:28:39.884930 17250 net.cpp:69] Creating Layer debn3_3
I0923 12:28:39.884935 17250 net.cpp:396] debn3_3 <- deconv3_3
I0923 12:28:39.884941 17250 net.cpp:347] debn3_3 -> deconv3_3 (in-place)
I0923 12:28:39.884948 17250 net.cpp:98] Setting up debn3_3
I0923 12:28:39.884963 17250 net.cpp:105] Top shape: 8 128 56 56 (3211264)
I0923 12:28:39.884968 17250 layer_factory.hpp:78] Creating layer derelu3_3
I0923 12:28:39.884974 17250 net.cpp:69] Creating Layer derelu3_3
I0923 12:28:39.884979 17250 net.cpp:396] derelu3_3 <- deconv3_3
I0923 12:28:39.884984 17250 net.cpp:347] derelu3_3 -> deconv3_3 (in-place)
I0923 12:28:39.884989 17250 net.cpp:98] Setting up derelu3_3
I0923 12:28:39.884994 17250 net.cpp:105] Top shape: 8 128 56 56 (3211264)
I0923 12:28:39.884999 17250 layer_factory.hpp:78] Creating layer unpool2
I0923 12:28:39.885004 17250 net.cpp:69] Creating Layer unpool2
I0923 12:28:39.885010 17250 net.cpp:396] unpool2 <- deconv3_3
I0923 12:28:39.885015 17250 net.cpp:358] unpool2 -> unpool2
I0923 12:28:39.885021 17250 net.cpp:98] Setting up unpool2
I0923 12:28:39.885026 17250 net.cpp:105] Top shape: 8 128 112 112 (12845056)
I0923 12:28:39.885031 17250 layer_factory.hpp:78] Creating layer deconv2_1
I0923 12:28:39.885038 17250 net.cpp:69] Creating Layer deconv2_1
I0923 12:28:39.885042 17250 net.cpp:396] deconv2_1 <- unpool2
I0923 12:28:39.885049 17250 net.cpp:358] deconv2_1 -> deconv2_1
I0923 12:28:39.885056 17250 net.cpp:98] Setting up deconv2_1
I0923 12:28:39.887991 17250 net.cpp:105] Top shape: 8 128 112 112 (12845056)
I0923 12:28:39.888000 17250 layer_factory.hpp:78] Creating layer debn2_1
I0923 12:28:39.888005 17250 net.cpp:69] Creating Layer debn2_1
I0923 12:28:39.888010 17250 net.cpp:396] debn2_1 <- deconv2_1
I0923 12:28:39.888016 17250 net.cpp:347] debn2_1 -> deconv2_1 (in-place)
I0923 12:28:39.888022 17250 net.cpp:98] Setting up debn2_1
I0923 12:28:39.888056 17250 net.cpp:105] Top shape: 8 128 112 112 (12845056)
I0923 12:28:39.888062 17250 layer_factory.hpp:78] Creating layer derelu2_1
I0923 12:28:39.888068 17250 net.cpp:69] Creating Layer derelu2_1
I0923 12:28:39.888073 17250 net.cpp:396] derelu2_1 <- deconv2_1
I0923 12:28:39.888078 17250 net.cpp:347] derelu2_1 -> deconv2_1 (in-place)
I0923 12:28:39.888083 17250 net.cpp:98] Setting up derelu2_1
I0923 12:28:39.888088 17250 net.cpp:105] Top shape: 8 128 112 112 (12845056)
I0923 12:28:39.888092 17250 layer_factory.hpp:78] Creating layer deconv2_2
I0923 12:28:39.888098 17250 net.cpp:69] Creating Layer deconv2_2
I0923 12:28:39.888103 17250 net.cpp:396] deconv2_2 <- deconv2_1
I0923 12:28:39.888109 17250 net.cpp:358] deconv2_2 -> deconv2_2
I0923 12:28:39.888114 17250 net.cpp:98] Setting up deconv2_2
I0923 12:28:39.889597 17250 net.cpp:105] Top shape: 8 64 112 112 (6422528)
I0923 12:28:39.889606 17250 layer_factory.hpp:78] Creating layer debn2_2
I0923 12:28:39.889612 17250 net.cpp:69] Creating Layer debn2_2
I0923 12:28:39.889616 17250 net.cpp:396] debn2_2 <- deconv2_2
I0923 12:28:39.889623 17250 net.cpp:347] debn2_2 -> deconv2_2 (in-place)
I0923 12:28:39.889629 17250 net.cpp:98] Setting up debn2_2
I0923 12:28:39.889662 17250 net.cpp:105] Top shape: 8 64 112 112 (6422528)
I0923 12:28:39.889668 17250 layer_factory.hpp:78] Creating layer derelu2_2
I0923 12:28:39.889674 17250 net.cpp:69] Creating Layer derelu2_2
I0923 12:28:39.889685 17250 net.cpp:396] derelu2_2 <- deconv2_2
I0923 12:28:39.889693 17250 net.cpp:347] derelu2_2 -> deconv2_2 (in-place)
I0923 12:28:39.889698 17250 net.cpp:98] Setting up derelu2_2
I0923 12:28:39.889703 17250 net.cpp:105] Top shape: 8 64 112 112 (6422528)
I0923 12:28:39.889708 17250 layer_factory.hpp:78] Creating layer unpool1
I0923 12:28:39.889714 17250 net.cpp:69] Creating Layer unpool1
I0923 12:28:39.889719 17250 net.cpp:396] unpool1 <- deconv2_2
I0923 12:28:39.889724 17250 net.cpp:358] unpool1 -> unpool1
I0923 12:28:39.889731 17250 net.cpp:98] Setting up unpool1
I0923 12:28:39.889736 17250 net.cpp:105] Top shape: 8 64 224 224 (25690112)
I0923 12:28:39.889741 17250 layer_factory.hpp:78] Creating layer deconv1_1
I0923 12:28:39.889749 17250 net.cpp:69] Creating Layer deconv1_1
I0923 12:28:39.889753 17250 net.cpp:396] deconv1_1 <- unpool1
I0923 12:28:39.889760 17250 net.cpp:358] deconv1_1 -> deconv1_1
I0923 12:28:39.889766 17250 net.cpp:98] Setting up deconv1_1
I0923 12:28:39.890557 17250 net.cpp:105] Top shape: 8 64 224 224 (25690112)
I0923 12:28:39.890564 17250 layer_factory.hpp:78] Creating layer debn1_1
I0923 12:28:39.890570 17250 net.cpp:69] Creating Layer debn1_1
I0923 12:28:39.890574 17250 net.cpp:396] debn1_1 <- deconv1_1
I0923 12:28:39.890581 17250 net.cpp:347] debn1_1 -> deconv1_1 (in-place)
I0923 12:28:39.890588 17250 net.cpp:98] Setting up debn1_1
I0923 12:28:39.890697 17250 net.cpp:105] Top shape: 8 64 224 224 (25690112)
I0923 12:28:39.890704 17250 layer_factory.hpp:78] Creating layer derelu1_1
I0923 12:28:39.890710 17250 net.cpp:69] Creating Layer derelu1_1
I0923 12:28:39.890715 17250 net.cpp:396] derelu1_1 <- deconv1_1
I0923 12:28:39.890722 17250 net.cpp:347] derelu1_1 -> deconv1_1 (in-place)
I0923 12:28:39.890727 17250 net.cpp:98] Setting up derelu1_1
I0923 12:28:39.890733 17250 net.cpp:105] Top shape: 8 64 224 224 (25690112)
I0923 12:28:39.890738 17250 layer_factory.hpp:78] Creating layer deconv1_2
I0923 12:28:39.890743 17250 net.cpp:69] Creating Layer deconv1_2
I0923 12:28:39.890748 17250 net.cpp:396] deconv1_2 <- deconv1_1
I0923 12:28:39.890753 17250 net.cpp:358] deconv1_2 -> deconv1_2
I0923 12:28:39.890760 17250 net.cpp:98] Setting up deconv1_2
I0923 12:28:39.891549 17250 net.cpp:105] Top shape: 8 64 224 224 (25690112)
I0923 12:28:39.891558 17250 layer_factory.hpp:78] Creating layer debn1_2
I0923 12:28:39.891564 17250 net.cpp:69] Creating Layer debn1_2
I0923 12:28:39.891569 17250 net.cpp:396] debn1_2 <- deconv1_2
I0923 12:28:39.891576 17250 net.cpp:347] debn1_2 -> deconv1_2 (in-place)
I0923 12:28:39.891582 17250 net.cpp:98] Setting up debn1_2
I0923 12:28:39.891686 17250 net.cpp:105] Top shape: 8 64 224 224 (25690112)
I0923 12:28:39.891695 17250 layer_factory.hpp:78] Creating layer derelu1_2
I0923 12:28:39.891700 17250 net.cpp:69] Creating Layer derelu1_2
I0923 12:28:39.891705 17250 net.cpp:396] derelu1_2 <- deconv1_2
I0923 12:28:39.891711 17250 net.cpp:347] derelu1_2 -> deconv1_2 (in-place)
I0923 12:28:39.891717 17250 net.cpp:98] Setting up derelu1_2
I0923 12:28:39.891722 17250 net.cpp:105] Top shape: 8 64 224 224 (25690112)
I0923 12:28:39.891727 17250 layer_factory.hpp:78] Creating layer seg-score-voc
I0923 12:28:39.891733 17250 net.cpp:69] Creating Layer seg-score-voc
I0923 12:28:39.891738 17250 net.cpp:396] seg-score-voc <- deconv1_2
I0923 12:28:39.891744 17250 net.cpp:358] seg-score-voc -> seg-score
I0923 12:28:39.891752 17250 net.cpp:98] Setting up seg-score-voc
I0923 12:28:39.891837 17250 net.cpp:105] Top shape: 8 21 224 224 (8429568)
I0923 12:28:39.891845 17250 layer_factory.hpp:78] Creating layer seg-score_seg-score-voc_0_split
I0923 12:28:39.891851 17250 net.cpp:69] Creating Layer seg-score_seg-score-voc_0_split
I0923 12:28:39.891856 17250 net.cpp:396] seg-score_seg-score-voc_0_split <- seg-score
I0923 12:28:39.891863 17250 net.cpp:358] seg-score_seg-score-voc_0_split -> seg-score_seg-score-voc_0_split_0
I0923 12:28:39.891870 17250 net.cpp:358] seg-score_seg-score-voc_0_split -> seg-score_seg-score-voc_0_split_1
I0923 12:28:39.891877 17250 net.cpp:98] Setting up seg-score_seg-score-voc_0_split
I0923 12:28:39.891890 17250 net.cpp:105] Top shape: 8 21 224 224 (8429568)
I0923 12:28:39.891894 17250 net.cpp:105] Top shape: 8 21 224 224 (8429568)
I0923 12:28:39.891898 17250 layer_factory.hpp:78] Creating layer seg-accuracy
I0923 12:28:39.891906 17250 net.cpp:69] Creating Layer seg-accuracy
I0923 12:28:39.891911 17250 net.cpp:396] seg-accuracy <- seg-score_seg-score-voc_0_split_0
I0923 12:28:39.891916 17250 net.cpp:396] seg-accuracy <- seg-label_data_1_split_0
I0923 12:28:39.891922 17250 net.cpp:358] seg-accuracy -> seg-accuracy
I0923 12:28:39.891929 17250 net.cpp:98] Setting up seg-accuracy
I0923 12:28:39.891934 17250 net.cpp:105] Top shape: 1 1 1 1 (1)
I0923 12:28:39.891939 17250 layer_factory.hpp:78] Creating layer seg-loss
I0923 12:28:39.891947 17250 net.cpp:69] Creating Layer seg-loss
I0923 12:28:39.891952 17250 net.cpp:396] seg-loss <- seg-score_seg-score-voc_0_split_1
I0923 12:28:39.891957 17250 net.cpp:396] seg-loss <- seg-label_data_1_split_1
I0923 12:28:39.891964 17250 net.cpp:358] seg-loss -> seg-loss
I0923 12:28:39.891970 17250 net.cpp:98] Setting up seg-loss
I0923 12:28:39.891978 17250 net.cpp:105] Top shape: 1 1 1 1 (1)
I0923 12:28:39.891983 17250 net.cpp:111]     with loss weight 1
I0923 12:28:39.891993 17250 net.cpp:172] seg-loss needs backward computation.
I0923 12:28:39.891998 17250 net.cpp:174] seg-accuracy does not need backward computation.
I0923 12:28:39.892002 17250 net.cpp:172] seg-score_seg-score-voc_0_split needs backward computation.
I0923 12:28:39.892007 17250 net.cpp:172] seg-score-voc needs backward computation.
…
