…
I0925 02:01:43.374166  9442 net.cpp:277] The NetState phase (0) differed from the phase (1) specified by a rule in layer seg-accuracy
I0925 02:01:43.374678  9442 net.cpp:39] Initializing net from parameters: 
name: "stage_1_training"
layers {
  top: "data"
  top: "seg-label"
  name: "data"
  type: IMAGE_SEG_DATA
  image_data_param {
    source: "./stage_1_train_imgset/train_reduced_07.txt"
    batch_size: 8
    shuffle: true
    new_height: 250
    new_width: 250
    root_folder: "./VOC2012"
    label_type: PIXEL
  }
  include {
    phase: TRAIN
  }
  transform_param {
    mirror: true
    crop_size: 224
    mean_value: 104.008
    mean_value: 116.669
    mean_value: 122.675
  }
}
layers {
  bottom: "data"
  top: "conv1_1"
  name: "conv1_1"
  type: CONVOLUTION
  blobs_lr: 1
  blobs_lr: 2
  weight_decay: 1
  weight_decay: 0
  convolution_param {
    num_output: 64
    pad: 1
    kernel_size: 3
  }
}
layers {
  bottom: "conv1_1"
  top: "conv1_1"
  name: "bn1_1"
  type: BN
  bn_param {
    scale_filler {
      type: "constant"
      value: 1
    }
    shift_filler {
      type: "constant"
      value: 0.001
    }
  }
}
layers {
  bottom: "conv1_1"
  top: "conv1_1"
  name: "relu1_1"
  type: RELU
}
layers {
  bottom: "conv1_1"
  top: "conv1_2"
  name: "conv1_2"
  type: CONVOLUTION
  blobs_lr: 1
  blobs_lr: 2
  weight_decay: 1
  weight_decay: 0
  convolution_param {
    num_output: 64
    pad: 1
    kernel_size: 3
  }
}
layers {
  bottom: "conv1_2"
  top: "conv1_2"
  name: "bn1_2"
  type: BN
  bn_param {
    scale_filler {
      type: "constant"
      value: 1
    }
    shift_filler {
      type: "constant"
      value: 0.001
    }
  }
}
layers {
  bottom: "conv1_2"
  top: "conv1_2"
  name: "relu1_2"
  type: RELU
}
layers {
  bottom: "conv1_2"
  top: "pool1"
  name: "pool1"
  type: POOLING
  pooling_param {
    pool: AVE
    kernel_size: 2
    stride: 2
  }
}
layers {
  bottom: "pool1"
  top: "conv2_1"
  name: "conv2_1"
  type: CONVOLUTION
  blobs_lr: 1
  blobs_lr: 2
  weight_decay: 1
  weight_decay: 0
  convolution_param {
    num_output: 128
    pad: 1
    kernel_size: 3
  }
}
layers {
  bottom: "conv2_1"
  top: "conv2_1"
  name: "bn2_1"
  type: BN
  bn_param {
    scale_filler {
      type: "constant"
      value: 1
    }
    shift_filler {
      type: "constant"
      value: 0.001
    }
  }
}
layers {
  bottom: "conv2_1"
  top: "conv2_1"
  name: "relu2_1"
  type: RELU
}
layers {
  bottom: "conv2_1"
  top: "conv2_2"
  name: "conv2_2"
  type: CONVOLUTION
  blobs_lr: 1
  blobs_lr: 2
  weight_decay: 1
  weight_decay: 0
  convolution_param {
    num_output: 128
    pad: 1
    kernel_size: 3
  }
}
layers {
  bottom: "conv2_2"
  top: "conv2_2"
  name: "bn2_2"
  type: BN
  bn_param {
    scale_filler {
      type: "constant"
      value: 1
    }
    shift_filler {
      type: "constant"
      value: 0.001
    }
  }
}
layers {
  bottom: "conv2_2"
  top: "conv2_2"
  name: "relu2_2"
  type: RELU
}
layers {
  bottom: "conv2_2"
  top: "pool2"
  name: "pool2"
  type: POOLING
  pooling_param {
    pool: AVE
    kernel_size: 2
    stride: 2
  }
}
layers {
  bottom: "pool2"
  top: "conv3_1"
  name: "conv3_1"
  type: CONVOLUTION
  blobs_lr: 1
  blobs_lr: 2
  weight_decay: 1
  weight_decay: 0
  convolution_param {
    num_output: 256
    pad: 1
    kernel_size: 3
  }
}
layers {
  bottom: "conv3_1"
  top: "conv3_1"
  name: "bn3_1"
  type: BN
  bn_param {
    scale_filler {
      type: "constant"
      value: 1
    }
    shift_filler {
      type: "constant"
      value: 0.001
    }
  }
}
layers {
  bottom: "conv3_1"
  top: "conv3_1"
  name: "relu3_1"
  type: RELU
}
layers {
  bottom: "conv3_1"
  top: "conv3_2"
  name: "conv3_2"
  type: CONVOLUTION
  blobs_lr: 1
  blobs_lr: 2
  weight_decay: 1
  weight_decay: 0
  convolution_param {
    num_output: 256
    pad: 1
    kernel_size: 3
  }
}
layers {
  bottom: "conv3_2"
  top: "conv3_2"
  name: "bn3_2"
  type: BN
  bn_param {
    scale_filler {
      type: "constant"
      value: 1
    }
    shift_filler {
      type: "constant"
      value: 0.001
    }
  }
}
layers {
  bottom: "conv3_2"
  top: "conv3_2"
  name: "relu3_2"
  type: RELU
}
layers {
  bottom: "conv3_2"
  top: "conv3_3"
  name: "conv3_3"
  type: CONVOLUTION
  blobs_lr: 1
  blobs_lr: 2
  weight_decay: 1
  weight_decay: 0
  convolution_param {
    num_output: 256
    pad: 1
    kernel_size: 3
  }
}
layers {
  bottom: "conv3_3"
  top: "conv3_3"
  name: "bn3_3"
  type: BN
  bn_param {
    scale_filler {
      type: "constant"
      value: 1
    }
    shift_filler {
      type: "constant"
      value: 0.001
    }
  }
}
layers {
  bottom: "conv3_3"
  top: "conv3_3"
  name: "relu3_3"
  type: RELU
}
layers {
  bottom: "conv3_3"
  top: "pool3"
  name: "pool3"
  type: POOLING
  pooling_param {
    pool: AVE
    kernel_size: 2
    stride: 2
  }
}
layers {
  bottom: "pool3"
  top: "conv4_1"
  name: "conv4_1"
  type: CONVOLUTION
  blobs_lr: 1
  blobs_lr: 2
  weight_decay: 1
  weight_decay: 0
  convolution_param {
    num_output: 512
    pad: 1
    kernel_size: 3
  }
}
layers {
  bottom: "conv4_1"
  top: "conv4_1"
  name: "bn4_1"
  type: BN
  bn_param {
    scale_filler {
      type: "constant"
      value: 1
    }
    shift_filler {
      type: "constant"
      value: 0.001
    }
  }
}
layers {
  bottom: "conv4_1"
  top: "conv4_1"
  name: "relu4_1"
  type: RELU
}
layers {
  bottom: "conv4_1"
  top: "conv4_2"
  name: "conv4_2"
  type: CONVOLUTION
  blobs_lr: 1
  blobs_lr: 2
  weight_decay: 1
  weight_decay: 0
  convolution_param {
    num_output: 512
    pad: 1
    kernel_size: 3
  }
}
layers {
  bottom: "conv4_2"
  top: "conv4_2"
  name: "bn4_2"
  type: BN
  bn_param {
    scale_filler {
      type: "constant"
      value: 1
    }
    shift_filler {
      type: "constant"
      value: 0.001
    }
  }
}
layers {
  bottom: "conv4_2"
  top: "conv4_2"
  name: "relu4_2"
  type: RELU
}
layers {
  bottom: "conv4_2"
  top: "conv4_3"
  name: "conv4_3"
  type: CONVOLUTION
  blobs_lr: 1
  blobs_lr: 2
  weight_decay: 1
  weight_decay: 0
  convolution_param {
    num_output: 512
    pad: 1
    kernel_size: 3
  }
}
layers {
  bottom: "conv4_3"
  top: "conv4_3"
  name: "bn4_3"
  type: BN
  bn_param {
    scale_filler {
      type: "constant"
      value: 1
    }
    shift_filler {
      type: "constant"
      value: 0.001
    }
  }
}
layers {
  bottom: "conv4_3"
  top: "conv4_3"
  name: "relu4_3"
  type: RELU
}
layers {
  bottom: "conv4_3"
  top: "pool4"
  name: "pool4"
  type: POOLING
  pooling_param {
    pool: AVE
    kernel_size: 2
    stride: 2
  }
}
layers {
  bottom: "pool4"
  top: "conv5_1"
  name: "conv5_1"
  type: CONVOLUTION
  blobs_lr: 1
  blobs_lr: 2
  weight_decay: 1
  weight_decay: 0
  convolution_param {
    num_output: 512
    pad: 1
    kernel_size: 3
  }
}
layers {
  bottom: "conv5_1"
  top: "conv5_1"
  name: "bn5_1"
  type: BN
  bn_param {
    scale_filler {
      type: "constant"
      value: 1
    }
    shift_filler {
      type: "constant"
      value: 0.001
    }
  }
}
layers {
  bottom: "conv5_1"
  top: "conv5_1"
  name: "relu5_1"
  type: RELU
}
layers {
  bottom: "conv5_1"
  top: "conv5_2"
  name: "conv5_2"
  type: CONVOLUTION
  blobs_lr: 1
  blobs_lr: 2
  weight_decay: 1
  weight_decay: 0
  convolution_param {
    num_output: 512
    pad: 1
    kernel_size: 3
  }
}
layers {
  bottom: "conv5_2"
  top: "conv5_2"
  name: "bn5_2"
  type: BN
  bn_param {
    scale_filler {
      type: "constant"
      value: 1
    }
    shift_filler {
      type: "constant"
      value: 0.001
    }
  }
}
layers {
  bottom: "conv5_2"
  top: "conv5_2"
  name: "relu5_2"
  type: RELU
}
layers {
  bottom: "conv5_2"
  top: "conv5_3"
  name: "conv5_3"
  type: CONVOLUTION
  blobs_lr: 1
  blobs_lr: 2
  weight_decay: 1
  weight_decay: 0
  convolution_param {
    num_output: 512
    pad: 1
    kernel_size: 3
  }
}
layers {
  bottom: "conv5_3"
  top: "conv5_3"
  name: "bn5_3"
  type: BN
  bn_param {
    scale_filler {
      type: "constant"
      value: 1
    }
    shift_filler {
      type: "constant"
      value: 0.001
    }
  }
}
layers {
  bottom: "conv5_3"
  top: "conv5_3"
  name: "relu5_3"
  type: RELU
}
layers {
  bottom: "conv5_3"
  top: "pool5"
  name: "pool5"
  type: POOLING
  pooling_param {
    pool: AVE
    kernel_size: 2
    stride: 2
  }
}
layers {
  bottom: "pool5"
  top: "fc6"
  name: "fc6"
  type: CONVOLUTION
  blobs_lr: 1
  blobs_lr: 2
  weight_decay: 1
  weight_decay: 0
  convolution_param {
    num_output: 4096
    kernel_size: 7
  }
}
layers {
  bottom: "fc6"
  top: "fc6"
  name: "bnfc6"
  type: BN
  bn_param {
    scale_filler {
      type: "constant"
      value: 1
    }
    shift_filler {
      type: "constant"
      value: 0.001
    }
  }
}
layers {
  bottom: "fc6"
  top: "fc6"
  name: "relu6"
  type: RELU
}
layers {
  bottom: "fc6"
  top: "fc7"
  name: "fc7"
  type: CONVOLUTION
  blobs_lr: 1
  blobs_lr: 2
  weight_decay: 1
  weight_decay: 0
  convolution_param {
    num_output: 4096
    kernel_size: 1
  }
}
layers {
  bottom: "fc7"
  top: "fc7"
  name: "bnfc7"
  type: BN
  bn_param {
    scale_filler {
      type: "constant"
      value: 1
    }
    shift_filler {
      type: "constant"
      value: 0.001
    }
  }
}
layers {
  bottom: "fc7"
  top: "fc7"
  name: "relu7"
  type: RELU
}
layers {
  bottom: "fc7"
  top: "fc6-deconv"
  name: "fc6-deconv"
  type: DECONVOLUTION
  blobs_lr: 1
  blobs_lr: 2
  weight_decay: 1
  weight_decay: 0
  convolution_param {
    num_output: 512
    kernel_size: 7
    weight_filler {
      type: "gaussian"
      std: 0.01
    }
    bias_filler {
      type: "constant"
      value: 0
    }
  }
}
layers {
  bottom: "fc6-deconv"
  top: "fc6-deconv"
  name: "fc6-deconv-bn"
  type: BN
  bn_param {
    scale_filler {
      type: "constant"
      value: 1
    }
    shift_filler {
      type: "constant"
      value: 0.001
    }
  }
}
layers {
  bottom: "fc6-deconv"
  top: "fc6-deconv"
  name: "fc6-deconv-relu"
  type: RELU
}
layers {
  bottom: "fc6-deconv"
  top: "unpool5"
  name: "unpool5"
  type: UNPOOLING
  unpooling_param {
    unpool: AVE
    kernel_size: 2
    stride: 2
    unpool_size: 14
  }
}
layers {
  bottom: "unpool5"
  top: "deconv5_1"
  name: "deconv5_1"
  type: DECONVOLUTION
  blobs_lr: 1
  blobs_lr: 2
  weight_decay: 1
  weight_decay: 0
  convolution_param {
    num_output: 512
    pad: 1
    kernel_size: 3
    weight_filler {
      type: "gaussian"
      std: 0.01
    }
    bias_filler {
      type: "constant"
      value: 0
    }
  }
}
layers {
  bottom: "deconv5_1"
  top: "deconv5_1"
  name: "debn5_1"
  type: BN
  bn_param {
    scale_filler {
      type: "constant"
      value: 1
    }
    shift_filler {
      type: "constant"
      value: 0.001
    }
  }
}
layers {
  bottom: "deconv5_1"
  top: "deconv5_1"
  name: "derelu5_1"
  type: RELU
}
layers {
  bottom: "deconv5_1"
  top: "deconv5_2"
  name: "deconv5_2"
  type: DECONVOLUTION
  blobs_lr: 1
  blobs_lr: 2
  weight_decay: 1
  weight_decay: 0
  convolution_param {
    num_output: 512
    pad: 1
    kernel_size: 3
    weight_filler {
      type: "gaussian"
      std: 0.01
    }
    bias_filler {
      type: "constant"
      value: 0
    }
  }
}
layers {
  bottom: "deconv5_2"
  top: "deconv5_2"
  name: "debn5_2"
  type: BN
  bn_param {
    scale_filler {
      type: "constant"
      value: 1
    }
    shift_filler {
      type: "constant"
      value: 0.001
    }
  }
}
layers {
  bottom: "deconv5_2"
  top: "deconv5_2"
  name: "derelu5_2"
  type: RELU
}
layers {
  bottom: "deconv5_2"
  top: "deconv5_3"
  name: "deconv5_3"
  type: DECONVOLUTION
  blobs_lr: 1
  blobs_lr: 2
  weight_decay: 1
  weight_decay: 0
  convolution_param {
    num_output: 512
    pad: 1
    kernel_size: 3
    weight_filler {
      type: "gaussian"
      std: 0.01
    }
    bias_filler {
      type: "constant"
      value: 0
    }
  }
}
layers {
  bottom: "deconv5_3"
  top: "deconv5_3"
  name: "debn5_3"
  type: BN
  bn_param {
    scale_filler {
      type: "constant"
      value: 1
    }
    shift_filler {
      type: "constant"
      value: 0.001
    }
  }
}
layers {
  bottom: "deconv5_3"
  top: "deconv5_3"
  name: "derelu5_3"
  type: RELU
}
layers {
  bottom: "deconv5_3"
  top: "unpool4"
  name: "unpool4"
  type: UNPOOLING
  unpooling_param {
    unpool: AVE
    kernel_size: 2
    stride: 2
    unpool_size: 28
  }
}
layers {
  bottom: "unpool4"
  top: "deconv4_1"
  name: "deconv4_1"
  type: DECONVOLUTION
  blobs_lr: 1
  blobs_lr: 2
  weight_decay: 1
  weight_decay: 0
  convolution_param {
    num_output: 512
    pad: 1
    kernel_size: 3
    weight_filler {
      type: "gaussian"
      std: 0.01
    }
    bias_filler {
      type: "constant"
      value: 0
    }
  }
}
layers {
  bottom: "deconv4_1"
  top: "deconv4_1"
  name: "debn4_1"
  type: BN
  bn_param {
    scale_filler {
      type: "constant"
      value: 1
    }
    shift_filler {
      type: "constant"
      value: 0.001
    }
  }
}
layers {
  bottom: "deconv4_1"
  top: "deconv4_1"
  name: "derelu4_1"
  type: RELU
}
layers {
  bottom: "deconv4_1"
  top: "deconv4_2"
  name: "deconv4_2"
  type: DECONVOLUTION
  blobs_lr: 1
  blobs_lr: 2
  weight_decay: 1
  weight_decay: 0
  convolution_param {
    num_output: 512
    pad: 1
    kernel_size: 3
    weight_filler {
      type: "gaussian"
      std: 0.01
    }
    bias_filler {
      type: "constant"
      value: 0
    }
  }
}
layers {
  bottom: "deconv4_2"
  top: "deconv4_2"
  name: "debn4_2"
  type: BN
  bn_param {
    scale_filler {
      type: "constant"
      value: 1
    }
    shift_filler {
      type: "constant"
      value: 0.001
    }
  }
}
layers {
  bottom: "deconv4_2"
  top: "deconv4_2"
  name: "derelu4_2"
  type: RELU
}
layers {
  bottom: "deconv4_2"
  top: "deconv4_3"
  name: "deconv4_3"
  type: DECONVOLUTION
  blobs_lr: 1
  blobs_lr: 2
  weight_decay: 1
  weight_decay: 0
  convolution_param {
    num_output: 256
    pad: 1
    kernel_size: 3
    weight_filler {
      type: "gaussian"
      std: 0.01
    }
    bias_filler {
      type: "constant"
      value: 0
    }
  }
}
layers {
  bottom: "deconv4_3"
  top: "deconv4_3"
  name: "debn4_3"
  type: BN
  bn_param {
    scale_filler {
      type: "constant"
      value: 1
    }
    shift_filler {
      type: "constant"
      value: 0.001
    }
  }
}
layers {
  bottom: "deconv4_3"
  top: "deconv4_3"
  name: "derelu4_3"
  type: RELU
}
layers {
  bottom: "deconv4_3"
  top: "unpool3"
  name: "unpool3"
  type: UNPOOLING
  unpooling_param {
    unpool: AVE
    kernel_size: 2
    stride: 2
    unpool_size: 56
  }
}
layers {
  bottom: "unpool3"
  top: "deconv3_1"
  name: "deconv3_1"
  type: DECONVOLUTION
  blobs_lr: 1
  blobs_lr: 2
  weight_decay: 1
  weight_decay: 0
  convolution_param {
    num_output: 256
    pad: 1
    kernel_size: 3
    weight_filler {
      type: "gaussian"
      std: 0.01
    }
    bias_filler {
      type: "constant"
      value: 0
    }
  }
}
layers {
  bottom: "deconv3_1"
  top: "deconv3_1"
  name: "debn3_1"
  type: BN
  bn_param {
    scale_filler {
      type: "constant"
      value: 1
    }
    shift_filler {
      type: "constant"
      value: 0.001
    }
  }
}
layers {
  bottom: "deconv3_1"
  top: "deconv3_1"
  name: "derelu3_1"
  type: RELU
}
layers {
  bottom: "deconv3_1"
  top: "deconv3_2"
  name: "deconv3_2"
  type: DECONVOLUTION
  blobs_lr: 1
  blobs_lr: 2
  weight_decay: 1
  weight_decay: 0
  convolution_param {
    num_output: 256
    pad: 1
    kernel_size: 3
    weight_filler {
      type: "gaussian"
      std: 0.01
    }
    bias_filler {
      type: "constant"
      value: 0
    }
  }
}
layers {
  bottom: "deconv3_2"
  top: "deconv3_2"
  name: "debn3_2"
  type: BN
  bn_param {
    scale_filler {
      type: "constant"
      value: 1
    }
    shift_filler {
      type: "constant"
      value: 0.001
    }
  }
}
layers {
  bottom: "deconv3_2"
  top: "deconv3_2"
  name: "derelu3_2"
  type: RELU
}
layers {
  bottom: "deconv3_2"
  top: "deconv3_3"
  name: "deconv3_3"
  type: DECONVOLUTION
  blobs_lr: 1
  blobs_lr: 2
  weight_decay: 1
  weight_decay: 0
  convolution_param {
    num_output: 128
    pad: 1
    kernel_size: 3
    weight_filler {
      type: "gaussian"
      std: 0.01
    }
    bias_filler {
      type: "constant"
      value: 0
    }
  }
}
layers {
  bottom: "deconv3_3"
  top: "deconv3_3"
  name: "debn3_3"
  type: BN
  bn_param {
    scale_filler {
      type: "constant"
      value: 1
    }
    shift_filler {
      type: "constant"
      value: 0.001
    }
  }
}
layers {
  bottom: "deconv3_3"
  top: "deconv3_3"
  name: "derelu3_3"
  type: RELU
}
layers {
  bottom: "deconv3_3"
  top: "unpool2"
  name: "unpool2"
  type: UNPOOLING
  unpooling_param {
    unpool: AVE
    kernel_size: 2
    stride: 2
    unpool_size: 112
  }
}
layers {
  bottom: "unpool2"
  top: "deconv2_1"
  name: "deconv2_1"
  type: DECONVOLUTION
  blobs_lr: 1
  blobs_lr: 2
  weight_decay: 1
  weight_decay: 0
  convolution_param {
    num_output: 128
    pad: 1
    kernel_size: 3
    weight_filler {
      type: "gaussian"
      std: 0.01
    }
    bias_filler {
      type: "constant"
      value: 0
    }
  }
}
layers {
  bottom: "deconv2_1"
  top: "deconv2_1"
  name: "debn2_1"
  type: BN
  bn_param {
    scale_filler {
      type: "constant"
      value: 1
    }
    shift_filler {
      type: "constant"
      value: 0.001
    }
  }
}
layers {
  bottom: "deconv2_1"
  top: "deconv2_1"
  name: "derelu2_1"
  type: RELU
}
layers {
  bottom: "deconv2_1"
  top: "deconv2_2"
  name: "deconv2_2"
  type: DECONVOLUTION
  blobs_lr: 1
  blobs_lr: 2
  weight_decay: 1
  weight_decay: 0
  convolution_param {
    num_output: 64
    pad: 1
    kernel_size: 3
    weight_filler {
      type: "gaussian"
      std: 0.01
    }
    bias_filler {
      type: "constant"
      value: 0
    }
  }
}
layers {
  bottom: "deconv2_2"
  top: "deconv2_2"
  name: "debn2_2"
  type: BN
  bn_param {
    scale_filler {
      type: "constant"
      value: 1
    }
    shift_filler {
      type: "constant"
      value: 0.001
    }
  }
}
layers {
  bottom: "deconv2_2"
  top: "deconv2_2"
  name: "derelu2_2"
  type: RELU
}
layers {
  bottom: "deconv2_2"
  top: "unpool1"
  name: "unpool1"
  type: UNPOOLING
  unpooling_param {
    unpool: AVE
    kernel_size: 2
    stride: 2
    unpool_size: 224
  }
}
layers {
  bottom: "unpool1"
  top: "deconv1_1"
  name: "deconv1_1"
  type: DECONVOLUTION
  blobs_lr: 1
  blobs_lr: 2
  weight_decay: 1
  weight_decay: 0
  convolution_param {
    num_output: 64
    pad: 1
    kernel_size: 3
    weight_filler {
      type: "gaussian"
      std: 0.01
    }
    bias_filler {
      type: "constant"
      value: 0
    }
  }
}
layers {
  bottom: "deconv1_1"
  top: "deconv1_1"
  name: "debn1_1"
  type: BN
  bn_param {
    scale_filler {
      type: "constant"
      value: 1
    }
    shift_filler {
      type: "constant"
      value: 0.001
    }
  }
}
layers {
  bottom: "deconv1_1"
  top: "deconv1_1"
  name: "derelu1_1"
  type: RELU
}
layers {
  bottom: "deconv1_1"
  top: "deconv1_2"
  name: "deconv1_2"
  type: DECONVOLUTION
  blobs_lr: 1
  blobs_lr: 2
  weight_decay: 1
  weight_decay: 0
  convolution_param {
    num_output: 64
    pad: 1
    kernel_size: 3
    weight_filler {
      type: "gaussian"
      std: 0.01
    }
    bias_filler {
      type: "constant"
      value: 0
    }
  }
}
layers {
  bottom: "deconv1_2"
  top: "deconv1_2"
  name: "debn1_2"
  type: BN
  bn_param {
    scale_filler {
      type: "constant"
      value: 1
    }
    shift_filler {
      type: "constant"
      value: 0.001
    }
  }
}
layers {
  bottom: "deconv1_2"
  top: "deconv1_2"
  name: "derelu1_2"
  type: RELU
}
layers {
  bottom: "deconv1_2"
  top: "seg-score"
  name: "seg-score-voc"
  type: CONVOLUTION
  blobs_lr: 1
  blobs_lr: 2
  weight_decay: 1
  weight_decay: 0
  convolution_param {
    num_output: 21
    kernel_size: 1
    weight_filler {
      type: "gaussian"
      std: 0.01
    }
    bias_filler {
      type: "constant"
      value: 0
    }
  }
}
layers {
  bottom: "seg-score"
  bottom: "seg-label"
  top: "seg-loss"
  name: "seg-loss"
  type: SOFTMAX_LOSS
  loss_param {
    ignore_label: 255
  }
}
state {
  phase: TRAIN
}
I0925 02:01:43.378352  9442 layer_factory.hpp:78] Creating layer data
I0925 02:01:43.378862  9442 net.cpp:69] Creating Layer data
I0925 02:01:43.378877  9442 net.cpp:358] data -> data
I0925 02:01:43.378895  9442 net.cpp:358] data -> seg-label
I0925 02:01:43.378907  9442 net.cpp:358] data -> (automatic)
I0925 02:01:43.378917  9442 net.cpp:98] Setting up data
I0925 02:01:43.378926  9442 image_seg_data_layer.cpp:51] Opening file ./stage_1_train_imgset/train_reduced_07.txt
I0925 02:01:43.479620  9442 image_seg_data_layer.cpp:68] Shuffling data
I0925 02:01:43.486781  9442 image_seg_data_layer.cpp:73] A total of 53412 images.
I0925 02:01:43.550926  9442 image_seg_data_layer.cpp:119] output data size: 8,3,224,224
I0925 02:01:43.550946  9442 image_seg_data_layer.cpp:123] output label size: 8,1,224,224
I0925 02:01:43.550952  9442 image_seg_data_layer.cpp:127] output data_dim size: 8,1,1,2
I0925 02:01:43.551794  9442 net.cpp:105] Top shape: 8 3 224 224 (1204224)
I0925 02:01:43.551806  9442 net.cpp:105] Top shape: 8 1 224 224 (401408)
I0925 02:01:43.551811  9442 net.cpp:105] Top shape: 8 1 1 2 (16)
I0925 02:01:43.551816  9442 layer_factory.hpp:78] Creating layer conv1_1
I0925 02:01:43.551827  9442 net.cpp:69] Creating Layer conv1_1
I0925 02:01:43.551832  9442 net.cpp:396] conv1_1 <- data
I0925 02:01:43.551842  9442 net.cpp:358] conv1_1 -> conv1_1
I0925 02:01:43.551851  9442 net.cpp:98] Setting up conv1_1
I0925 02:01:43.552122  9442 net.cpp:105] Top shape: 8 64 224 224 (25690112)
I0925 02:01:43.552139  9442 layer_factory.hpp:78] Creating layer bn1_1
I0925 02:01:43.552378  9442 net.cpp:69] Creating Layer bn1_1
I0925 02:01:43.552387  9442 net.cpp:396] bn1_1 <- conv1_1
I0925 02:01:43.552394  9442 net.cpp:347] bn1_1 -> conv1_1 (in-place)
I0925 02:01:43.552402  9442 net.cpp:98] Setting up bn1_1
I0925 02:01:43.552467  9442 net.cpp:105] Top shape: 8 64 224 224 (25690112)
I0925 02:01:43.552477  9442 layer_factory.hpp:78] Creating layer relu1_1
I0925 02:01:43.552486  9442 net.cpp:69] Creating Layer relu1_1
I0925 02:01:43.552492  9442 net.cpp:396] relu1_1 <- conv1_1
I0925 02:01:43.552498  9442 net.cpp:347] relu1_1 -> conv1_1 (in-place)
I0925 02:01:43.552505  9442 net.cpp:98] Setting up relu1_1
I0925 02:01:43.552511  9442 net.cpp:105] Top shape: 8 64 224 224 (25690112)
I0925 02:01:43.552516  9442 layer_factory.hpp:78] Creating layer conv1_2
I0925 02:01:43.552523  9442 net.cpp:69] Creating Layer conv1_2
I0925 02:01:43.552528  9442 net.cpp:396] conv1_2 <- conv1_1
I0925 02:01:43.552536  9442 net.cpp:358] conv1_2 -> conv1_2
I0925 02:01:43.552542  9442 net.cpp:98] Setting up conv1_2
I0925 02:01:43.552613  9442 net.cpp:105] Top shape: 8 64 224 224 (25690112)
I0925 02:01:43.552623  9442 layer_factory.hpp:78] Creating layer bn1_2
I0925 02:01:43.552629  9442 net.cpp:69] Creating Layer bn1_2
I0925 02:01:43.552634  9442 net.cpp:396] bn1_2 <- conv1_2
I0925 02:01:43.552640  9442 net.cpp:347] bn1_2 -> conv1_2 (in-place)
I0925 02:01:43.552647  9442 net.cpp:98] Setting up bn1_2
I0925 02:01:43.552711  9442 net.cpp:105] Top shape: 8 64 224 224 (25690112)
I0925 02:01:43.552721  9442 layer_factory.hpp:78] Creating layer relu1_2
I0925 02:01:43.552726  9442 net.cpp:69] Creating Layer relu1_2
I0925 02:01:43.552731  9442 net.cpp:396] relu1_2 <- conv1_2
I0925 02:01:43.552736  9442 net.cpp:347] relu1_2 -> conv1_2 (in-place)
I0925 02:01:43.552742  9442 net.cpp:98] Setting up relu1_2
I0925 02:01:43.552749  9442 net.cpp:105] Top shape: 8 64 224 224 (25690112)
I0925 02:01:43.552753  9442 layer_factory.hpp:78] Creating layer pool1
I0925 02:01:43.552762  9442 net.cpp:69] Creating Layer pool1
I0925 02:01:43.552767  9442 net.cpp:396] pool1 <- conv1_2
I0925 02:01:43.552772  9442 net.cpp:358] pool1 -> pool1
I0925 02:01:43.552778  9442 net.cpp:98] Setting up pool1
I0925 02:01:43.552983  9442 net.cpp:105] Top shape: 8 64 112 112 (6422528)
I0925 02:01:43.553006  9442 layer_factory.hpp:78] Creating layer conv2_1
I0925 02:01:43.553014  9442 net.cpp:69] Creating Layer conv2_1
I0925 02:01:43.553020  9442 net.cpp:396] conv2_1 <- pool1
I0925 02:01:43.553025  9442 net.cpp:358] conv2_1 -> conv2_1
I0925 02:01:43.553033  9442 net.cpp:98] Setting up conv2_1
I0925 02:01:43.553131  9442 net.cpp:105] Top shape: 8 128 112 112 (12845056)
I0925 02:01:43.553143  9442 layer_factory.hpp:78] Creating layer bn2_1
I0925 02:01:43.553151  9442 net.cpp:69] Creating Layer bn2_1
I0925 02:01:43.553158  9442 net.cpp:396] bn2_1 <- conv2_1
I0925 02:01:43.553164  9442 net.cpp:347] bn2_1 -> conv2_1 (in-place)
I0925 02:01:43.553169  9442 net.cpp:98] Setting up bn2_1
I0925 02:01:43.553208  9442 net.cpp:105] Top shape: 8 128 112 112 (12845056)
I0925 02:01:43.553216  9442 layer_factory.hpp:78] Creating layer relu2_1
I0925 02:01:43.553222  9442 net.cpp:69] Creating Layer relu2_1
I0925 02:01:43.553228  9442 net.cpp:396] relu2_1 <- conv2_1
I0925 02:01:43.553234  9442 net.cpp:347] relu2_1 -> conv2_1 (in-place)
I0925 02:01:43.553239  9442 net.cpp:98] Setting up relu2_1
I0925 02:01:43.553244  9442 net.cpp:105] Top shape: 8 128 112 112 (12845056)
I0925 02:01:43.553249  9442 layer_factory.hpp:78] Creating layer conv2_2
I0925 02:01:43.553256  9442 net.cpp:69] Creating Layer conv2_2
I0925 02:01:43.553259  9442 net.cpp:396] conv2_2 <- conv2_1
I0925 02:01:43.553266  9442 net.cpp:358] conv2_2 -> conv2_2
I0925 02:01:43.553272  9442 net.cpp:98] Setting up conv2_2
I0925 02:01:43.553470  9442 net.cpp:105] Top shape: 8 128 112 112 (12845056)
I0925 02:01:43.553478  9442 layer_factory.hpp:78] Creating layer bn2_2
I0925 02:01:43.553485  9442 net.cpp:69] Creating Layer bn2_2
I0925 02:01:43.553490  9442 net.cpp:396] bn2_2 <- conv2_2
I0925 02:01:43.553496  9442 net.cpp:347] bn2_2 -> conv2_2 (in-place)
I0925 02:01:43.553503  9442 net.cpp:98] Setting up bn2_2
I0925 02:01:43.553539  9442 net.cpp:105] Top shape: 8 128 112 112 (12845056)
I0925 02:01:43.553546  9442 layer_factory.hpp:78] Creating layer relu2_2
I0925 02:01:43.553551  9442 net.cpp:69] Creating Layer relu2_2
I0925 02:01:43.553557  9442 net.cpp:396] relu2_2 <- conv2_2
I0925 02:01:43.553563  9442 net.cpp:347] relu2_2 -> conv2_2 (in-place)
I0925 02:01:43.553570  9442 net.cpp:98] Setting up relu2_2
I0925 02:01:43.553575  9442 net.cpp:105] Top shape: 8 128 112 112 (12845056)
I0925 02:01:43.553588  9442 layer_factory.hpp:78] Creating layer pool2
I0925 02:01:43.553594  9442 net.cpp:69] Creating Layer pool2
I0925 02:01:43.553599  9442 net.cpp:396] pool2 <- conv2_2
I0925 02:01:43.553606  9442 net.cpp:358] pool2 -> pool2
I0925 02:01:43.553612  9442 net.cpp:98] Setting up pool2
I0925 02:01:43.553618  9442 net.cpp:105] Top shape: 8 128 56 56 (3211264)
I0925 02:01:43.553623  9442 layer_factory.hpp:78] Creating layer conv3_1
I0925 02:01:43.553628  9442 net.cpp:69] Creating Layer conv3_1
I0925 02:01:43.553633  9442 net.cpp:396] conv3_1 <- pool2
I0925 02:01:43.553639  9442 net.cpp:358] conv3_1 -> conv3_1
I0925 02:01:43.553645  9442 net.cpp:98] Setting up conv3_1
I0925 02:01:43.553987  9442 net.cpp:105] Top shape: 8 256 56 56 (6422528)
I0925 02:01:43.554004  9442 layer_factory.hpp:78] Creating layer bn3_1
I0925 02:01:43.554018  9442 net.cpp:69] Creating Layer bn3_1
I0925 02:01:43.554026  9442 net.cpp:396] bn3_1 <- conv3_1
I0925 02:01:43.554038  9442 net.cpp:347] bn3_1 -> conv3_1 (in-place)
I0925 02:01:43.554047  9442 net.cpp:98] Setting up bn3_1
I0925 02:01:43.554069  9442 net.cpp:105] Top shape: 8 256 56 56 (6422528)
I0925 02:01:43.554081  9442 layer_factory.hpp:78] Creating layer relu3_1
I0925 02:01:43.554091  9442 net.cpp:69] Creating Layer relu3_1
I0925 02:01:43.554568  9442 net.cpp:396] relu3_1 <- conv3_1
I0925 02:01:43.554581  9442 net.cpp:347] relu3_1 -> conv3_1 (in-place)
I0925 02:01:43.554589  9442 net.cpp:98] Setting up relu3_1
I0925 02:01:43.554594  9442 net.cpp:105] Top shape: 8 256 56 56 (6422528)
I0925 02:01:43.554600  9442 layer_factory.hpp:78] Creating layer conv3_2
I0925 02:01:43.554605  9442 net.cpp:69] Creating Layer conv3_2
I0925 02:01:43.554625  9442 net.cpp:396] conv3_2 <- conv3_1
I0925 02:01:43.554635  9442 net.cpp:358] conv3_2 -> conv3_2
I0925 02:01:43.554641  9442 net.cpp:98] Setting up conv3_2
I0925 02:01:43.556208  9442 net.cpp:105] Top shape: 8 256 56 56 (6422528)
I0925 02:01:43.556234  9442 layer_factory.hpp:78] Creating layer bn3_2
I0925 02:01:43.556242  9442 net.cpp:69] Creating Layer bn3_2
I0925 02:01:43.556254  9442 net.cpp:396] bn3_2 <- conv3_2
I0925 02:01:43.556267  9442 net.cpp:347] bn3_2 -> conv3_2 (in-place)
I0925 02:01:43.556277  9442 net.cpp:98] Setting up bn3_2
I0925 02:01:43.556293  9442 net.cpp:105] Top shape: 8 256 56 56 (6422528)
I0925 02:01:43.556300  9442 layer_factory.hpp:78] Creating layer relu3_2
I0925 02:01:43.556306  9442 net.cpp:69] Creating Layer relu3_2
I0925 02:01:43.556313  9442 net.cpp:396] relu3_2 <- conv3_2
I0925 02:01:43.556318  9442 net.cpp:347] relu3_2 -> conv3_2 (in-place)
I0925 02:01:43.556324  9442 net.cpp:98] Setting up relu3_2
I0925 02:01:43.556329  9442 net.cpp:105] Top shape: 8 256 56 56 (6422528)
I0925 02:01:43.556334  9442 layer_factory.hpp:78] Creating layer conv3_3
I0925 02:01:43.556341  9442 net.cpp:69] Creating Layer conv3_3
I0925 02:01:43.556345  9442 net.cpp:396] conv3_3 <- conv3_2
I0925 02:01:43.556351  9442 net.cpp:358] conv3_3 -> conv3_3
I0925 02:01:43.556359  9442 net.cpp:98] Setting up conv3_3
I0925 02:01:43.557042  9442 net.cpp:105] Top shape: 8 256 56 56 (6422528)
I0925 02:01:43.557056  9442 layer_factory.hpp:78] Creating layer bn3_3
I0925 02:01:43.557062  9442 net.cpp:69] Creating Layer bn3_3
I0925 02:01:43.557067  9442 net.cpp:396] bn3_3 <- conv3_3
I0925 02:01:43.557072  9442 net.cpp:347] bn3_3 -> conv3_3 (in-place)
I0925 02:01:43.557080  9442 net.cpp:98] Setting up bn3_3
I0925 02:01:43.557099  9442 net.cpp:105] Top shape: 8 256 56 56 (6422528)
I0925 02:01:43.557107  9442 layer_factory.hpp:78] Creating layer relu3_3
I0925 02:01:43.557113  9442 net.cpp:69] Creating Layer relu3_3
I0925 02:01:43.557118  9442 net.cpp:396] relu3_3 <- conv3_3
I0925 02:01:43.557123  9442 net.cpp:347] relu3_3 -> conv3_3 (in-place)
I0925 02:01:43.557131  9442 net.cpp:98] Setting up relu3_3
I0925 02:01:43.557134  9442 net.cpp:105] Top shape: 8 256 56 56 (6422528)
I0925 02:01:43.557139  9442 layer_factory.hpp:78] Creating layer pool3
I0925 02:01:43.557145  9442 net.cpp:69] Creating Layer pool3
I0925 02:01:43.557152  9442 net.cpp:396] pool3 <- conv3_3
I0925 02:01:43.557157  9442 net.cpp:358] pool3 -> pool3
I0925 02:01:43.557163  9442 net.cpp:98] Setting up pool3
I0925 02:01:43.557169  9442 net.cpp:105] Top shape: 8 256 28 28 (1605632)
I0925 02:01:43.557174  9442 layer_factory.hpp:78] Creating layer conv4_1
I0925 02:01:43.557180  9442 net.cpp:69] Creating Layer conv4_1
I0925 02:01:43.557185  9442 net.cpp:396] conv4_1 <- pool3
I0925 02:01:43.557193  9442 net.cpp:358] conv4_1 -> conv4_1
I0925 02:01:43.557199  9442 net.cpp:98] Setting up conv4_1
I0925 02:01:43.559986  9442 net.cpp:105] Top shape: 8 512 28 28 (3211264)
I0925 02:01:43.560014  9442 layer_factory.hpp:78] Creating layer bn4_1
I0925 02:01:43.560022  9442 net.cpp:69] Creating Layer bn4_1
I0925 02:01:43.560027  9442 net.cpp:396] bn4_1 <- conv4_1
I0925 02:01:43.560035  9442 net.cpp:347] bn4_1 -> conv4_1 (in-place)
I0925 02:01:43.560042  9442 net.cpp:98] Setting up bn4_1
I0925 02:01:43.560056  9442 net.cpp:105] Top shape: 8 512 28 28 (3211264)
I0925 02:01:43.560063  9442 layer_factory.hpp:78] Creating layer relu4_1
I0925 02:01:43.560070  9442 net.cpp:69] Creating Layer relu4_1
I0925 02:01:43.560076  9442 net.cpp:396] relu4_1 <- conv4_1
I0925 02:01:43.560081  9442 net.cpp:347] relu4_1 -> conv4_1 (in-place)
I0925 02:01:43.560087  9442 net.cpp:98] Setting up relu4_1
I0925 02:01:43.560091  9442 net.cpp:105] Top shape: 8 512 28 28 (3211264)
I0925 02:01:43.560097  9442 layer_factory.hpp:78] Creating layer conv4_2
I0925 02:01:43.560103  9442 net.cpp:69] Creating Layer conv4_2
I0925 02:01:43.560107  9442 net.cpp:396] conv4_2 <- conv4_1
I0925 02:01:43.560113  9442 net.cpp:358] conv4_2 -> conv4_2
I0925 02:01:43.560122  9442 net.cpp:98] Setting up conv4_2
I0925 02:01:43.569214  9442 net.cpp:105] Top shape: 8 512 28 28 (3211264)
I0925 02:01:43.569249  9442 layer_factory.hpp:78] Creating layer bn4_2
I0925 02:01:43.569259  9442 net.cpp:69] Creating Layer bn4_2
I0925 02:01:43.569265  9442 net.cpp:396] bn4_2 <- conv4_2
I0925 02:01:43.569273  9442 net.cpp:347] bn4_2 -> conv4_2 (in-place)
I0925 02:01:43.569283  9442 net.cpp:98] Setting up bn4_2
I0925 02:01:43.569324  9442 net.cpp:105] Top shape: 8 512 28 28 (3211264)
I0925 02:01:43.569789  9442 layer_factory.hpp:78] Creating layer relu4_2
I0925 02:01:43.569807  9442 net.cpp:69] Creating Layer relu4_2
I0925 02:01:43.569813  9442 net.cpp:396] relu4_2 <- conv4_2
I0925 02:01:43.569818  9442 net.cpp:347] relu4_2 -> conv4_2 (in-place)
I0925 02:01:43.569825  9442 net.cpp:98] Setting up relu4_2
I0925 02:01:43.569830  9442 net.cpp:105] Top shape: 8 512 28 28 (3211264)
I0925 02:01:43.569834  9442 layer_factory.hpp:78] Creating layer conv4_3
I0925 02:01:43.569841  9442 net.cpp:69] Creating Layer conv4_3
I0925 02:01:43.569845  9442 net.cpp:396] conv4_3 <- conv4_2
I0925 02:01:43.569850  9442 net.cpp:358] conv4_3 -> conv4_3
I0925 02:01:43.569857  9442 net.cpp:98] Setting up conv4_3
I0925 02:01:43.576462  9442 net.cpp:105] Top shape: 8 512 28 28 (3211264)
I0925 02:01:43.576490  9442 layer_factory.hpp:78] Creating layer bn4_3
I0925 02:01:43.576503  9442 net.cpp:69] Creating Layer bn4_3
I0925 02:01:43.576508  9442 net.cpp:396] bn4_3 <- conv4_3
I0925 02:01:43.576516  9442 net.cpp:347] bn4_3 -> conv4_3 (in-place)
I0925 02:01:43.576525  9442 net.cpp:98] Setting up bn4_3
I0925 02:01:43.576544  9442 net.cpp:105] Top shape: 8 512 28 28 (3211264)
I0925 02:01:43.576560  9442 layer_factory.hpp:78] Creating layer relu4_3
I0925 02:01:43.576581  9442 net.cpp:69] Creating Layer relu4_3
I0925 02:01:43.577038  9442 net.cpp:396] relu4_3 <- conv4_3
I0925 02:01:43.577052  9442 net.cpp:347] relu4_3 -> conv4_3 (in-place)
I0925 02:01:43.577060  9442 net.cpp:98] Setting up relu4_3
I0925 02:01:43.577065  9442 net.cpp:105] Top shape: 8 512 28 28 (3211264)
I0925 02:01:43.577069  9442 layer_factory.hpp:78] Creating layer pool4
I0925 02:01:43.577075  9442 net.cpp:69] Creating Layer pool4
I0925 02:01:43.577080  9442 net.cpp:396] pool4 <- conv4_3
I0925 02:01:43.577085  9442 net.cpp:358] pool4 -> pool4
I0925 02:01:43.577093  9442 net.cpp:98] Setting up pool4
I0925 02:01:43.577100  9442 net.cpp:105] Top shape: 8 512 14 14 (802816)
I0925 02:01:43.577105  9442 layer_factory.hpp:78] Creating layer conv5_1
I0925 02:01:43.577110  9442 net.cpp:69] Creating Layer conv5_1
I0925 02:01:43.577114  9442 net.cpp:396] conv5_1 <- pool4
I0925 02:01:43.577122  9442 net.cpp:358] conv5_1 -> conv5_1
I0925 02:01:43.577128  9442 net.cpp:98] Setting up conv5_1
I0925 02:01:43.584041  9442 net.cpp:105] Top shape: 8 512 14 14 (802816)
I0925 02:01:43.584085  9442 layer_factory.hpp:78] Creating layer bn5_1
I0925 02:01:43.584123  9442 net.cpp:69] Creating Layer bn5_1
I0925 02:01:43.584132  9442 net.cpp:396] bn5_1 <- conv5_1
I0925 02:01:43.584141  9442 net.cpp:347] bn5_1 -> conv5_1 (in-place)
I0925 02:01:43.584148  9442 net.cpp:98] Setting up bn5_1
I0925 02:01:43.584158  9442 net.cpp:105] Top shape: 8 512 14 14 (802816)
I0925 02:01:43.584166  9442 layer_factory.hpp:78] Creating layer relu5_1
I0925 02:01:43.584172  9442 net.cpp:69] Creating Layer relu5_1
I0925 02:01:43.584182  9442 net.cpp:396] relu5_1 <- conv5_1
I0925 02:01:43.584187  9442 net.cpp:347] relu5_1 -> conv5_1 (in-place)
I0925 02:01:43.584194  9442 net.cpp:98] Setting up relu5_1
I0925 02:01:43.584199  9442 net.cpp:105] Top shape: 8 512 14 14 (802816)
I0925 02:01:43.584203  9442 layer_factory.hpp:78] Creating layer conv5_2
I0925 02:01:43.584209  9442 net.cpp:69] Creating Layer conv5_2
I0925 02:01:43.584213  9442 net.cpp:396] conv5_2 <- conv5_1
I0925 02:01:43.584311  9442 net.cpp:358] conv5_2 -> conv5_2
I0925 02:01:43.584329  9442 net.cpp:98] Setting up conv5_2
I0925 02:01:43.590179  9442 net.cpp:105] Top shape: 8 512 14 14 (802816)
I0925 02:01:43.590219  9442 layer_factory.hpp:78] Creating layer bn5_2
I0925 02:01:43.590241  9442 net.cpp:69] Creating Layer bn5_2
I0925 02:01:43.590701  9442 net.cpp:396] bn5_2 <- conv5_2
I0925 02:01:43.590729  9442 net.cpp:347] bn5_2 -> conv5_2 (in-place)
I0925 02:01:43.590739  9442 net.cpp:98] Setting up bn5_2
I0925 02:01:43.590754  9442 net.cpp:105] Top shape: 8 512 14 14 (802816)
I0925 02:01:43.590761  9442 layer_factory.hpp:78] Creating layer relu5_2
I0925 02:01:43.590769  9442 net.cpp:69] Creating Layer relu5_2
I0925 02:01:43.590772  9442 net.cpp:396] relu5_2 <- conv5_2
I0925 02:01:43.590777  9442 net.cpp:347] relu5_2 -> conv5_2 (in-place)
I0925 02:01:43.590782  9442 net.cpp:98] Setting up relu5_2
I0925 02:01:43.590787  9442 net.cpp:105] Top shape: 8 512 14 14 (802816)
I0925 02:01:43.590791  9442 layer_factory.hpp:78] Creating layer conv5_3
I0925 02:01:43.590797  9442 net.cpp:69] Creating Layer conv5_3
I0925 02:01:43.590801  9442 net.cpp:396] conv5_3 <- conv5_2
I0925 02:01:43.590807  9442 net.cpp:358] conv5_3 -> conv5_3
I0925 02:01:43.590814  9442 net.cpp:98] Setting up conv5_3
I0925 02:01:43.600261  9442 net.cpp:105] Top shape: 8 512 14 14 (802816)
I0925 02:01:43.600330  9442 layer_factory.hpp:78] Creating layer bn5_3
I0925 02:01:43.600352  9442 net.cpp:69] Creating Layer bn5_3
I0925 02:01:43.600358  9442 net.cpp:396] bn5_3 <- conv5_3
I0925 02:01:43.600365  9442 net.cpp:347] bn5_3 -> conv5_3 (in-place)
I0925 02:01:43.600374  9442 net.cpp:98] Setting up bn5_3
I0925 02:01:43.600386  9442 net.cpp:105] Top shape: 8 512 14 14 (802816)
I0925 02:01:43.600395  9442 layer_factory.hpp:78] Creating layer relu5_3
I0925 02:01:43.600404  9442 net.cpp:69] Creating Layer relu5_3
I0925 02:01:43.600409  9442 net.cpp:396] relu5_3 <- conv5_3
I0925 02:01:43.600414  9442 net.cpp:347] relu5_3 -> conv5_3 (in-place)
I0925 02:01:43.600421  9442 net.cpp:98] Setting up relu5_3
I0925 02:01:43.600430  9442 net.cpp:105] Top shape: 8 512 14 14 (802816)
I0925 02:01:43.600433  9442 layer_factory.hpp:78] Creating layer pool5
I0925 02:01:43.600440  9442 net.cpp:69] Creating Layer pool5
I0925 02:01:43.600445  9442 net.cpp:396] pool5 <- conv5_3
I0925 02:01:43.600450  9442 net.cpp:358] pool5 -> pool5
I0925 02:01:43.600456  9442 net.cpp:98] Setting up pool5
I0925 02:01:43.600461  9442 net.cpp:105] Top shape: 8 512 7 7 (200704)
I0925 02:01:43.600468  9442 layer_factory.hpp:78] Creating layer fc6
I0925 02:01:43.600533  9442 net.cpp:69] Creating Layer fc6
I0925 02:01:43.600548  9442 net.cpp:396] fc6 <- pool5
I0925 02:01:43.600556  9442 net.cpp:358] fc6 -> fc6
I0925 02:01:43.600564  9442 net.cpp:98] Setting up fc6
I0925 02:01:43.967360  9442 net.cpp:105] Top shape: 8 4096 1 1 (32768)
I0925 02:01:43.967394  9442 layer_factory.hpp:78] Creating layer bnfc6
I0925 02:01:43.967406  9442 net.cpp:69] Creating Layer bnfc6
I0925 02:01:43.967413  9442 net.cpp:396] bnfc6 <- fc6
I0925 02:01:43.967422  9442 net.cpp:347] bnfc6 -> fc6 (in-place)
I0925 02:01:43.967432  9442 net.cpp:98] Setting up bnfc6
I0925 02:01:43.967453  9442 net.cpp:105] Top shape: 8 4096 1 1 (32768)
I0925 02:01:43.967463  9442 layer_factory.hpp:78] Creating layer relu6
I0925 02:01:43.967468  9442 net.cpp:69] Creating Layer relu6
I0925 02:01:43.967473  9442 net.cpp:396] relu6 <- fc6
I0925 02:01:43.967478  9442 net.cpp:347] relu6 -> fc6 (in-place)
I0925 02:01:43.967483  9442 net.cpp:98] Setting up relu6
I0925 02:01:43.967494  9442 net.cpp:105] Top shape: 8 4096 1 1 (32768)
I0925 02:01:43.967502  9442 layer_factory.hpp:78] Creating layer fc7
I0925 02:01:43.967515  9442 net.cpp:69] Creating Layer fc7
I0925 02:01:43.967524  9442 net.cpp:396] fc7 <- fc6
I0925 02:01:43.967532  9442 net.cpp:358] fc7 -> fc7
I0925 02:01:43.967543  9442 net.cpp:98] Setting up fc7
I0925 02:01:44.006229  9442 net.cpp:105] Top shape: 8 4096 1 1 (32768)
I0925 02:01:44.006264  9442 layer_factory.hpp:78] Creating layer bnfc7
I0925 02:01:44.006279  9442 net.cpp:69] Creating Layer bnfc7
I0925 02:01:44.006288  9442 net.cpp:396] bnfc7 <- fc7
I0925 02:01:44.006299  9442 net.cpp:347] bnfc7 -> fc7 (in-place)
I0925 02:01:44.006310  9442 net.cpp:98] Setting up bnfc7
I0925 02:01:44.006336  9442 net.cpp:105] Top shape: 8 4096 1 1 (32768)
I0925 02:01:44.006348  9442 layer_factory.hpp:78] Creating layer relu7
I0925 02:01:44.006379  9442 net.cpp:69] Creating Layer relu7
I0925 02:01:44.006387  9442 net.cpp:396] relu7 <- fc7
I0925 02:01:44.006395  9442 net.cpp:347] relu7 -> fc7 (in-place)
I0925 02:01:44.006405  9442 net.cpp:98] Setting up relu7
I0925 02:01:44.006412  9442 net.cpp:105] Top shape: 8 4096 1 1 (32768)
I0925 02:01:44.006419  9442 layer_factory.hpp:78] Creating layer fc6-deconv
I0925 02:01:44.006433  9442 net.cpp:69] Creating Layer fc6-deconv
I0925 02:01:44.006441  9442 net.cpp:396] fc6-deconv <- fc7
I0925 02:01:44.006453  9442 net.cpp:358] fc6-deconv -> fc6-deconv
I0925 02:01:44.006464  9442 net.cpp:98] Setting up fc6-deconv
I0925 02:01:46.303954  9442 net.cpp:105] Top shape: 8 512 7 7 (200704)
I0925 02:01:46.303982  9442 layer_factory.hpp:78] Creating layer fc6-deconv-bn
I0925 02:01:46.303992  9442 net.cpp:69] Creating Layer fc6-deconv-bn
I0925 02:01:46.303997  9442 net.cpp:396] fc6-deconv-bn <- fc6-deconv
I0925 02:01:46.304005  9442 net.cpp:347] fc6-deconv-bn -> fc6-deconv (in-place)
I0925 02:01:46.304013  9442 net.cpp:98] Setting up fc6-deconv-bn
I0925 02:01:46.304026  9442 net.cpp:105] Top shape: 8 512 7 7 (200704)
I0925 02:01:46.304033  9442 layer_factory.hpp:78] Creating layer fc6-deconv-relu
I0925 02:01:46.304039  9442 net.cpp:69] Creating Layer fc6-deconv-relu
I0925 02:01:46.304044  9442 net.cpp:396] fc6-deconv-relu <- fc6-deconv
I0925 02:01:46.304049  9442 net.cpp:347] fc6-deconv-relu -> fc6-deconv (in-place)
I0925 02:01:46.304054  9442 net.cpp:98] Setting up fc6-deconv-relu
I0925 02:01:46.304059  9442 net.cpp:105] Top shape: 8 512 7 7 (200704)
I0925 02:01:46.304066  9442 layer_factory.hpp:78] Creating layer unpool5
I0925 02:01:46.304074  9442 net.cpp:69] Creating Layer unpool5
I0925 02:01:46.304078  9442 net.cpp:396] unpool5 <- fc6-deconv
I0925 02:01:46.304085  9442 net.cpp:358] unpool5 -> unpool5
I0925 02:01:46.304091  9442 net.cpp:98] Setting up unpool5
I0925 02:01:46.304096  9442 net.cpp:105] Top shape: 8 512 14 14 (802816)
I0925 02:01:46.304101  9442 layer_factory.hpp:78] Creating layer deconv5_1
I0925 02:01:46.304108  9442 net.cpp:69] Creating Layer deconv5_1
I0925 02:01:46.304113  9442 net.cpp:396] deconv5_1 <- unpool5
I0925 02:01:46.304119  9442 net.cpp:358] deconv5_1 -> deconv5_1
I0925 02:01:46.304126  9442 net.cpp:98] Setting up deconv5_1
I0925 02:01:46.353240  9442 net.cpp:105] Top shape: 8 512 14 14 (802816)
I0925 02:01:46.353268  9442 layer_factory.hpp:78] Creating layer debn5_1
I0925 02:01:46.353279  9442 net.cpp:69] Creating Layer debn5_1
I0925 02:01:46.353286  9442 net.cpp:396] debn5_1 <- deconv5_1
I0925 02:01:46.353293  9442 net.cpp:347] debn5_1 -> deconv5_1 (in-place)
I0925 02:01:46.353303  9442 net.cpp:98] Setting up debn5_1
I0925 02:01:46.353314  9442 net.cpp:105] Top shape: 8 512 14 14 (802816)
I0925 02:01:46.353320  9442 layer_factory.hpp:78] Creating layer derelu5_1
I0925 02:01:46.353329  9442 net.cpp:69] Creating Layer derelu5_1
I0925 02:01:46.353335  9442 net.cpp:396] derelu5_1 <- deconv5_1
I0925 02:01:46.353340  9442 net.cpp:347] derelu5_1 -> deconv5_1 (in-place)
I0925 02:01:46.353345  9442 net.cpp:98] Setting up derelu5_1
I0925 02:01:46.353351  9442 net.cpp:105] Top shape: 8 512 14 14 (802816)
I0925 02:01:46.353356  9442 layer_factory.hpp:78] Creating layer deconv5_2
I0925 02:01:46.353363  9442 net.cpp:69] Creating Layer deconv5_2
I0925 02:01:46.353368  9442 net.cpp:396] deconv5_2 <- deconv5_1
I0925 02:01:46.353374  9442 net.cpp:358] deconv5_2 -> deconv5_2
I0925 02:01:46.353379  9442 net.cpp:98] Setting up deconv5_2
I0925 02:01:46.405030  9442 net.cpp:105] Top shape: 8 512 14 14 (802816)
I0925 02:01:46.405051  9442 layer_factory.hpp:78] Creating layer debn5_2
I0925 02:01:46.405061  9442 net.cpp:69] Creating Layer debn5_2
I0925 02:01:46.405066  9442 net.cpp:396] debn5_2 <- deconv5_2
I0925 02:01:46.405073  9442 net.cpp:347] debn5_2 -> deconv5_2 (in-place)
I0925 02:01:46.405081  9442 net.cpp:98] Setting up debn5_2
I0925 02:01:46.405092  9442 net.cpp:105] Top shape: 8 512 14 14 (802816)
I0925 02:01:46.405098  9442 layer_factory.hpp:78] Creating layer derelu5_2
I0925 02:01:46.405122  9442 net.cpp:69] Creating Layer derelu5_2
I0925 02:01:46.405128  9442 net.cpp:396] derelu5_2 <- deconv5_2
I0925 02:01:46.405133  9442 net.cpp:347] derelu5_2 -> deconv5_2 (in-place)
I0925 02:01:46.405138  9442 net.cpp:98] Setting up derelu5_2
I0925 02:01:46.405143  9442 net.cpp:105] Top shape: 8 512 14 14 (802816)
I0925 02:01:46.405148  9442 layer_factory.hpp:78] Creating layer deconv5_3
I0925 02:01:46.405156  9442 net.cpp:69] Creating Layer deconv5_3
I0925 02:01:46.405161  9442 net.cpp:396] deconv5_3 <- deconv5_2
I0925 02:01:46.405167  9442 net.cpp:358] deconv5_3 -> deconv5_3
I0925 02:01:46.405174  9442 net.cpp:98] Setting up deconv5_3
I0925 02:01:46.455606  9442 net.cpp:105] Top shape: 8 512 14 14 (802816)
I0925 02:01:46.455631  9442 layer_factory.hpp:78] Creating layer debn5_3
I0925 02:01:46.455639  9442 net.cpp:69] Creating Layer debn5_3
I0925 02:01:46.455646  9442 net.cpp:396] debn5_3 <- deconv5_3
I0925 02:01:46.455656  9442 net.cpp:347] debn5_3 -> deconv5_3 (in-place)
I0925 02:01:46.455663  9442 net.cpp:98] Setting up debn5_3
I0925 02:01:46.455674  9442 net.cpp:105] Top shape: 8 512 14 14 (802816)
I0925 02:01:46.455682  9442 layer_factory.hpp:78] Creating layer derelu5_3
I0925 02:01:46.455688  9442 net.cpp:69] Creating Layer derelu5_3
I0925 02:01:46.455693  9442 net.cpp:396] derelu5_3 <- deconv5_3
I0925 02:01:46.455698  9442 net.cpp:347] derelu5_3 -> deconv5_3 (in-place)
I0925 02:01:46.455704  9442 net.cpp:98] Setting up derelu5_3
I0925 02:01:46.455711  9442 net.cpp:105] Top shape: 8 512 14 14 (802816)
I0925 02:01:46.455716  9442 layer_factory.hpp:78] Creating layer unpool4
I0925 02:01:46.455726  9442 net.cpp:69] Creating Layer unpool4
I0925 02:01:46.455731  9442 net.cpp:396] unpool4 <- deconv5_3
I0925 02:01:46.455737  9442 net.cpp:358] unpool4 -> unpool4
I0925 02:01:46.455744  9442 net.cpp:98] Setting up unpool4
I0925 02:01:46.455749  9442 net.cpp:105] Top shape: 8 512 28 28 (3211264)
I0925 02:01:46.455754  9442 layer_factory.hpp:78] Creating layer deconv4_1
I0925 02:01:46.455761  9442 net.cpp:69] Creating Layer deconv4_1
I0925 02:01:46.455766  9442 net.cpp:396] deconv4_1 <- unpool4
I0925 02:01:46.455773  9442 net.cpp:358] deconv4_1 -> deconv4_1
I0925 02:01:46.455780  9442 net.cpp:98] Setting up deconv4_1
I0925 02:01:46.507650  9442 net.cpp:105] Top shape: 8 512 28 28 (3211264)
I0925 02:01:46.507670  9442 layer_factory.hpp:78] Creating layer debn4_1
I0925 02:01:46.507680  9442 net.cpp:69] Creating Layer debn4_1
I0925 02:01:46.507686  9442 net.cpp:396] debn4_1 <- deconv4_1
I0925 02:01:46.507694  9442 net.cpp:347] debn4_1 -> deconv4_1 (in-place)
I0925 02:01:46.507700  9442 net.cpp:98] Setting up debn4_1
I0925 02:01:46.507714  9442 net.cpp:105] Top shape: 8 512 28 28 (3211264)
I0925 02:01:46.507721  9442 layer_factory.hpp:78] Creating layer derelu4_1
I0925 02:01:46.507727  9442 net.cpp:69] Creating Layer derelu4_1
I0925 02:01:46.507731  9442 net.cpp:396] derelu4_1 <- deconv4_1
I0925 02:01:46.507736  9442 net.cpp:347] derelu4_1 -> deconv4_1 (in-place)
I0925 02:01:46.507745  9442 net.cpp:98] Setting up derelu4_1
I0925 02:01:46.507750  9442 net.cpp:105] Top shape: 8 512 28 28 (3211264)
I0925 02:01:46.507755  9442 layer_factory.hpp:78] Creating layer deconv4_2
I0925 02:01:46.507761  9442 net.cpp:69] Creating Layer deconv4_2
I0925 02:01:46.507766  9442 net.cpp:396] deconv4_2 <- deconv4_1
I0925 02:01:46.507773  9442 net.cpp:358] deconv4_2 -> deconv4_2
I0925 02:01:46.507781  9442 net.cpp:98] Setting up deconv4_2
I0925 02:01:46.558123  9442 net.cpp:105] Top shape: 8 512 28 28 (3211264)
I0925 02:01:46.558143  9442 layer_factory.hpp:78] Creating layer debn4_2
I0925 02:01:46.558153  9442 net.cpp:69] Creating Layer debn4_2
I0925 02:01:46.558159  9442 net.cpp:396] debn4_2 <- deconv4_2
I0925 02:01:46.558167  9442 net.cpp:347] debn4_2 -> deconv4_2 (in-place)
I0925 02:01:46.558174  9442 net.cpp:98] Setting up debn4_2
I0925 02:01:46.558187  9442 net.cpp:105] Top shape: 8 512 28 28 (3211264)
I0925 02:01:46.558194  9442 layer_factory.hpp:78] Creating layer derelu4_2
I0925 02:01:46.558200  9442 net.cpp:69] Creating Layer derelu4_2
I0925 02:01:46.558221  9442 net.cpp:396] derelu4_2 <- deconv4_2
I0925 02:01:46.558230  9442 net.cpp:347] derelu4_2 -> deconv4_2 (in-place)
I0925 02:01:46.558236  9442 net.cpp:98] Setting up derelu4_2
I0925 02:01:46.558243  9442 net.cpp:105] Top shape: 8 512 28 28 (3211264)
I0925 02:01:46.558248  9442 layer_factory.hpp:78] Creating layer deconv4_3
I0925 02:01:46.558255  9442 net.cpp:69] Creating Layer deconv4_3
I0925 02:01:46.558259  9442 net.cpp:396] deconv4_3 <- deconv4_2
I0925 02:01:46.558265  9442 net.cpp:358] deconv4_3 -> deconv4_3
I0925 02:01:46.558272  9442 net.cpp:98] Setting up deconv4_3
I0925 02:01:46.584302  9442 net.cpp:105] Top shape: 8 256 28 28 (1605632)
I0925 02:01:46.584316  9442 layer_factory.hpp:78] Creating layer debn4_3
I0925 02:01:46.584322  9442 net.cpp:69] Creating Layer debn4_3
I0925 02:01:46.584327  9442 net.cpp:396] debn4_3 <- deconv4_3
I0925 02:01:46.584333  9442 net.cpp:347] debn4_3 -> deconv4_3 (in-place)
I0925 02:01:46.584338  9442 net.cpp:98] Setting up debn4_3
I0925 02:01:46.584353  9442 net.cpp:105] Top shape: 8 256 28 28 (1605632)
I0925 02:01:46.584359  9442 layer_factory.hpp:78] Creating layer derelu4_3
I0925 02:01:46.584367  9442 net.cpp:69] Creating Layer derelu4_3
I0925 02:01:46.584372  9442 net.cpp:396] derelu4_3 <- deconv4_3
I0925 02:01:46.584379  9442 net.cpp:347] derelu4_3 -> deconv4_3 (in-place)
I0925 02:01:46.584385  9442 net.cpp:98] Setting up derelu4_3
I0925 02:01:46.584389  9442 net.cpp:105] Top shape: 8 256 28 28 (1605632)
I0925 02:01:46.584393  9442 layer_factory.hpp:78] Creating layer unpool3
I0925 02:01:46.584399  9442 net.cpp:69] Creating Layer unpool3
I0925 02:01:46.584404  9442 net.cpp:396] unpool3 <- deconv4_3
I0925 02:01:46.584410  9442 net.cpp:358] unpool3 -> unpool3
I0925 02:01:46.584419  9442 net.cpp:98] Setting up unpool3
I0925 02:01:46.584426  9442 net.cpp:105] Top shape: 8 256 56 56 (6422528)
I0925 02:01:46.584431  9442 layer_factory.hpp:78] Creating layer deconv3_1
I0925 02:01:46.584439  9442 net.cpp:69] Creating Layer deconv3_1
I0925 02:01:46.584444  9442 net.cpp:396] deconv3_1 <- unpool3
I0925 02:01:46.584449  9442 net.cpp:358] deconv3_1 -> deconv3_1
I0925 02:01:46.584455  9442 net.cpp:98] Setting up deconv3_1
I0925 02:01:46.596161  9442 net.cpp:105] Top shape: 8 256 56 56 (6422528)
I0925 02:01:46.596173  9442 layer_factory.hpp:78] Creating layer debn3_1
I0925 02:01:46.596179  9442 net.cpp:69] Creating Layer debn3_1
I0925 02:01:46.596184  9442 net.cpp:396] debn3_1 <- deconv3_1
I0925 02:01:46.596190  9442 net.cpp:347] debn3_1 -> deconv3_1 (in-place)
I0925 02:01:46.596196  9442 net.cpp:98] Setting up debn3_1
I0925 02:01:46.596211  9442 net.cpp:105] Top shape: 8 256 56 56 (6422528)
I0925 02:01:46.596217  9442 layer_factory.hpp:78] Creating layer derelu3_1
I0925 02:01:46.596223  9442 net.cpp:69] Creating Layer derelu3_1
I0925 02:01:46.596227  9442 net.cpp:396] derelu3_1 <- deconv3_1
I0925 02:01:46.596232  9442 net.cpp:347] derelu3_1 -> deconv3_1 (in-place)
I0925 02:01:46.596237  9442 net.cpp:98] Setting up derelu3_1
I0925 02:01:46.596241  9442 net.cpp:105] Top shape: 8 256 56 56 (6422528)
I0925 02:01:46.596248  9442 layer_factory.hpp:78] Creating layer deconv3_2
I0925 02:01:46.596256  9442 net.cpp:69] Creating Layer deconv3_2
I0925 02:01:46.596261  9442 net.cpp:396] deconv3_2 <- deconv3_1
I0925 02:01:46.596267  9442 net.cpp:358] deconv3_2 -> deconv3_2
I0925 02:01:46.596274  9442 net.cpp:98] Setting up deconv3_2
I0925 02:01:46.607939  9442 net.cpp:105] Top shape: 8 256 56 56 (6422528)
I0925 02:01:46.607947  9442 layer_factory.hpp:78] Creating layer debn3_2
I0925 02:01:46.607954  9442 net.cpp:69] Creating Layer debn3_2
I0925 02:01:46.607959  9442 net.cpp:396] debn3_2 <- deconv3_2
I0925 02:01:46.607965  9442 net.cpp:347] debn3_2 -> deconv3_2 (in-place)
I0925 02:01:46.607974  9442 net.cpp:98] Setting up debn3_2
I0925 02:01:46.607987  9442 net.cpp:105] Top shape: 8 256 56 56 (6422528)
I0925 02:01:46.607993  9442 layer_factory.hpp:78] Creating layer derelu3_2
I0925 02:01:46.607998  9442 net.cpp:69] Creating Layer derelu3_2
I0925 02:01:46.608014  9442 net.cpp:396] derelu3_2 <- deconv3_2
I0925 02:01:46.608021  9442 net.cpp:347] derelu3_2 -> deconv3_2 (in-place)
I0925 02:01:46.608027  9442 net.cpp:98] Setting up derelu3_2
I0925 02:01:46.608032  9442 net.cpp:105] Top shape: 8 256 56 56 (6422528)
I0925 02:01:46.608038  9442 layer_factory.hpp:78] Creating layer deconv3_3
I0925 02:01:46.608045  9442 net.cpp:69] Creating Layer deconv3_3
I0925 02:01:46.608050  9442 net.cpp:396] deconv3_3 <- deconv3_2
I0925 02:01:46.608057  9442 net.cpp:358] deconv3_3 -> deconv3_3
I0925 02:01:46.608062  9442 net.cpp:98] Setting up deconv3_3
I0925 02:01:46.613900  9442 net.cpp:105] Top shape: 8 128 56 56 (3211264)
I0925 02:01:46.613909  9442 layer_factory.hpp:78] Creating layer debn3_3
I0925 02:01:46.613915  9442 net.cpp:69] Creating Layer debn3_3
I0925 02:01:46.613920  9442 net.cpp:396] debn3_3 <- deconv3_3
I0925 02:01:46.613927  9442 net.cpp:347] debn3_3 -> deconv3_3 (in-place)
I0925 02:01:46.613932  9442 net.cpp:98] Setting up debn3_3
I0925 02:01:46.613946  9442 net.cpp:105] Top shape: 8 128 56 56 (3211264)
I0925 02:01:46.613952  9442 layer_factory.hpp:78] Creating layer derelu3_3
I0925 02:01:46.613958  9442 net.cpp:69] Creating Layer derelu3_3
I0925 02:01:46.613963  9442 net.cpp:396] derelu3_3 <- deconv3_3
I0925 02:01:46.613968  9442 net.cpp:347] derelu3_3 -> deconv3_3 (in-place)
I0925 02:01:46.613973  9442 net.cpp:98] Setting up derelu3_3
I0925 02:01:46.613978  9442 net.cpp:105] Top shape: 8 128 56 56 (3211264)
I0925 02:01:46.613982  9442 layer_factory.hpp:78] Creating layer unpool2
I0925 02:01:46.613991  9442 net.cpp:69] Creating Layer unpool2
I0925 02:01:46.613996  9442 net.cpp:396] unpool2 <- deconv3_3
I0925 02:01:46.614002  9442 net.cpp:358] unpool2 -> unpool2
I0925 02:01:46.614008  9442 net.cpp:98] Setting up unpool2
I0925 02:01:46.614014  9442 net.cpp:105] Top shape: 8 128 112 112 (12845056)
I0925 02:01:46.614018  9442 layer_factory.hpp:78] Creating layer deconv2_1
I0925 02:01:46.614024  9442 net.cpp:69] Creating Layer deconv2_1
I0925 02:01:46.614028  9442 net.cpp:396] deconv2_1 <- unpool2
I0925 02:01:46.614035  9442 net.cpp:358] deconv2_1 -> deconv2_1
I0925 02:01:46.614042  9442 net.cpp:98] Setting up deconv2_1
I0925 02:01:46.616973  9442 net.cpp:105] Top shape: 8 128 112 112 (12845056)
I0925 02:01:46.616982  9442 layer_factory.hpp:78] Creating layer debn2_1
I0925 02:01:46.616989  9442 net.cpp:69] Creating Layer debn2_1
I0925 02:01:46.616994  9442 net.cpp:396] debn2_1 <- deconv2_1
I0925 02:01:46.616999  9442 net.cpp:347] debn2_1 -> deconv2_1 (in-place)
I0925 02:01:46.617005  9442 net.cpp:98] Setting up debn2_1
I0925 02:01:46.617035  9442 net.cpp:105] Top shape: 8 128 112 112 (12845056)
I0925 02:01:46.617043  9442 layer_factory.hpp:78] Creating layer derelu2_1
I0925 02:01:46.617049  9442 net.cpp:69] Creating Layer derelu2_1
I0925 02:01:46.617053  9442 net.cpp:396] derelu2_1 <- deconv2_1
I0925 02:01:46.617058  9442 net.cpp:347] derelu2_1 -> deconv2_1 (in-place)
I0925 02:01:46.617064  9442 net.cpp:98] Setting up derelu2_1
I0925 02:01:46.617069  9442 net.cpp:105] Top shape: 8 128 112 112 (12845056)
I0925 02:01:46.617074  9442 layer_factory.hpp:78] Creating layer deconv2_2
I0925 02:01:46.617079  9442 net.cpp:69] Creating Layer deconv2_2
I0925 02:01:46.617085  9442 net.cpp:396] deconv2_2 <- deconv2_1
I0925 02:01:46.617091  9442 net.cpp:358] deconv2_2 -> deconv2_2
I0925 02:01:46.617097  9442 net.cpp:98] Setting up deconv2_2
I0925 02:01:46.618576  9442 net.cpp:105] Top shape: 8 64 112 112 (6422528)
I0925 02:01:46.618583  9442 layer_factory.hpp:78] Creating layer debn2_2
I0925 02:01:46.618589  9442 net.cpp:69] Creating Layer debn2_2
I0925 02:01:46.618594  9442 net.cpp:396] debn2_2 <- deconv2_2
I0925 02:01:46.618599  9442 net.cpp:347] debn2_2 -> deconv2_2 (in-place)
I0925 02:01:46.618607  9442 net.cpp:98] Setting up debn2_2
I0925 02:01:46.618638  9442 net.cpp:105] Top shape: 8 64 112 112 (6422528)
I0925 02:01:46.618645  9442 layer_factory.hpp:78] Creating layer derelu2_2
I0925 02:01:46.618651  9442 net.cpp:69] Creating Layer derelu2_2
I0925 02:01:46.618656  9442 net.cpp:396] derelu2_2 <- deconv2_2
I0925 02:01:46.618667  9442 net.cpp:347] derelu2_2 -> deconv2_2 (in-place)
I0925 02:01:46.618674  9442 net.cpp:98] Setting up derelu2_2
I0925 02:01:46.618679  9442 net.cpp:105] Top shape: 8 64 112 112 (6422528)
I0925 02:01:46.618682  9442 layer_factory.hpp:78] Creating layer unpool1
I0925 02:01:46.618688  9442 net.cpp:69] Creating Layer unpool1
I0925 02:01:46.618693  9442 net.cpp:396] unpool1 <- deconv2_2
I0925 02:01:46.618700  9442 net.cpp:358] unpool1 -> unpool1
I0925 02:01:46.618705  9442 net.cpp:98] Setting up unpool1
I0925 02:01:46.618710  9442 net.cpp:105] Top shape: 8 64 224 224 (25690112)
I0925 02:01:46.618716  9442 layer_factory.hpp:78] Creating layer deconv1_1
I0925 02:01:46.618723  9442 net.cpp:69] Creating Layer deconv1_1
I0925 02:01:46.618728  9442 net.cpp:396] deconv1_1 <- unpool1
I0925 02:01:46.618734  9442 net.cpp:358] deconv1_1 -> deconv1_1
I0925 02:01:46.618741  9442 net.cpp:98] Setting up deconv1_1
I0925 02:01:46.619530  9442 net.cpp:105] Top shape: 8 64 224 224 (25690112)
I0925 02:01:46.619539  9442 layer_factory.hpp:78] Creating layer debn1_1
I0925 02:01:46.619547  9442 net.cpp:69] Creating Layer debn1_1
I0925 02:01:46.619552  9442 net.cpp:396] debn1_1 <- deconv1_1
I0925 02:01:46.619559  9442 net.cpp:347] debn1_1 -> deconv1_1 (in-place)
I0925 02:01:46.619565  9442 net.cpp:98] Setting up debn1_1
I0925 02:01:46.619668  9442 net.cpp:105] Top shape: 8 64 224 224 (25690112)
I0925 02:01:46.619675  9442 layer_factory.hpp:78] Creating layer derelu1_1
I0925 02:01:46.619681  9442 net.cpp:69] Creating Layer derelu1_1
I0925 02:01:46.619685  9442 net.cpp:396] derelu1_1 <- deconv1_1
I0925 02:01:46.619691  9442 net.cpp:347] derelu1_1 -> deconv1_1 (in-place)
I0925 02:01:46.619698  9442 net.cpp:98] Setting up derelu1_1
I0925 02:01:46.619702  9442 net.cpp:105] Top shape: 8 64 224 224 (25690112)
I0925 02:01:46.619707  9442 layer_factory.hpp:78] Creating layer deconv1_2
I0925 02:01:46.619714  9442 net.cpp:69] Creating Layer deconv1_2
I0925 02:01:46.619719  9442 net.cpp:396] deconv1_2 <- deconv1_1
I0925 02:01:46.619724  9442 net.cpp:358] deconv1_2 -> deconv1_2
I0925 02:01:46.619731  9442 net.cpp:98] Setting up deconv1_2
I0925 02:01:46.620522  9442 net.cpp:105] Top shape: 8 64 224 224 (25690112)
I0925 02:01:46.620530  9442 layer_factory.hpp:78] Creating layer debn1_2
I0925 02:01:46.620537  9442 net.cpp:69] Creating Layer debn1_2
I0925 02:01:46.620542  9442 net.cpp:396] debn1_2 <- deconv1_2
I0925 02:01:46.620548  9442 net.cpp:347] debn1_2 -> deconv1_2 (in-place)
I0925 02:01:46.620554  9442 net.cpp:98] Setting up debn1_2
I0925 02:01:46.620653  9442 net.cpp:105] Top shape: 8 64 224 224 (25690112)
I0925 02:01:46.620661  9442 layer_factory.hpp:78] Creating layer derelu1_2
I0925 02:01:46.620668  9442 net.cpp:69] Creating Layer derelu1_2
I0925 02:01:46.620673  9442 net.cpp:396] derelu1_2 <- deconv1_2
I0925 02:01:46.620679  9442 net.cpp:347] derelu1_2 -> deconv1_2 (in-place)
I0925 02:01:46.620685  9442 net.cpp:98] Setting up derelu1_2
I0925 02:01:46.620690  9442 net.cpp:105] Top shape: 8 64 224 224 (25690112)
I0925 02:01:46.620694  9442 layer_factory.hpp:78] Creating layer seg-score-voc
I0925 02:01:46.620702  9442 net.cpp:69] Creating Layer seg-score-voc
I0925 02:01:46.620707  9442 net.cpp:396] seg-score-voc <- deconv1_2
I0925 02:01:46.620713  9442 net.cpp:358] seg-score-voc -> seg-score
I0925 02:01:46.620720  9442 net.cpp:98] Setting up seg-score-voc
I0925 02:01:46.620805  9442 net.cpp:105] Top shape: 8 21 224 224 (8429568)
I0925 02:01:46.620812  9442 layer_factory.hpp:78] Creating layer seg-loss
I0925 02:01:46.621114  9442 net.cpp:69] Creating Layer seg-loss
I0925 02:01:46.621124  9442 net.cpp:396] seg-loss <- seg-score
I0925 02:01:46.621129  9442 net.cpp:396] seg-loss <- seg-label
I0925 02:01:46.621135  9442 net.cpp:358] seg-loss -> seg-loss
I0925 02:01:46.621142  9442 net.cpp:98] Setting up seg-loss
I0925 02:01:46.621150  9442 net.cpp:105] Top shape: 1 1 1 1 (1)
I0925 02:01:46.621155  9442 net.cpp:111]     with loss weight 1
I0925 02:01:46.621173  9442 net.cpp:172] seg-loss needs backward computation.
I0925 02:01:46.621186  9442 net.cpp:172] seg-score-voc needs backward computation.
I0925 02:01:46.621191  9442 net.cpp:172] derelu1_2 needs backward computation.
I0925 02:01:46.621196  9442 net.cpp:172] debn1_2 needs backward computation.
I0925 02:01:46.621199  9442 net.cpp:172] deconv1_2 needs backward computation.
…
I0925 02:01:46.623294  9442 net.cpp:277] The NetState phase (1) differed from the phase (0) specified by a rule in layer data
I0925 02:01:46.623661  9442 net.cpp:39] Initializing net from parameters: 
name: "stage_1_training"
layers {
  top: "data"
  top: "seg-label"
  name: "data"
  type: IMAGE_SEG_DATA
  image_data_param {
    source: "./stage_1_train_imgset/val_reduced_07.txt"
    batch_size: 8
    shuffle: true
    new_height: 250
    new_width: 250
    root_folder: "./VOC2012"
    label_type: PIXEL
  }
  include {
    phase: TEST
  }
  transform_param {
    mirror: true
    crop_size: 224
    mean_value: 104.008
    mean_value: 116.669
    mean_value: 122.675
  }
}
layers {
  bottom: "data"
  top: "conv1_1"
  name: "conv1_1"
  type: CONVOLUTION
  blobs_lr: 1
  blobs_lr: 2
  weight_decay: 1
  weight_decay: 0
  convolution_param {
    num_output: 64
    pad: 1
    kernel_size: 3
  }
}
layers {
  bottom: "conv1_1"
  top: "conv1_1"
  name: "bn1_1"
  type: BN
  bn_param {
    scale_filler {
      type: "constant"
      value: 1
    }
    shift_filler {
      type: "constant"
      value: 0.001
    }
  }
}
layers {
  bottom: "conv1_1"
  top: "conv1_1"
  name: "relu1_1"
  type: RELU
}
layers {
  bottom: "conv1_1"
  top: "conv1_2"
  name: "conv1_2"
  type: CONVOLUTION
  blobs_lr: 1
  blobs_lr: 2
  weight_decay: 1
  weight_decay: 0
  convolution_param {
    num_output: 64
    pad: 1
    kernel_size: 3
  }
}
layers {
  bottom: "conv1_2"
  top: "conv1_2"
  name: "bn1_2"
  type: BN
  bn_param {
    scale_filler {
      type: "constant"
      value: 1
    }
    shift_filler {
      type: "constant"
      value: 0.001
    }
  }
}
layers {
  bottom: "conv1_2"
  top: "conv1_2"
  name: "relu1_2"
  type: RELU
}
layers {
  bottom: "conv1_2"
  top: "pool1"
  name: "pool1"
  type: POOLING
  pooling_param {
    pool: AVE
    kernel_size: 2
    stride: 2
  }
}
layers {
  bottom: "pool1"
  top: "conv2_1"
  name: "conv2_1"
  type: CONVOLUTION
  blobs_lr: 1
  blobs_lr: 2
  weight_decay: 1
  weight_decay: 0
  convolution_param {
    num_output: 128
    pad: 1
    kernel_size: 3
  }
}
layers {
  bottom: "conv2_1"
  top: "conv2_1"
  name: "bn2_1"
  type: BN
  bn_param {
    scale_filler {
      type: "constant"
      value: 1
    }
    shift_filler {
      type: "constant"
      value: 0.001
    }
  }
}
layers {
  bottom: "conv2_1"
  top: "conv2_1"
  name: "relu2_1"
  type: RELU
}
layers {
  bottom: "conv2_1"
  top: "conv2_2"
  name: "conv2_2"
  type: CONVOLUTION
  blobs_lr: 1
  blobs_lr: 2
  weight_decay: 1
  weight_decay: 0
  convolution_param {
    num_output: 128
    pad: 1
    kernel_size: 3
  }
}
layers {
  bottom: "conv2_2"
  top: "conv2_2"
  name: "bn2_2"
  type: BN
  bn_param {
    scale_filler {
      type: "constant"
      value: 1
    }
    shift_filler {
      type: "constant"
      value: 0.001
    }
  }
}
layers {
  bottom: "conv2_2"
  top: "conv2_2"
  name: "relu2_2"
  type: RELU
}
layers {
  bottom: "conv2_2"
  top: "pool2"
  name: "pool2"
  type: POOLING
  pooling_param {
    pool: AVE
    kernel_size: 2
    stride: 2
  }
}
layers {
  bottom: "pool2"
  top: "conv3_1"
  name: "conv3_1"
  type: CONVOLUTION
  blobs_lr: 1
  blobs_lr: 2
  weight_decay: 1
  weight_decay: 0
  convolution_param {
    num_output: 256
    pad: 1
    kernel_size: 3
  }
}
layers {
  bottom: "conv3_1"
  top: "conv3_1"
  name: "bn3_1"
  type: BN
  bn_param {
    scale_filler {
      type: "constant"
      value: 1
    }
    shift_filler {
      type: "constant"
      value: 0.001
    }
  }
}
layers {
  bottom: "conv3_1"
  top: "conv3_1"
  name: "relu3_1"
  type: RELU
}
layers {
  bottom: "conv3_1"
  top: "conv3_2"
  name: "conv3_2"
  type: CONVOLUTION
  blobs_lr: 1
  blobs_lr: 2
  weight_decay: 1
  weight_decay: 0
  convolution_param {
    num_output: 256
    pad: 1
    kernel_size: 3
  }
}
layers {
  bottom: "conv3_2"
  top: "conv3_2"
  name: "bn3_2"
  type: BN
  bn_param {
    scale_filler {
      type: "constant"
      value: 1
    }
    shift_filler {
      type: "constant"
      value: 0.001
    }
  }
}
layers {
  bottom: "conv3_2"
  top: "conv3_2"
  name: "relu3_2"
  type: RELU
}
layers {
  bottom: "conv3_2"
  top: "conv3_3"
  name: "conv3_3"
  type: CONVOLUTION
  blobs_lr: 1
  blobs_lr: 2
  weight_decay: 1
  weight_decay: 0
  convolution_param {
    num_output: 256
    pad: 1
    kernel_size: 3
  }
}
layers {
  bottom: "conv3_3"
  top: "conv3_3"
  name: "bn3_3"
  type: BN
  bn_param {
    scale_filler {
      type: "constant"
      value: 1
    }
    shift_filler {
      type: "constant"
      value: 0.001
    }
  }
}
layers {
  bottom: "conv3_3"
  top: "conv3_3"
  name: "relu3_3"
  type: RELU
}
layers {
  bottom: "conv3_3"
  top: "pool3"
  name: "pool3"
  type: POOLING
  pooling_param {
    pool: AVE
    kernel_size: 2
    stride: 2
  }
}
layers {
  bottom: "pool3"
  top: "conv4_1"
  name: "conv4_1"
  type: CONVOLUTION
  blobs_lr: 1
  blobs_lr: 2
  weight_decay: 1
  weight_decay: 0
  convolution_param {
    num_output: 512
    pad: 1
    kernel_size: 3
  }
}
layers {
  bottom: "conv4_1"
  top: "conv4_1"
  name: "bn4_1"
  type: BN
  bn_param {
    scale_filler {
      type: "constant"
      value: 1
    }
    shift_filler {
      type: "constant"
      value: 0.001
    }
  }
}
layers {
  bottom: "conv4_1"
  top: "conv4_1"
  name: "relu4_1"
  type: RELU
}
layers {
  bottom: "conv4_1"
  top: "conv4_2"
  name: "conv4_2"
  type: CONVOLUTION
  blobs_lr: 1
  blobs_lr: 2
  weight_decay: 1
  weight_decay: 0
  convolution_param {
    num_output: 512
    pad: 1
    kernel_size: 3
  }
}
layers {
  bottom: "conv4_2"
  top: "conv4_2"
  name: "bn4_2"
  type: BN
  bn_param {
    scale_filler {
      type: "constant"
      value: 1
    }
    shift_filler {
      type: "constant"
      value: 0.001
    }
  }
}
layers {
  bottom: "conv4_2"
  top: "conv4_2"
  name: "relu4_2"
  type: RELU
}
layers {
  bottom: "conv4_2"
  top: "conv4_3"
  name: "conv4_3"
  type: CONVOLUTION
  blobs_lr: 1
  blobs_lr: 2
  weight_decay: 1
  weight_decay: 0
  convolution_param {
    num_output: 512
    pad: 1
    kernel_size: 3
  }
}
layers {
  bottom: "conv4_3"
  top: "conv4_3"
  name: "bn4_3"
  type: BN
  bn_param {
    scale_filler {
      type: "constant"
      value: 1
    }
    shift_filler {
      type: "constant"
      value: 0.001
    }
  }
}
layers {
  bottom: "conv4_3"
  top: "conv4_3"
  name: "relu4_3"
  type: RELU
}
layers {
  bottom: "conv4_3"
  top: "pool4"
  name: "pool4"
  type: POOLING
  pooling_param {
    pool: AVE
    kernel_size: 2
    stride: 2
  }
}
layers {
  bottom: "pool4"
  top: "conv5_1"
  name: "conv5_1"
  type: CONVOLUTION
  blobs_lr: 1
  blobs_lr: 2
  weight_decay: 1
  weight_decay: 0
  convolution_param {
    num_output: 512
    pad: 1
    kernel_size: 3
  }
}
layers {
  bottom: "conv5_1"
  top: "conv5_1"
  name: "bn5_1"
  type: BN
  bn_param {
    scale_filler {
      type: "constant"
      value: 1
    }
    shift_filler {
      type: "constant"
      value: 0.001
    }
  }
}
layers {
  bottom: "conv5_1"
  top: "conv5_1"
  name: "relu5_1"
  type: RELU
}
layers {
  bottom: "conv5_1"
  top: "conv5_2"
  name: "conv5_2"
  type: CONVOLUTION
  blobs_lr: 1
  blobs_lr: 2
  weight_decay: 1
  weight_decay: 0
  convolution_param {
    num_output: 512
    pad: 1
    kernel_size: 3
  }
}
layers {
  bottom: "conv5_2"
  top: "conv5_2"
  name: "bn5_2"
  type: BN
  bn_param {
    scale_filler {
      type: "constant"
      value: 1
    }
    shift_filler {
      type: "constant"
      value: 0.001
    }
  }
}
layers {
  bottom: "conv5_2"
  top: "conv5_2"
  name: "relu5_2"
  type: RELU
}
layers {
  bottom: "conv5_2"
  top: "conv5_3"
  name: "conv5_3"
  type: CONVOLUTION
  blobs_lr: 1
  blobs_lr: 2
  weight_decay: 1
  weight_decay: 0
  convolution_param {
    num_output: 512
    pad: 1
    kernel_size: 3
  }
}
layers {
  bottom: "conv5_3"
  top: "conv5_3"
  name: "bn5_3"
  type: BN
  bn_param {
    scale_filler {
      type: "constant"
      value: 1
    }
    shift_filler {
      type: "constant"
      value: 0.001
    }
  }
}
layers {
  bottom: "conv5_3"
  top: "conv5_3"
  name: "relu5_3"
  type: RELU
}
layers {
  bottom: "conv5_3"
  top: "pool5"
  name: "pool5"
  type: POOLING
  pooling_param {
    pool: AVE
    kernel_size: 2
    stride: 2
  }
}
layers {
  bottom: "pool5"
  top: "fc6"
  name: "fc6"
  type: CONVOLUTION
  blobs_lr: 1
  blobs_lr: 2
  weight_decay: 1
  weight_decay: 0
  convolution_param {
    num_output: 4096
    kernel_size: 7
  }
}
layers {
  bottom: "fc6"
  top: "fc6"
  name: "bnfc6"
  type: BN
  bn_param {
    scale_filler {
      type: "constant"
      value: 1
    }
    shift_filler {
      type: "constant"
      value: 0.001
    }
  }
}
layers {
  bottom: "fc6"
  top: "fc6"
  name: "relu6"
  type: RELU
}
layers {
  bottom: "fc6"
  top: "fc7"
  name: "fc7"
  type: CONVOLUTION
  blobs_lr: 1
  blobs_lr: 2
  weight_decay: 1
  weight_decay: 0
  convolution_param {
    num_output: 4096
    kernel_size: 1
  }
}
layers {
  bottom: "fc7"
  top: "fc7"
  name: "bnfc7"
  type: BN
  bn_param {
    scale_filler {
      type: "constant"
      value: 1
    }
    shift_filler {
      type: "constant"
      value: 0.001
    }
  }
}
layers {
  bottom: "fc7"
  top: "fc7"
  name: "relu7"
  type: RELU
}
layers {
  bottom: "fc7"
  top: "fc6-deconv"
  name: "fc6-deconv"
  type: DECONVOLUTION
  blobs_lr: 1
  blobs_lr: 2
  weight_decay: 1
  weight_decay: 0
  convolution_param {
    num_output: 512
    kernel_size: 7
    weight_filler {
      type: "gaussian"
      std: 0.01
    }
    bias_filler {
      type: "constant"
      value: 0
    }
  }
}
layers {
  bottom: "fc6-deconv"
  top: "fc6-deconv"
  name: "fc6-deconv-bn"
  type: BN
  bn_param {
    scale_filler {
      type: "constant"
      value: 1
    }
    shift_filler {
      type: "constant"
      value: 0.001
    }
  }
}
layers {
  bottom: "fc6-deconv"
  top: "fc6-deconv"
  name: "fc6-deconv-relu"
  type: RELU
}
layers {
  bottom: "fc6-deconv"
  top: "unpool5"
  name: "unpool5"
  type: UNPOOLING
  unpooling_param {
    unpool: AVE
    kernel_size: 2
    stride: 2
    unpool_size: 14
  }
}
layers {
  bottom: "unpool5"
  top: "deconv5_1"
  name: "deconv5_1"
  type: DECONVOLUTION
  blobs_lr: 1
  blobs_lr: 2
  weight_decay: 1
  weight_decay: 0
  convolution_param {
    num_output: 512
    pad: 1
    kernel_size: 3
    weight_filler {
      type: "gaussian"
      std: 0.01
    }
    bias_filler {
      type: "constant"
      value: 0
    }
  }
}
layers {
  bottom: "deconv5_1"
  top: "deconv5_1"
  name: "debn5_1"
  type: BN
  bn_param {
    scale_filler {
      type: "constant"
      value: 1
    }
    shift_filler {
      type: "constant"
      value: 0.001
    }
  }
}
layers {
  bottom: "deconv5_1"
  top: "deconv5_1"
  name: "derelu5_1"
  type: RELU
}
layers {
  bottom: "deconv5_1"
  top: "deconv5_2"
  name: "deconv5_2"
  type: DECONVOLUTION
  blobs_lr: 1
  blobs_lr: 2
  weight_decay: 1
  weight_decay: 0
  convolution_param {
    num_output: 512
    pad: 1
    kernel_size: 3
    weight_filler {
      type: "gaussian"
      std: 0.01
    }
    bias_filler {
      type: "constant"
      value: 0
    }
  }
}
layers {
  bottom: "deconv5_2"
  top: "deconv5_2"
  name: "debn5_2"
  type: BN
  bn_param {
    scale_filler {
      type: "constant"
      value: 1
    }
    shift_filler {
      type: "constant"
      value: 0.001
    }
  }
}
layers {
  bottom: "deconv5_2"
  top: "deconv5_2"
  name: "derelu5_2"
  type: RELU
}
layers {
  bottom: "deconv5_2"
  top: "deconv5_3"
  name: "deconv5_3"
  type: DECONVOLUTION
  blobs_lr: 1
  blobs_lr: 2
  weight_decay: 1
  weight_decay: 0
  convolution_param {
    num_output: 512
    pad: 1
    kernel_size: 3
    weight_filler {
      type: "gaussian"
      std: 0.01
    }
    bias_filler {
      type: "constant"
      value: 0
    }
  }
}
layers {
  bottom: "deconv5_3"
  top: "deconv5_3"
  name: "debn5_3"
  type: BN
  bn_param {
    scale_filler {
      type: "constant"
      value: 1
    }
    shift_filler {
      type: "constant"
      value: 0.001
    }
  }
}
layers {
  bottom: "deconv5_3"
  top: "deconv5_3"
  name: "derelu5_3"
  type: RELU
}
layers {
  bottom: "deconv5_3"
  top: "unpool4"
  name: "unpool4"
  type: UNPOOLING
  unpooling_param {
    unpool: AVE
    kernel_size: 2
    stride: 2
    unpool_size: 28
  }
}
layers {
  bottom: "unpool4"
  top: "deconv4_1"
  name: "deconv4_1"
  type: DECONVOLUTION
  blobs_lr: 1
  blobs_lr: 2
  weight_decay: 1
  weight_decay: 0
  convolution_param {
    num_output: 512
    pad: 1
    kernel_size: 3
    weight_filler {
      type: "gaussian"
      std: 0.01
    }
    bias_filler {
      type: "constant"
      value: 0
    }
  }
}
layers {
  bottom: "deconv4_1"
  top: "deconv4_1"
  name: "debn4_1"
  type: BN
  bn_param {
    scale_filler {
      type: "constant"
      value: 1
    }
    shift_filler {
      type: "constant"
      value: 0.001
    }
  }
}
layers {
  bottom: "deconv4_1"
  top: "deconv4_1"
  name: "derelu4_1"
  type: RELU
}
layers {
  bottom: "deconv4_1"
  top: "deconv4_2"
  name: "deconv4_2"
  type: DECONVOLUTION
  blobs_lr: 1
  blobs_lr: 2
  weight_decay: 1
  weight_decay: 0
  convolution_param {
    num_output: 512
    pad: 1
    kernel_size: 3
    weight_filler {
      type: "gaussian"
      std: 0.01
    }
    bias_filler {
      type: "constant"
      value: 0
    }
  }
}
layers {
  bottom: "deconv4_2"
  top: "deconv4_2"
  name: "debn4_2"
  type: BN
  bn_param {
    scale_filler {
      type: "constant"
      value: 1
    }
    shift_filler {
      type: "constant"
      value: 0.001
    }
  }
}
layers {
  bottom: "deconv4_2"
  top: "deconv4_2"
  name: "derelu4_2"
  type: RELU
}
layers {
  bottom: "deconv4_2"
  top: "deconv4_3"
  name: "deconv4_3"
  type: DECONVOLUTION
  blobs_lr: 1
  blobs_lr: 2
  weight_decay: 1
  weight_decay: 0
  convolution_param {
    num_output: 256
    pad: 1
    kernel_size: 3
    weight_filler {
      type: "gaussian"
      std: 0.01
    }
    bias_filler {
      type: "constant"
      value: 0
    }
  }
}
layers {
  bottom: "deconv4_3"
  top: "deconv4_3"
  name: "debn4_3"
  type: BN
  bn_param {
    scale_filler {
      type: "constant"
      value: 1
    }
    shift_filler {
      type: "constant"
      value: 0.001
    }
  }
}
layers {
  bottom: "deconv4_3"
  top: "deconv4_3"
  name: "derelu4_3"
  type: RELU
}
layers {
  bottom: "deconv4_3"
  top: "unpool3"
  name: "unpool3"
  type: UNPOOLING
  unpooling_param {
    unpool: AVE
    kernel_size: 2
    stride: 2
    unpool_size: 56
  }
}
layers {
  bottom: "unpool3"
  top: "deconv3_1"
  name: "deconv3_1"
  type: DECONVOLUTION
  blobs_lr: 1
  blobs_lr: 2
  weight_decay: 1
  weight_decay: 0
  convolution_param {
    num_output: 256
    pad: 1
    kernel_size: 3
    weight_filler {
      type: "gaussian"
      std: 0.01
    }
    bias_filler {
      type: "constant"
      value: 0
    }
  }
}
layers {
  bottom: "deconv3_1"
  top: "deconv3_1"
  name: "debn3_1"
  type: BN
  bn_param {
    scale_filler {
      type: "constant"
      value: 1
    }
    shift_filler {
      type: "constant"
      value: 0.001
    }
  }
}
layers {
  bottom: "deconv3_1"
  top: "deconv3_1"
  name: "derelu3_1"
  type: RELU
}
layers {
  bottom: "deconv3_1"
  top: "deconv3_2"
  name: "deconv3_2"
  type: DECONVOLUTION
  blobs_lr: 1
  blobs_lr: 2
  weight_decay: 1
  weight_decay: 0
  convolution_param {
    num_output: 256
    pad: 1
    kernel_size: 3
    weight_filler {
      type: "gaussian"
      std: 0.01
    }
    bias_filler {
      type: "constant"
      value: 0
    }
  }
}
layers {
  bottom: "deconv3_2"
  top: "deconv3_2"
  name: "debn3_2"
  type: BN
  bn_param {
    scale_filler {
      type: "constant"
      value: 1
    }
    shift_filler {
      type: "constant"
      value: 0.001
    }
  }
}
layers {
  bottom: "deconv3_2"
  top: "deconv3_2"
  name: "derelu3_2"
  type: RELU
}
layers {
  bottom: "deconv3_2"
  top: "deconv3_3"
  name: "deconv3_3"
  type: DECONVOLUTION
  blobs_lr: 1
  blobs_lr: 2
  weight_decay: 1
  weight_decay: 0
  convolution_param {
    num_output: 128
    pad: 1
    kernel_size: 3
    weight_filler {
      type: "gaussian"
      std: 0.01
    }
    bias_filler {
      type: "constant"
      value: 0
    }
  }
}
layers {
  bottom: "deconv3_3"
  top: "deconv3_3"
  name: "debn3_3"
  type: BN
  bn_param {
    scale_filler {
      type: "constant"
      value: 1
    }
    shift_filler {
      type: "constant"
      value: 0.001
    }
  }
}
layers {
  bottom: "deconv3_3"
  top: "deconv3_3"
  name: "derelu3_3"
  type: RELU
}
layers {
  bottom: "deconv3_3"
  top: "unpool2"
  name: "unpool2"
  type: UNPOOLING
  unpooling_param {
    unpool: AVE
    kernel_size: 2
    stride: 2
    unpool_size: 112
  }
}
layers {
  bottom: "unpool2"
  top: "deconv2_1"
  name: "deconv2_1"
  type: DECONVOLUTION
  blobs_lr: 1
  blobs_lr: 2
  weight_decay: 1
  weight_decay: 0
  convolution_param {
    num_output: 128
    pad: 1
    kernel_size: 3
    weight_filler {
      type: "gaussian"
      std: 0.01
    }
    bias_filler {
      type: "constant"
      value: 0
    }
  }
}
layers {
  bottom: "deconv2_1"
  top: "deconv2_1"
  name: "debn2_1"
  type: BN
  bn_param {
    scale_filler {
      type: "constant"
      value: 1
    }
    shift_filler {
      type: "constant"
      value: 0.001
    }
  }
}
layers {
  bottom: "deconv2_1"
  top: "deconv2_1"
  name: "derelu2_1"
  type: RELU
}
layers {
  bottom: "deconv2_1"
  top: "deconv2_2"
  name: "deconv2_2"
  type: DECONVOLUTION
  blobs_lr: 1
  blobs_lr: 2
  weight_decay: 1
  weight_decay: 0
  convolution_param {
    num_output: 64
    pad: 1
    kernel_size: 3
    weight_filler {
      type: "gaussian"
      std: 0.01
    }
    bias_filler {
      type: "constant"
      value: 0
    }
  }
}
layers {
  bottom: "deconv2_2"
  top: "deconv2_2"
  name: "debn2_2"
  type: BN
  bn_param {
    scale_filler {
      type: "constant"
      value: 1
    }
    shift_filler {
      type: "constant"
      value: 0.001
    }
  }
}
layers {
  bottom: "deconv2_2"
  top: "deconv2_2"
  name: "derelu2_2"
  type: RELU
}
layers {
  bottom: "deconv2_2"
  top: "unpool1"
  name: "unpool1"
  type: UNPOOLING
  unpooling_param {
    unpool: AVE
    kernel_size: 2
    stride: 2
    unpool_size: 224
  }
}
layers {
  bottom: "unpool1"
  top: "deconv1_1"
  name: "deconv1_1"
  type: DECONVOLUTION
  blobs_lr: 1
  blobs_lr: 2
  weight_decay: 1
  weight_decay: 0
  convolution_param {
    num_output: 64
    pad: 1
    kernel_size: 3
    weight_filler {
      type: "gaussian"
      std: 0.01
    }
    bias_filler {
      type: "constant"
      value: 0
    }
  }
}
layers {
  bottom: "deconv1_1"
  top: "deconv1_1"
  name: "debn1_1"
  type: BN
  bn_param {
    scale_filler {
      type: "constant"
      value: 1
    }
    shift_filler {
      type: "constant"
      value: 0.001
    }
  }
}
layers {
  bottom: "deconv1_1"
  top: "deconv1_1"
  name: "derelu1_1"
  type: RELU
}
layers {
  bottom: "deconv1_1"
  top: "deconv1_2"
  name: "deconv1_2"
  type: DECONVOLUTION
  blobs_lr: 1
  blobs_lr: 2
  weight_decay: 1
  weight_decay: 0
  convolution_param {
    num_output: 64
    pad: 1
    kernel_size: 3
    weight_filler {
      type: "gaussian"
      std: 0.01
    }
    bias_filler {
      type: "constant"
      value: 0
    }
  }
}
layers {
  bottom: "deconv1_2"
  top: "deconv1_2"
  name: "debn1_2"
  type: BN
  bn_param {
    scale_filler {
      type: "constant"
      value: 1
    }
    shift_filler {
      type: "constant"
      value: 0.001
    }
  }
}
layers {
  bottom: "deconv1_2"
  top: "deconv1_2"
  name: "derelu1_2"
  type: RELU
}
layers {
  bottom: "deconv1_2"
  top: "seg-score"
  name: "seg-score-voc"
  type: CONVOLUTION
  blobs_lr: 1
  blobs_lr: 2
  weight_decay: 1
  weight_decay: 0
  convolution_param {
    num_output: 21
    kernel_size: 1
    weight_filler {
      type: "gaussian"
      std: 0.01
    }
    bias_filler {
      type: "constant"
      value: 0
    }
  }
}
layers {
  bottom: "seg-score"
  bottom: "seg-label"
  top: "seg-accuracy"
  name: "seg-accuracy"
  type: ELTWISE_ACCURACY
  include {
    phase: TEST
  }
  eltwise_accuracy_param {
    ignore_label: 255
  }
}
layers {
  bottom: "seg-score"
  bottom: "seg-label"
  top: "seg-loss"
  name: "seg-loss"
  type: SOFTMAX_LOSS
  loss_param {
    ignore_label: 255
  }
}
state {
  phase: TEST
}
I0925 02:01:46.626168  9442 layer_factory.hpp:78] Creating layer data
I0925 02:01:46.626179  9442 net.cpp:69] Creating Layer data
I0925 02:01:46.626184  9442 net.cpp:358] data -> data
I0925 02:01:46.626193  9442 net.cpp:358] data -> seg-label
I0925 02:01:46.626199  9442 net.cpp:358] data -> (automatic)
I0925 02:01:46.626210  9442 net.cpp:98] Setting up data
I0925 02:01:46.626215  9442 image_seg_data_layer.cpp:51] Opening file ./stage_1_train_imgset/val_reduced_07.txt
I0925 02:01:46.665627  9442 image_seg_data_layer.cpp:68] Shuffling data
I0925 02:01:46.666189  9442 image_seg_data_layer.cpp:73] A total of 4992 images.
I0925 02:01:46.684590  9442 image_seg_data_layer.cpp:119] output data size: 8,3,224,224
I0925 02:01:46.684607  9442 image_seg_data_layer.cpp:123] output label size: 8,1,224,224
I0925 02:01:46.684613  9442 image_seg_data_layer.cpp:127] output data_dim size: 8,1,1,2
I0925 02:01:46.688434  9442 net.cpp:105] Top shape: 8 3 224 224 (1204224)
I0925 02:01:46.688449  9442 net.cpp:105] Top shape: 8 1 224 224 (401408)
I0925 02:01:46.688457  9442 net.cpp:105] Top shape: 8 1 1 2 (16)
I0925 02:01:46.688463  9442 layer_factory.hpp:78] Creating layer seg-label_data_1_split
I0925 02:01:46.688472  9442 net.cpp:69] Creating Layer seg-label_data_1_split
I0925 02:01:46.688478  9442 net.cpp:396] seg-label_data_1_split <- seg-label
I0925 02:01:46.688493  9442 net.cpp:358] seg-label_data_1_split -> seg-label_data_1_split_0
I0925 02:01:46.688506  9442 net.cpp:358] seg-label_data_1_split -> seg-label_data_1_split_1
I0925 02:01:46.688518  9442 net.cpp:98] Setting up seg-label_data_1_split
I0925 02:01:46.688525  9442 net.cpp:105] Top shape: 8 1 224 224 (401408)
I0925 02:01:46.688531  9442 net.cpp:105] Top shape: 8 1 224 224 (401408)
I0925 02:01:46.688537  9442 layer_factory.hpp:78] Creating layer conv1_1
I0925 02:01:46.688549  9442 net.cpp:69] Creating Layer conv1_1
I0925 02:01:46.688556  9442 net.cpp:396] conv1_1 <- data
I0925 02:01:46.688565  9442 net.cpp:358] conv1_1 -> conv1_1
I0925 02:01:46.688572  9442 net.cpp:98] Setting up conv1_1
I0925 02:01:46.688658  9442 net.cpp:105] Top shape: 8 64 224 224 (25690112)
I0925 02:01:46.688673  9442 layer_factory.hpp:78] Creating layer bn1_1
I0925 02:01:46.688683  9442 net.cpp:69] Creating Layer bn1_1
I0925 02:01:46.688689  9442 net.cpp:396] bn1_1 <- conv1_1
I0925 02:01:46.688698  9442 net.cpp:347] bn1_1 -> conv1_1 (in-place)
I0925 02:01:46.688704  9442 net.cpp:98] Setting up bn1_1
I0925 02:01:46.688853  9442 net.cpp:105] Top shape: 8 64 224 224 (25690112)
I0925 02:01:46.688865  9442 layer_factory.hpp:78] Creating layer relu1_1
I0925 02:01:46.688874  9442 net.cpp:69] Creating Layer relu1_1
I0925 02:01:46.688880  9442 net.cpp:396] relu1_1 <- conv1_1
I0925 02:01:46.688889  9442 net.cpp:347] relu1_1 -> conv1_1 (in-place)
I0925 02:01:46.688896  9442 net.cpp:98] Setting up relu1_1
I0925 02:01:46.688904  9442 net.cpp:105] Top shape: 8 64 224 224 (25690112)
I0925 02:01:46.688910  9442 layer_factory.hpp:78] Creating layer conv1_2
I0925 02:01:46.688917  9442 net.cpp:69] Creating Layer conv1_2
I0925 02:01:46.688925  9442 net.cpp:396] conv1_2 <- conv1_1
I0925 02:01:46.688932  9442 net.cpp:358] conv1_2 -> conv1_2
I0925 02:01:46.688941  9442 net.cpp:98] Setting up conv1_2
I0925 02:01:46.689075  9442 net.cpp:105] Top shape: 8 64 224 224 (25690112)
I0925 02:01:46.689087  9442 layer_factory.hpp:78] Creating layer bn1_2
I0925 02:01:46.689096  9442 net.cpp:69] Creating Layer bn1_2
I0925 02:01:46.689103  9442 net.cpp:396] bn1_2 <- conv1_2
I0925 02:01:46.689112  9442 net.cpp:347] bn1_2 -> conv1_2 (in-place)
I0925 02:01:46.689121  9442 net.cpp:98] Setting up bn1_2
I0925 02:01:46.689298  9442 net.cpp:105] Top shape: 8 64 224 224 (25690112)
I0925 02:01:46.689318  9442 layer_factory.hpp:78] Creating layer relu1_2
I0925 02:01:46.689329  9442 net.cpp:69] Creating Layer relu1_2
I0925 02:01:46.689335  9442 net.cpp:396] relu1_2 <- conv1_2
I0925 02:01:46.689343  9442 net.cpp:347] relu1_2 -> conv1_2 (in-place)
I0925 02:01:46.689352  9442 net.cpp:98] Setting up relu1_2
I0925 02:01:46.689358  9442 net.cpp:105] Top shape: 8 64 224 224 (25690112)
I0925 02:01:46.689364  9442 layer_factory.hpp:78] Creating layer pool1
I0925 02:01:46.689374  9442 net.cpp:69] Creating Layer pool1
I0925 02:01:46.689381  9442 net.cpp:396] pool1 <- conv1_2
I0925 02:01:46.689389  9442 net.cpp:358] pool1 -> pool1
I0925 02:01:46.689399  9442 net.cpp:98] Setting up pool1
I0925 02:01:46.689419  9442 net.cpp:105] Top shape: 8 64 112 112 (6422528)
I0925 02:01:46.689425  9442 layer_factory.hpp:78] Creating layer conv2_1
I0925 02:01:46.689435  9442 net.cpp:69] Creating Layer conv2_1
I0925 02:01:46.689441  9442 net.cpp:396] conv2_1 <- pool1
I0925 02:01:46.689450  9442 net.cpp:358] conv2_1 -> conv2_1
I0925 02:01:46.689460  9442 net.cpp:98] Setting up conv2_1
I0925 02:01:46.689594  9442 net.cpp:105] Top shape: 8 128 112 112 (12845056)
I0925 02:01:46.689605  9442 layer_factory.hpp:78] Creating layer bn2_1
I0925 02:01:46.689616  9442 net.cpp:69] Creating Layer bn2_1
I0925 02:01:46.689623  9442 net.cpp:396] bn2_1 <- conv2_1
I0925 02:01:46.689631  9442 net.cpp:347] bn2_1 -> conv2_1 (in-place)
I0925 02:01:46.689640  9442 net.cpp:98] Setting up bn2_1
I0925 02:01:46.689684  9442 net.cpp:105] Top shape: 8 128 112 112 (12845056)
I0925 02:01:46.689695  9442 layer_factory.hpp:78] Creating layer relu2_1
I0925 02:01:46.689703  9442 net.cpp:69] Creating Layer relu2_1
I0925 02:01:46.689710  9442 net.cpp:396] relu2_1 <- conv2_1
I0925 02:01:46.689718  9442 net.cpp:347] relu2_1 -> conv2_1 (in-place)
I0925 02:01:46.689725  9442 net.cpp:98] Setting up relu2_1
I0925 02:01:46.689733  9442 net.cpp:105] Top shape: 8 128 112 112 (12845056)
I0925 02:01:46.689739  9442 layer_factory.hpp:78] Creating layer conv2_2
I0925 02:01:46.689748  9442 net.cpp:69] Creating Layer conv2_2
I0925 02:01:46.689754  9442 net.cpp:396] conv2_2 <- conv2_1
I0925 02:01:46.689762  9442 net.cpp:358] conv2_2 -> conv2_2
I0925 02:01:46.689770  9442 net.cpp:98] Setting up conv2_2
I0925 02:01:46.690007  9442 net.cpp:105] Top shape: 8 128 112 112 (12845056)
I0925 02:01:46.690019  9442 layer_factory.hpp:78] Creating layer bn2_2
I0925 02:01:46.690028  9442 net.cpp:69] Creating Layer bn2_2
I0925 02:01:46.690034  9442 net.cpp:396] bn2_2 <- conv2_2
I0925 02:01:46.690042  9442 net.cpp:347] bn2_2 -> conv2_2 (in-place)
I0925 02:01:46.690049  9442 net.cpp:98] Setting up bn2_2
I0925 02:01:46.690104  9442 net.cpp:105] Top shape: 8 128 112 112 (12845056)
I0925 02:01:46.690114  9442 layer_factory.hpp:78] Creating layer relu2_2
I0925 02:01:46.690121  9442 net.cpp:69] Creating Layer relu2_2
I0925 02:01:46.690127  9442 net.cpp:396] relu2_2 <- conv2_2
I0925 02:01:46.690135  9442 net.cpp:347] relu2_2 -> conv2_2 (in-place)
I0925 02:01:46.690140  9442 net.cpp:98] Setting up relu2_2
I0925 02:01:46.690150  9442 net.cpp:105] Top shape: 8 128 112 112 (12845056)
I0925 02:01:46.690158  9442 layer_factory.hpp:78] Creating layer pool2
I0925 02:01:46.690168  9442 net.cpp:69] Creating Layer pool2
I0925 02:01:46.690176  9442 net.cpp:396] pool2 <- conv2_2
I0925 02:01:46.690182  9442 net.cpp:358] pool2 -> pool2
I0925 02:01:46.690191  9442 net.cpp:98] Setting up pool2
I0925 02:01:46.690197  9442 net.cpp:105] Top shape: 8 128 56 56 (3211264)
I0925 02:01:46.690203  9442 layer_factory.hpp:78] Creating layer conv3_1
I0925 02:01:46.690212  9442 net.cpp:69] Creating Layer conv3_1
I0925 02:01:46.690219  9442 net.cpp:396] conv3_1 <- pool2
I0925 02:01:46.690227  9442 net.cpp:358] conv3_1 -> conv3_1
I0925 02:01:46.690233  9442 net.cpp:98] Setting up conv3_1
I0925 02:01:46.690668  9442 net.cpp:105] Top shape: 8 256 56 56 (6422528)
I0925 02:01:46.690683  9442 layer_factory.hpp:78] Creating layer bn3_1
I0925 02:01:46.690691  9442 net.cpp:69] Creating Layer bn3_1
I0925 02:01:46.690697  9442 net.cpp:396] bn3_1 <- conv3_1
I0925 02:01:46.690704  9442 net.cpp:347] bn3_1 -> conv3_1 (in-place)
I0925 02:01:46.690712  9442 net.cpp:98] Setting up bn3_1
I0925 02:01:46.690732  9442 net.cpp:105] Top shape: 8 256 56 56 (6422528)
I0925 02:01:46.690742  9442 layer_factory.hpp:78] Creating layer relu3_1
I0925 02:01:46.690749  9442 net.cpp:69] Creating Layer relu3_1
I0925 02:01:46.690757  9442 net.cpp:396] relu3_1 <- conv3_1
I0925 02:01:46.690763  9442 net.cpp:347] relu3_1 -> conv3_1 (in-place)
I0925 02:01:46.690771  9442 net.cpp:98] Setting up relu3_1
I0925 02:01:46.690778  9442 net.cpp:105] Top shape: 8 256 56 56 (6422528)
I0925 02:01:46.690784  9442 layer_factory.hpp:78] Creating layer conv3_2
I0925 02:01:46.690800  9442 net.cpp:69] Creating Layer conv3_2
I0925 02:01:46.690807  9442 net.cpp:396] conv3_2 <- conv3_1
I0925 02:01:46.690815  9442 net.cpp:358] conv3_2 -> conv3_2
I0925 02:01:46.690824  9442 net.cpp:98] Setting up conv3_2
I0925 02:01:46.691670  9442 net.cpp:105] Top shape: 8 256 56 56 (6422528)
I0925 02:01:46.691684  9442 layer_factory.hpp:78] Creating layer bn3_2
I0925 02:01:46.691692  9442 net.cpp:69] Creating Layer bn3_2
I0925 02:01:46.691699  9442 net.cpp:396] bn3_2 <- conv3_2
I0925 02:01:46.691707  9442 net.cpp:347] bn3_2 -> conv3_2 (in-place)
I0925 02:01:46.691715  9442 net.cpp:98] Setting up bn3_2
I0925 02:01:46.691735  9442 net.cpp:105] Top shape: 8 256 56 56 (6422528)
I0925 02:01:46.691743  9442 layer_factory.hpp:78] Creating layer relu3_2
I0925 02:01:46.691751  9442 net.cpp:69] Creating Layer relu3_2
I0925 02:01:46.691757  9442 net.cpp:396] relu3_2 <- conv3_2
I0925 02:01:46.691767  9442 net.cpp:347] relu3_2 -> conv3_2 (in-place)
I0925 02:01:46.691776  9442 net.cpp:98] Setting up relu3_2
I0925 02:01:46.691781  9442 net.cpp:105] Top shape: 8 256 56 56 (6422528)
I0925 02:01:46.691788  9442 layer_factory.hpp:78] Creating layer conv3_3
I0925 02:01:46.691797  9442 net.cpp:69] Creating Layer conv3_3
I0925 02:01:46.691802  9442 net.cpp:396] conv3_3 <- conv3_2
I0925 02:01:46.691812  9442 net.cpp:358] conv3_3 -> conv3_3
I0925 02:01:46.691819  9442 net.cpp:98] Setting up conv3_3
I0925 02:01:46.692673  9442 net.cpp:105] Top shape: 8 256 56 56 (6422528)
I0925 02:01:46.692685  9442 layer_factory.hpp:78] Creating layer bn3_3
I0925 02:01:46.692697  9442 net.cpp:69] Creating Layer bn3_3
I0925 02:01:46.692703  9442 net.cpp:396] bn3_3 <- conv3_3
I0925 02:01:46.692713  9442 net.cpp:347] bn3_3 -> conv3_3 (in-place)
I0925 02:01:46.692721  9442 net.cpp:98] Setting up bn3_3
I0925 02:01:46.692739  9442 net.cpp:105] Top shape: 8 256 56 56 (6422528)
I0925 02:01:46.692747  9442 layer_factory.hpp:78] Creating layer relu3_3
I0925 02:01:46.692754  9442 net.cpp:69] Creating Layer relu3_3
I0925 02:01:46.692761  9442 net.cpp:396] relu3_3 <- conv3_3
I0925 02:01:46.692769  9442 net.cpp:347] relu3_3 -> conv3_3 (in-place)
I0925 02:01:46.692776  9442 net.cpp:98] Setting up relu3_3
I0925 02:01:46.692782  9442 net.cpp:105] Top shape: 8 256 56 56 (6422528)
I0925 02:01:46.692790  9442 layer_factory.hpp:78] Creating layer pool3
I0925 02:01:46.692798  9442 net.cpp:69] Creating Layer pool3
I0925 02:01:46.692806  9442 net.cpp:396] pool3 <- conv3_3
I0925 02:01:46.692813  9442 net.cpp:358] pool3 -> pool3
I0925 02:01:46.692821  9442 net.cpp:98] Setting up pool3
I0925 02:01:46.692829  9442 net.cpp:105] Top shape: 8 256 28 28 (1605632)
I0925 02:01:46.692836  9442 layer_factory.hpp:78] Creating layer conv4_1
I0925 02:01:46.692844  9442 net.cpp:69] Creating Layer conv4_1
I0925 02:01:46.692852  9442 net.cpp:396] conv4_1 <- pool3
I0925 02:01:46.692859  9442 net.cpp:358] conv4_1 -> conv4_1
I0925 02:01:46.692867  9442 net.cpp:98] Setting up conv4_1
I0925 02:01:46.698613  9442 net.cpp:105] Top shape: 8 512 28 28 (3211264)
I0925 02:01:46.698631  9442 layer_factory.hpp:78] Creating layer bn4_1
I0925 02:01:46.698644  9442 net.cpp:69] Creating Layer bn4_1
I0925 02:01:46.698654  9442 net.cpp:396] bn4_1 <- conv4_1
I0925 02:01:46.698664  9442 net.cpp:347] bn4_1 -> conv4_1 (in-place)
I0925 02:01:46.698676  9442 net.cpp:98] Setting up bn4_1
I0925 02:01:46.698693  9442 net.cpp:105] Top shape: 8 512 28 28 (3211264)
I0925 02:01:46.698703  9442 layer_factory.hpp:78] Creating layer relu4_1
I0925 02:01:46.698710  9442 net.cpp:69] Creating Layer relu4_1
I0925 02:01:46.698717  9442 net.cpp:396] relu4_1 <- conv4_1
I0925 02:01:46.698725  9442 net.cpp:347] relu4_1 -> conv4_1 (in-place)
I0925 02:01:46.698734  9442 net.cpp:98] Setting up relu4_1
I0925 02:01:46.698743  9442 net.cpp:105] Top shape: 8 512 28 28 (3211264)
I0925 02:01:46.698750  9442 layer_factory.hpp:78] Creating layer conv4_2
I0925 02:01:46.698760  9442 net.cpp:69] Creating Layer conv4_2
I0925 02:01:46.698765  9442 net.cpp:396] conv4_2 <- conv4_1
I0925 02:01:46.698773  9442 net.cpp:358] conv4_2 -> conv4_2
I0925 02:01:46.698801  9442 net.cpp:98] Setting up conv4_2
I0925 02:01:46.708734  9442 net.cpp:105] Top shape: 8 512 28 28 (3211264)
I0925 02:01:46.708770  9442 layer_factory.hpp:78] Creating layer bn4_2
I0925 02:01:46.708788  9442 net.cpp:69] Creating Layer bn4_2
I0925 02:01:46.708801  9442 net.cpp:396] bn4_2 <- conv4_2
I0925 02:01:46.708814  9442 net.cpp:347] bn4_2 -> conv4_2 (in-place)
I0925 02:01:46.708829  9442 net.cpp:98] Setting up bn4_2
I0925 02:01:46.708853  9442 net.cpp:105] Top shape: 8 512 28 28 (3211264)
I0925 02:01:46.708868  9442 layer_factory.hpp:78] Creating layer relu4_2
I0925 02:01:46.708880  9442 net.cpp:69] Creating Layer relu4_2
I0925 02:01:46.708890  9442 net.cpp:396] relu4_2 <- conv4_2
I0925 02:01:46.708905  9442 net.cpp:347] relu4_2 -> conv4_2 (in-place)
I0925 02:01:46.708917  9442 net.cpp:98] Setting up relu4_2
I0925 02:01:46.708928  9442 net.cpp:105] Top shape: 8 512 28 28 (3211264)
I0925 02:01:46.708940  9442 layer_factory.hpp:78] Creating layer conv4_3
I0925 02:01:46.708956  9442 net.cpp:69] Creating Layer conv4_3
I0925 02:01:46.708966  9442 net.cpp:396] conv4_3 <- conv4_2
I0925 02:01:46.708977  9442 net.cpp:358] conv4_3 -> conv4_3
I0925 02:01:46.708992  9442 net.cpp:98] Setting up conv4_3
I0925 02:01:46.718180  9442 net.cpp:105] Top shape: 8 512 28 28 (3211264)
I0925 02:01:46.718199  9442 layer_factory.hpp:78] Creating layer bn4_3
I0925 02:01:46.718209  9442 net.cpp:69] Creating Layer bn4_3
I0925 02:01:46.718214  9442 net.cpp:396] bn4_3 <- conv4_3
I0925 02:01:46.718221  9442 net.cpp:347] bn4_3 -> conv4_3 (in-place)
I0925 02:01:46.718230  9442 net.cpp:98] Setting up bn4_3
I0925 02:01:46.718242  9442 net.cpp:105] Top shape: 8 512 28 28 (3211264)
I0925 02:01:46.718248  9442 layer_factory.hpp:78] Creating layer relu4_3
I0925 02:01:46.718255  9442 net.cpp:69] Creating Layer relu4_3
I0925 02:01:46.718260  9442 net.cpp:396] relu4_3 <- conv4_3
I0925 02:01:46.718264  9442 net.cpp:347] relu4_3 -> conv4_3 (in-place)
I0925 02:01:46.718269  9442 net.cpp:98] Setting up relu4_3
I0925 02:01:46.718274  9442 net.cpp:105] Top shape: 8 512 28 28 (3211264)
I0925 02:01:46.718278  9442 layer_factory.hpp:78] Creating layer pool4
I0925 02:01:46.718284  9442 net.cpp:69] Creating Layer pool4
I0925 02:01:46.718289  9442 net.cpp:396] pool4 <- conv4_3
I0925 02:01:46.718296  9442 net.cpp:358] pool4 -> pool4
I0925 02:01:46.718302  9442 net.cpp:98] Setting up pool4
I0925 02:01:46.718307  9442 net.cpp:105] Top shape: 8 512 14 14 (802816)
I0925 02:01:46.718312  9442 layer_factory.hpp:78] Creating layer conv5_1
I0925 02:01:46.718317  9442 net.cpp:69] Creating Layer conv5_1
I0925 02:01:46.718323  9442 net.cpp:396] conv5_1 <- pool4
I0925 02:01:46.718329  9442 net.cpp:358] conv5_1 -> conv5_1
I0925 02:01:46.718335  9442 net.cpp:98] Setting up conv5_1
I0925 02:01:46.724468  9442 net.cpp:105] Top shape: 8 512 14 14 (802816)
I0925 02:01:46.724484  9442 layer_factory.hpp:78] Creating layer bn5_1
I0925 02:01:46.724491  9442 net.cpp:69] Creating Layer bn5_1
I0925 02:01:46.724496  9442 net.cpp:396] bn5_1 <- conv5_1
I0925 02:01:46.724503  9442 net.cpp:347] bn5_1 -> conv5_1 (in-place)
I0925 02:01:46.724510  9442 net.cpp:98] Setting up bn5_1
I0925 02:01:46.724519  9442 net.cpp:105] Top shape: 8 512 14 14 (802816)
I0925 02:01:46.724526  9442 layer_factory.hpp:78] Creating layer relu5_1
I0925 02:01:46.724532  9442 net.cpp:69] Creating Layer relu5_1
I0925 02:01:46.724539  9442 net.cpp:396] relu5_1 <- conv5_1
I0925 02:01:46.724545  9442 net.cpp:347] relu5_1 -> conv5_1 (in-place)
I0925 02:01:46.724552  9442 net.cpp:98] Setting up relu5_1
I0925 02:01:46.724558  9442 net.cpp:105] Top shape: 8 512 14 14 (802816)
I0925 02:01:46.724563  9442 layer_factory.hpp:78] Creating layer conv5_2
I0925 02:01:46.724570  9442 net.cpp:69] Creating Layer conv5_2
I0925 02:01:46.724575  9442 net.cpp:396] conv5_2 <- conv5_1
I0925 02:01:46.724581  9442 net.cpp:358] conv5_2 -> conv5_2
I0925 02:01:46.724587  9442 net.cpp:98] Setting up conv5_2
I0925 02:01:46.732555  9442 net.cpp:105] Top shape: 8 512 14 14 (802816)
I0925 02:01:46.732573  9442 layer_factory.hpp:78] Creating layer bn5_2
I0925 02:01:46.732597  9442 net.cpp:69] Creating Layer bn5_2
I0925 02:01:46.732604  9442 net.cpp:396] bn5_2 <- conv5_2
I0925 02:01:46.732614  9442 net.cpp:347] bn5_2 -> conv5_2 (in-place)
I0925 02:01:46.732622  9442 net.cpp:98] Setting up bn5_2
I0925 02:01:46.732633  9442 net.cpp:105] Top shape: 8 512 14 14 (802816)
I0925 02:01:46.732640  9442 layer_factory.hpp:78] Creating layer relu5_2
I0925 02:01:46.732648  9442 net.cpp:69] Creating Layer relu5_2
I0925 02:01:46.732653  9442 net.cpp:396] relu5_2 <- conv5_2
I0925 02:01:46.732659  9442 net.cpp:347] relu5_2 -> conv5_2 (in-place)
I0925 02:01:46.732666  9442 net.cpp:98] Setting up relu5_2
I0925 02:01:46.732671  9442 net.cpp:105] Top shape: 8 512 14 14 (802816)
I0925 02:01:46.732676  9442 layer_factory.hpp:78] Creating layer conv5_3
I0925 02:01:46.732681  9442 net.cpp:69] Creating Layer conv5_3
I0925 02:01:46.732686  9442 net.cpp:396] conv5_3 <- conv5_2
I0925 02:01:46.732692  9442 net.cpp:358] conv5_3 -> conv5_3
I0925 02:01:46.732698  9442 net.cpp:98] Setting up conv5_3
I0925 02:01:46.738895  9442 net.cpp:105] Top shape: 8 512 14 14 (802816)
I0925 02:01:46.738912  9442 layer_factory.hpp:78] Creating layer bn5_3
I0925 02:01:46.738920  9442 net.cpp:69] Creating Layer bn5_3
I0925 02:01:46.738925  9442 net.cpp:396] bn5_3 <- conv5_3
I0925 02:01:46.738934  9442 net.cpp:347] bn5_3 -> conv5_3 (in-place)
I0925 02:01:46.738941  9442 net.cpp:98] Setting up bn5_3
I0925 02:01:46.738951  9442 net.cpp:105] Top shape: 8 512 14 14 (802816)
I0925 02:01:46.738957  9442 layer_factory.hpp:78] Creating layer relu5_3
I0925 02:01:46.738963  9442 net.cpp:69] Creating Layer relu5_3
I0925 02:01:46.738967  9442 net.cpp:396] relu5_3 <- conv5_3
I0925 02:01:46.738973  9442 net.cpp:347] relu5_3 -> conv5_3 (in-place)
I0925 02:01:46.738978  9442 net.cpp:98] Setting up relu5_3
I0925 02:01:46.738982  9442 net.cpp:105] Top shape: 8 512 14 14 (802816)
I0925 02:01:46.738987  9442 layer_factory.hpp:78] Creating layer pool5
I0925 02:01:46.738992  9442 net.cpp:69] Creating Layer pool5
I0925 02:01:46.738997  9442 net.cpp:396] pool5 <- conv5_3
I0925 02:01:46.739002  9442 net.cpp:358] pool5 -> pool5
I0925 02:01:46.739008  9442 net.cpp:98] Setting up pool5
I0925 02:01:46.739014  9442 net.cpp:105] Top shape: 8 512 7 7 (200704)
I0925 02:01:46.739019  9442 layer_factory.hpp:78] Creating layer fc6
I0925 02:01:46.739024  9442 net.cpp:69] Creating Layer fc6
I0925 02:01:46.739029  9442 net.cpp:396] fc6 <- pool5
I0925 02:01:46.739035  9442 net.cpp:358] fc6 -> fc6
I0925 02:01:46.739042  9442 net.cpp:98] Setting up fc6
I0925 02:01:47.249128  9442 net.cpp:105] Top shape: 8 4096 1 1 (32768)
I0925 02:01:47.249161  9442 layer_factory.hpp:78] Creating layer bnfc6
I0925 02:01:47.249171  9442 net.cpp:69] Creating Layer bnfc6
I0925 02:01:47.249177  9442 net.cpp:396] bnfc6 <- fc6
I0925 02:01:47.249186  9442 net.cpp:347] bnfc6 -> fc6 (in-place)
I0925 02:01:47.249194  9442 net.cpp:98] Setting up bnfc6
I0925 02:01:47.249213  9442 net.cpp:105] Top shape: 8 4096 1 1 (32768)
I0925 02:01:47.249222  9442 layer_factory.hpp:78] Creating layer relu6
I0925 02:01:47.249228  9442 net.cpp:69] Creating Layer relu6
I0925 02:01:47.249233  9442 net.cpp:396] relu6 <- fc6
I0925 02:01:47.249238  9442 net.cpp:347] relu6 -> fc6 (in-place)
I0925 02:01:47.249244  9442 net.cpp:98] Setting up relu6
I0925 02:01:47.249249  9442 net.cpp:105] Top shape: 8 4096 1 1 (32768)
I0925 02:01:47.249258  9442 layer_factory.hpp:78] Creating layer fc7
I0925 02:01:47.249265  9442 net.cpp:69] Creating Layer fc7
I0925 02:01:47.249270  9442 net.cpp:396] fc7 <- fc6
I0925 02:01:47.249276  9442 net.cpp:358] fc7 -> fc7
I0925 02:01:47.249284  9442 net.cpp:98] Setting up fc7
I0925 02:01:47.338981  9442 net.cpp:105] Top shape: 8 4096 1 1 (32768)
I0925 02:01:47.339015  9442 layer_factory.hpp:78] Creating layer bnfc7
I0925 02:01:47.339026  9442 net.cpp:69] Creating Layer bnfc7
I0925 02:01:47.339032  9442 net.cpp:396] bnfc7 <- fc7
I0925 02:01:47.339040  9442 net.cpp:347] bnfc7 -> fc7 (in-place)
I0925 02:01:47.339051  9442 net.cpp:98] Setting up bnfc7
I0925 02:01:47.339092  9442 net.cpp:105] Top shape: 8 4096 1 1 (32768)
I0925 02:01:47.339099  9442 layer_factory.hpp:78] Creating layer relu7
I0925 02:01:47.339107  9442 net.cpp:69] Creating Layer relu7
I0925 02:01:47.339112  9442 net.cpp:396] relu7 <- fc7
I0925 02:01:47.339117  9442 net.cpp:347] relu7 -> fc7 (in-place)
I0925 02:01:47.339123  9442 net.cpp:98] Setting up relu7
I0925 02:01:47.339130  9442 net.cpp:105] Top shape: 8 4096 1 1 (32768)
I0925 02:01:47.339143  9442 layer_factory.hpp:78] Creating layer fc6-deconv
I0925 02:01:47.339153  9442 net.cpp:69] Creating Layer fc6-deconv
I0925 02:01:47.339156  9442 net.cpp:396] fc6-deconv <- fc7
I0925 02:01:47.339162  9442 net.cpp:358] fc6-deconv -> fc6-deconv
I0925 02:01:47.339169  9442 net.cpp:98] Setting up fc6-deconv
I0925 02:01:49.854862  9442 net.cpp:105] Top shape: 8 512 7 7 (200704)
I0925 02:01:49.854889  9442 layer_factory.hpp:78] Creating layer fc6-deconv-bn
I0925 02:01:49.854898  9442 net.cpp:69] Creating Layer fc6-deconv-bn
I0925 02:01:49.854904  9442 net.cpp:396] fc6-deconv-bn <- fc6-deconv
I0925 02:01:49.854912  9442 net.cpp:347] fc6-deconv-bn -> fc6-deconv (in-place)
I0925 02:01:49.854919  9442 net.cpp:98] Setting up fc6-deconv-bn
I0925 02:01:49.854931  9442 net.cpp:105] Top shape: 8 512 7 7 (200704)
I0925 02:01:49.854938  9442 layer_factory.hpp:78] Creating layer fc6-deconv-relu
I0925 02:01:49.854944  9442 net.cpp:69] Creating Layer fc6-deconv-relu
I0925 02:01:49.854950  9442 net.cpp:396] fc6-deconv-relu <- fc6-deconv
I0925 02:01:49.854955  9442 net.cpp:347] fc6-deconv-relu -> fc6-deconv (in-place)
I0925 02:01:49.854961  9442 net.cpp:98] Setting up fc6-deconv-relu
I0925 02:01:49.854965  9442 net.cpp:105] Top shape: 8 512 7 7 (200704)
I0925 02:01:49.854971  9442 layer_factory.hpp:78] Creating layer unpool5
I0925 02:01:49.854979  9442 net.cpp:69] Creating Layer unpool5
I0925 02:01:49.854984  9442 net.cpp:396] unpool5 <- fc6-deconv
I0925 02:01:49.854989  9442 net.cpp:358] unpool5 -> unpool5
I0925 02:01:49.854995  9442 net.cpp:98] Setting up unpool5
I0925 02:01:49.855000  9442 net.cpp:105] Top shape: 8 512 14 14 (802816)
I0925 02:01:49.855005  9442 layer_factory.hpp:78] Creating layer deconv5_1
I0925 02:01:49.855012  9442 net.cpp:69] Creating Layer deconv5_1
I0925 02:01:49.855017  9442 net.cpp:396] deconv5_1 <- unpool5
I0925 02:01:49.855023  9442 net.cpp:358] deconv5_1 -> deconv5_1
I0925 02:01:49.855038  9442 net.cpp:98] Setting up deconv5_1
I0925 02:01:49.910172  9442 net.cpp:105] Top shape: 8 512 14 14 (802816)
I0925 02:01:49.910200  9442 layer_factory.hpp:78] Creating layer debn5_1
I0925 02:01:49.910209  9442 net.cpp:69] Creating Layer debn5_1
I0925 02:01:49.910215  9442 net.cpp:396] debn5_1 <- deconv5_1
I0925 02:01:49.910223  9442 net.cpp:347] debn5_1 -> deconv5_1 (in-place)
I0925 02:01:49.910233  9442 net.cpp:98] Setting up debn5_1
I0925 02:01:49.910243  9442 net.cpp:105] Top shape: 8 512 14 14 (802816)
I0925 02:01:49.910251  9442 layer_factory.hpp:78] Creating layer derelu5_1
I0925 02:01:49.910259  9442 net.cpp:69] Creating Layer derelu5_1
I0925 02:01:49.910264  9442 net.cpp:396] derelu5_1 <- deconv5_1
I0925 02:01:49.910269  9442 net.cpp:347] derelu5_1 -> deconv5_1 (in-place)
I0925 02:01:49.910275  9442 net.cpp:98] Setting up derelu5_1
I0925 02:01:49.910281  9442 net.cpp:105] Top shape: 8 512 14 14 (802816)
I0925 02:01:49.910286  9442 layer_factory.hpp:78] Creating layer deconv5_2
I0925 02:01:49.910293  9442 net.cpp:69] Creating Layer deconv5_2
I0925 02:01:49.910298  9442 net.cpp:396] deconv5_2 <- deconv5_1
I0925 02:01:49.910305  9442 net.cpp:358] deconv5_2 -> deconv5_2
I0925 02:01:49.910311  9442 net.cpp:98] Setting up deconv5_2
I0925 02:01:49.967619  9442 net.cpp:105] Top shape: 8 512 14 14 (802816)
I0925 02:01:49.967645  9442 layer_factory.hpp:78] Creating layer debn5_2
I0925 02:01:49.967654  9442 net.cpp:69] Creating Layer debn5_2
I0925 02:01:49.967661  9442 net.cpp:396] debn5_2 <- deconv5_2
I0925 02:01:49.967669  9442 net.cpp:347] debn5_2 -> deconv5_2 (in-place)
I0925 02:01:49.967675  9442 net.cpp:98] Setting up debn5_2
I0925 02:01:49.967689  9442 net.cpp:105] Top shape: 8 512 14 14 (802816)
I0925 02:01:49.967711  9442 layer_factory.hpp:78] Creating layer derelu5_2
I0925 02:01:49.967717  9442 net.cpp:69] Creating Layer derelu5_2
I0925 02:01:49.967722  9442 net.cpp:396] derelu5_2 <- deconv5_2
I0925 02:01:49.967728  9442 net.cpp:347] derelu5_2 -> deconv5_2 (in-place)
I0925 02:01:49.967733  9442 net.cpp:98] Setting up derelu5_2
I0925 02:01:49.967741  9442 net.cpp:105] Top shape: 8 512 14 14 (802816)
I0925 02:01:49.967746  9442 layer_factory.hpp:78] Creating layer deconv5_3
I0925 02:01:49.967756  9442 net.cpp:69] Creating Layer deconv5_3
I0925 02:01:49.967761  9442 net.cpp:396] deconv5_3 <- deconv5_2
I0925 02:01:49.967767  9442 net.cpp:358] deconv5_3 -> deconv5_3
I0925 02:01:49.967773  9442 net.cpp:98] Setting up deconv5_3
I0925 02:01:50.023468  9442 net.cpp:105] Top shape: 8 512 14 14 (802816)
I0925 02:01:50.023489  9442 layer_factory.hpp:78] Creating layer debn5_3
I0925 02:01:50.023499  9442 net.cpp:69] Creating Layer debn5_3
I0925 02:01:50.023505  9442 net.cpp:396] debn5_3 <- deconv5_3
I0925 02:01:50.023511  9442 net.cpp:347] debn5_3 -> deconv5_3 (in-place)
I0925 02:01:50.023519  9442 net.cpp:98] Setting up debn5_3
I0925 02:01:50.023530  9442 net.cpp:105] Top shape: 8 512 14 14 (802816)
I0925 02:01:50.023537  9442 layer_factory.hpp:78] Creating layer derelu5_3
I0925 02:01:50.023548  9442 net.cpp:69] Creating Layer derelu5_3
I0925 02:01:50.023553  9442 net.cpp:396] derelu5_3 <- deconv5_3
I0925 02:01:50.023560  9442 net.cpp:347] derelu5_3 -> deconv5_3 (in-place)
I0925 02:01:50.023566  9442 net.cpp:98] Setting up derelu5_3
I0925 02:01:50.023571  9442 net.cpp:105] Top shape: 8 512 14 14 (802816)
I0925 02:01:50.023576  9442 layer_factory.hpp:78] Creating layer unpool4
I0925 02:01:50.023583  9442 net.cpp:69] Creating Layer unpool4
I0925 02:01:50.023588  9442 net.cpp:396] unpool4 <- deconv5_3
I0925 02:01:50.023594  9442 net.cpp:358] unpool4 -> unpool4
I0925 02:01:50.023600  9442 net.cpp:98] Setting up unpool4
I0925 02:01:50.023605  9442 net.cpp:105] Top shape: 8 512 28 28 (3211264)
I0925 02:01:50.023610  9442 layer_factory.hpp:78] Creating layer deconv4_1
I0925 02:01:50.023617  9442 net.cpp:69] Creating Layer deconv4_1
I0925 02:01:50.023622  9442 net.cpp:396] deconv4_1 <- unpool4
I0925 02:01:50.023628  9442 net.cpp:358] deconv4_1 -> deconv4_1
I0925 02:01:50.023635  9442 net.cpp:98] Setting up deconv4_1
I0925 02:01:50.081334  9442 net.cpp:105] Top shape: 8 512 28 28 (3211264)
I0925 02:01:50.081356  9442 layer_factory.hpp:78] Creating layer debn4_1
I0925 02:01:50.081364  9442 net.cpp:69] Creating Layer debn4_1
I0925 02:01:50.081370  9442 net.cpp:396] debn4_1 <- deconv4_1
I0925 02:01:50.081378  9442 net.cpp:347] debn4_1 -> deconv4_1 (in-place)
I0925 02:01:50.081387  9442 net.cpp:98] Setting up debn4_1
I0925 02:01:50.081400  9442 net.cpp:105] Top shape: 8 512 28 28 (3211264)
I0925 02:01:50.081408  9442 layer_factory.hpp:78] Creating layer derelu4_1
I0925 02:01:50.081414  9442 net.cpp:69] Creating Layer derelu4_1
I0925 02:01:50.081419  9442 net.cpp:396] derelu4_1 <- deconv4_1
I0925 02:01:50.081424  9442 net.cpp:347] derelu4_1 -> deconv4_1 (in-place)
I0925 02:01:50.081429  9442 net.cpp:98] Setting up derelu4_1
I0925 02:01:50.081434  9442 net.cpp:105] Top shape: 8 512 28 28 (3211264)
I0925 02:01:50.081442  9442 layer_factory.hpp:78] Creating layer deconv4_2
I0925 02:01:50.081450  9442 net.cpp:69] Creating Layer deconv4_2
I0925 02:01:50.081455  9442 net.cpp:396] deconv4_2 <- deconv4_1
I0925 02:01:50.081460  9442 net.cpp:358] deconv4_2 -> deconv4_2
I0925 02:01:50.081470  9442 net.cpp:98] Setting up deconv4_2
I0925 02:01:50.136981  9442 net.cpp:105] Top shape: 8 512 28 28 (3211264)
I0925 02:01:50.137003  9442 layer_factory.hpp:78] Creating layer debn4_2
I0925 02:01:50.137012  9442 net.cpp:69] Creating Layer debn4_2
I0925 02:01:50.137017  9442 net.cpp:396] debn4_2 <- deconv4_2
I0925 02:01:50.137024  9442 net.cpp:347] debn4_2 -> deconv4_2 (in-place)
I0925 02:01:50.137032  9442 net.cpp:98] Setting up debn4_2
I0925 02:01:50.137043  9442 net.cpp:105] Top shape: 8 512 28 28 (3211264)
I0925 02:01:50.137049  9442 layer_factory.hpp:78] Creating layer derelu4_2
I0925 02:01:50.137073  9442 net.cpp:69] Creating Layer derelu4_2
I0925 02:01:50.137078  9442 net.cpp:396] derelu4_2 <- deconv4_2
I0925 02:01:50.137083  9442 net.cpp:347] derelu4_2 -> deconv4_2 (in-place)
I0925 02:01:50.137089  9442 net.cpp:98] Setting up derelu4_2
I0925 02:01:50.137092  9442 net.cpp:105] Top shape: 8 512 28 28 (3211264)
I0925 02:01:50.137096  9442 layer_factory.hpp:78] Creating layer deconv4_3
I0925 02:01:50.137106  9442 net.cpp:69] Creating Layer deconv4_3
I0925 02:01:50.137111  9442 net.cpp:396] deconv4_3 <- deconv4_2
I0925 02:01:50.137117  9442 net.cpp:358] deconv4_3 -> deconv4_3
I0925 02:01:50.137125  9442 net.cpp:98] Setting up deconv4_3
I0925 02:01:50.166401  9442 net.cpp:105] Top shape: 8 256 28 28 (1605632)
I0925 02:01:50.166416  9442 layer_factory.hpp:78] Creating layer debn4_3
I0925 02:01:50.166424  9442 net.cpp:69] Creating Layer debn4_3
I0925 02:01:50.166429  9442 net.cpp:396] debn4_3 <- deconv4_3
I0925 02:01:50.166435  9442 net.cpp:347] debn4_3 -> deconv4_3 (in-place)
I0925 02:01:50.166442  9442 net.cpp:98] Setting up debn4_3
I0925 02:01:50.166458  9442 net.cpp:105] Top shape: 8 256 28 28 (1605632)
I0925 02:01:50.166465  9442 layer_factory.hpp:78] Creating layer derelu4_3
I0925 02:01:50.166472  9442 net.cpp:69] Creating Layer derelu4_3
I0925 02:01:50.166476  9442 net.cpp:396] derelu4_3 <- deconv4_3
I0925 02:01:50.166481  9442 net.cpp:347] derelu4_3 -> deconv4_3 (in-place)
I0925 02:01:50.166487  9442 net.cpp:98] Setting up derelu4_3
I0925 02:01:50.166491  9442 net.cpp:105] Top shape: 8 256 28 28 (1605632)
I0925 02:01:50.166499  9442 layer_factory.hpp:78] Creating layer unpool3
I0925 02:01:50.166507  9442 net.cpp:69] Creating Layer unpool3
I0925 02:01:50.166512  9442 net.cpp:396] unpool3 <- deconv4_3
I0925 02:01:50.166517  9442 net.cpp:358] unpool3 -> unpool3
I0925 02:01:50.166524  9442 net.cpp:98] Setting up unpool3
I0925 02:01:50.166529  9442 net.cpp:105] Top shape: 8 256 56 56 (6422528)
I0925 02:01:50.166533  9442 layer_factory.hpp:78] Creating layer deconv3_1
I0925 02:01:50.166539  9442 net.cpp:69] Creating Layer deconv3_1
I0925 02:01:50.166544  9442 net.cpp:396] deconv3_1 <- unpool3
I0925 02:01:50.166551  9442 net.cpp:358] deconv3_1 -> deconv3_1
I0925 02:01:50.166558  9442 net.cpp:98] Setting up deconv3_1
I0925 02:01:50.178280  9442 net.cpp:105] Top shape: 8 256 56 56 (6422528)
I0925 02:01:50.178292  9442 layer_factory.hpp:78] Creating layer debn3_1
I0925 02:01:50.178298  9442 net.cpp:69] Creating Layer debn3_1
I0925 02:01:50.178303  9442 net.cpp:396] debn3_1 <- deconv3_1
I0925 02:01:50.178309  9442 net.cpp:347] debn3_1 -> deconv3_1 (in-place)
I0925 02:01:50.178315  9442 net.cpp:98] Setting up debn3_1
I0925 02:01:50.178331  9442 net.cpp:105] Top shape: 8 256 56 56 (6422528)
I0925 02:01:50.178338  9442 layer_factory.hpp:78] Creating layer derelu3_1
I0925 02:01:50.178344  9442 net.cpp:69] Creating Layer derelu3_1
I0925 02:01:50.178347  9442 net.cpp:396] derelu3_1 <- deconv3_1
I0925 02:01:50.178352  9442 net.cpp:347] derelu3_1 -> deconv3_1 (in-place)
I0925 02:01:50.178359  9442 net.cpp:98] Setting up derelu3_1
I0925 02:01:50.178362  9442 net.cpp:105] Top shape: 8 256 56 56 (6422528)
I0925 02:01:50.178370  9442 layer_factory.hpp:78] Creating layer deconv3_2
I0925 02:01:50.178377  9442 net.cpp:69] Creating Layer deconv3_2
I0925 02:01:50.178382  9442 net.cpp:396] deconv3_2 <- deconv3_1
I0925 02:01:50.178390  9442 net.cpp:358] deconv3_2 -> deconv3_2
I0925 02:01:50.178397  9442 net.cpp:98] Setting up deconv3_2
I0925 02:01:50.190096  9442 net.cpp:105] Top shape: 8 256 56 56 (6422528)
I0925 02:01:50.190109  9442 layer_factory.hpp:78] Creating layer debn3_2
I0925 02:01:50.190114  9442 net.cpp:69] Creating Layer debn3_2
I0925 02:01:50.190119  9442 net.cpp:396] debn3_2 <- deconv3_2
I0925 02:01:50.190125  9442 net.cpp:347] debn3_2 -> deconv3_2 (in-place)
I0925 02:01:50.190131  9442 net.cpp:98] Setting up debn3_2
I0925 02:01:50.190150  9442 net.cpp:105] Top shape: 8 256 56 56 (6422528)
I0925 02:01:50.190156  9442 layer_factory.hpp:78] Creating layer derelu3_2
I0925 02:01:50.190176  9442 net.cpp:69] Creating Layer derelu3_2
I0925 02:01:50.190181  9442 net.cpp:396] derelu3_2 <- deconv3_2
I0925 02:01:50.190187  9442 net.cpp:347] derelu3_2 -> deconv3_2 (in-place)
I0925 02:01:50.190194  9442 net.cpp:98] Setting up derelu3_2
I0925 02:01:50.190199  9442 net.cpp:105] Top shape: 8 256 56 56 (6422528)
I0925 02:01:50.190204  9442 layer_factory.hpp:78] Creating layer deconv3_3
I0925 02:01:50.190210  9442 net.cpp:69] Creating Layer deconv3_3
I0925 02:01:50.190215  9442 net.cpp:396] deconv3_3 <- deconv3_2
I0925 02:01:50.190222  9442 net.cpp:358] deconv3_3 -> deconv3_3
I0925 02:01:50.190227  9442 net.cpp:98] Setting up deconv3_3
I0925 02:01:50.196090  9442 net.cpp:105] Top shape: 8 128 56 56 (3211264)
I0925 02:01:50.196101  9442 layer_factory.hpp:78] Creating layer debn3_3
I0925 02:01:50.196110  9442 net.cpp:69] Creating Layer debn3_3
I0925 02:01:50.196115  9442 net.cpp:396] debn3_3 <- deconv3_3
I0925 02:01:50.196122  9442 net.cpp:347] debn3_3 -> deconv3_3 (in-place)
I0925 02:01:50.196130  9442 net.cpp:98] Setting up debn3_3
I0925 02:01:50.196143  9442 net.cpp:105] Top shape: 8 128 56 56 (3211264)
I0925 02:01:50.196151  9442 layer_factory.hpp:78] Creating layer derelu3_3
I0925 02:01:50.196156  9442 net.cpp:69] Creating Layer derelu3_3
I0925 02:01:50.196161  9442 net.cpp:396] derelu3_3 <- deconv3_3
I0925 02:01:50.196167  9442 net.cpp:347] derelu3_3 -> deconv3_3 (in-place)
I0925 02:01:50.196172  9442 net.cpp:98] Setting up derelu3_3
I0925 02:01:50.196177  9442 net.cpp:105] Top shape: 8 128 56 56 (3211264)
I0925 02:01:50.196183  9442 layer_factory.hpp:78] Creating layer unpool2
I0925 02:01:50.196194  9442 net.cpp:69] Creating Layer unpool2
I0925 02:01:50.196203  9442 net.cpp:396] unpool2 <- deconv3_3
I0925 02:01:50.196213  9442 net.cpp:358] unpool2 -> unpool2
I0925 02:01:50.196223  9442 net.cpp:98] Setting up unpool2
I0925 02:01:50.196233  9442 net.cpp:105] Top shape: 8 128 112 112 (12845056)
I0925 02:01:50.196238  9442 layer_factory.hpp:78] Creating layer deconv2_1
I0925 02:01:50.196249  9442 net.cpp:69] Creating Layer deconv2_1
I0925 02:01:50.196254  9442 net.cpp:396] deconv2_1 <- unpool2
I0925 02:01:50.196261  9442 net.cpp:358] deconv2_1 -> deconv2_1
I0925 02:01:50.196272  9442 net.cpp:98] Setting up deconv2_1
I0925 02:01:50.199235  9442 net.cpp:105] Top shape: 8 128 112 112 (12845056)
I0925 02:01:50.199246  9442 layer_factory.hpp:78] Creating layer debn2_1
I0925 02:01:50.199255  9442 net.cpp:69] Creating Layer debn2_1
I0925 02:01:50.199260  9442 net.cpp:396] debn2_1 <- deconv2_1
I0925 02:01:50.199266  9442 net.cpp:347] debn2_1 -> deconv2_1 (in-place)
I0925 02:01:50.199273  9442 net.cpp:98] Setting up debn2_1
I0925 02:01:50.199304  9442 net.cpp:105] Top shape: 8 128 112 112 (12845056)
I0925 02:01:50.199312  9442 layer_factory.hpp:78] Creating layer derelu2_1
I0925 02:01:50.199319  9442 net.cpp:69] Creating Layer derelu2_1
I0925 02:01:50.199324  9442 net.cpp:396] derelu2_1 <- deconv2_1
I0925 02:01:50.199331  9442 net.cpp:347] derelu2_1 -> deconv2_1 (in-place)
I0925 02:01:50.199337  9442 net.cpp:98] Setting up derelu2_1
I0925 02:01:50.199342  9442 net.cpp:105] Top shape: 8 128 112 112 (12845056)
I0925 02:01:50.199347  9442 layer_factory.hpp:78] Creating layer deconv2_2
I0925 02:01:50.199353  9442 net.cpp:69] Creating Layer deconv2_2
I0925 02:01:50.199358  9442 net.cpp:396] deconv2_2 <- deconv2_1
I0925 02:01:50.199363  9442 net.cpp:358] deconv2_2 -> deconv2_2
I0925 02:01:50.199370  9442 net.cpp:98] Setting up deconv2_2
I0925 02:01:50.200883  9442 net.cpp:105] Top shape: 8 64 112 112 (6422528)
I0925 02:01:50.200893  9442 layer_factory.hpp:78] Creating layer debn2_2
I0925 02:01:50.200901  9442 net.cpp:69] Creating Layer debn2_2
I0925 02:01:50.200906  9442 net.cpp:396] debn2_2 <- deconv2_2
I0925 02:01:50.200912  9442 net.cpp:347] debn2_2 -> deconv2_2 (in-place)
I0925 02:01:50.200919  9442 net.cpp:98] Setting up debn2_2
I0925 02:01:50.200956  9442 net.cpp:105] Top shape: 8 64 112 112 (6422528)
I0925 02:01:50.200965  9442 layer_factory.hpp:78] Creating layer derelu2_2
I0925 02:01:50.200971  9442 net.cpp:69] Creating Layer derelu2_2
I0925 02:01:50.200986  9442 net.cpp:396] derelu2_2 <- deconv2_2
I0925 02:01:50.200994  9442 net.cpp:347] derelu2_2 -> deconv2_2 (in-place)
I0925 02:01:50.200999  9442 net.cpp:98] Setting up derelu2_2
I0925 02:01:50.201004  9442 net.cpp:105] Top shape: 8 64 112 112 (6422528)
I0925 02:01:50.201009  9442 layer_factory.hpp:78] Creating layer unpool1
I0925 02:01:50.201015  9442 net.cpp:69] Creating Layer unpool1
I0925 02:01:50.201021  9442 net.cpp:396] unpool1 <- deconv2_2
I0925 02:01:50.201027  9442 net.cpp:358] unpool1 -> unpool1
I0925 02:01:50.201035  9442 net.cpp:98] Setting up unpool1
I0925 02:01:50.201040  9442 net.cpp:105] Top shape: 8 64 224 224 (25690112)
I0925 02:01:50.201045  9442 layer_factory.hpp:78] Creating layer deconv1_1
I0925 02:01:50.201051  9442 net.cpp:69] Creating Layer deconv1_1
I0925 02:01:50.201056  9442 net.cpp:396] deconv1_1 <- unpool1
I0925 02:01:50.201063  9442 net.cpp:358] deconv1_1 -> deconv1_1
I0925 02:01:50.201071  9442 net.cpp:98] Setting up deconv1_1
I0925 02:01:50.201894  9442 net.cpp:105] Top shape: 8 64 224 224 (25690112)
I0925 02:01:50.201903  9442 layer_factory.hpp:78] Creating layer debn1_1
I0925 02:01:50.201910  9442 net.cpp:69] Creating Layer debn1_1
I0925 02:01:50.201915  9442 net.cpp:396] debn1_1 <- deconv1_1
I0925 02:01:50.201921  9442 net.cpp:347] debn1_1 -> deconv1_1 (in-place)
I0925 02:01:50.201927  9442 net.cpp:98] Setting up debn1_1
I0925 02:01:50.202033  9442 net.cpp:105] Top shape: 8 64 224 224 (25690112)
I0925 02:01:50.202042  9442 layer_factory.hpp:78] Creating layer derelu1_1
I0925 02:01:50.202049  9442 net.cpp:69] Creating Layer derelu1_1
I0925 02:01:50.202054  9442 net.cpp:396] derelu1_1 <- deconv1_1
I0925 02:01:50.202060  9442 net.cpp:347] derelu1_1 -> deconv1_1 (in-place)
I0925 02:01:50.202066  9442 net.cpp:98] Setting up derelu1_1
I0925 02:01:50.202071  9442 net.cpp:105] Top shape: 8 64 224 224 (25690112)
I0925 02:01:50.202076  9442 layer_factory.hpp:78] Creating layer deconv1_2
I0925 02:01:50.202082  9442 net.cpp:69] Creating Layer deconv1_2
I0925 02:01:50.202087  9442 net.cpp:396] deconv1_2 <- deconv1_1
I0925 02:01:50.202093  9442 net.cpp:358] deconv1_2 -> deconv1_2
I0925 02:01:50.202100  9442 net.cpp:98] Setting up deconv1_2
I0925 02:01:50.202908  9442 net.cpp:105] Top shape: 8 64 224 224 (25690112)
I0925 02:01:50.202919  9442 layer_factory.hpp:78] Creating layer debn1_2
I0925 02:01:50.202925  9442 net.cpp:69] Creating Layer debn1_2
I0925 02:01:50.202930  9442 net.cpp:396] debn1_2 <- deconv1_2
I0925 02:01:50.202936  9442 net.cpp:347] debn1_2 -> deconv1_2 (in-place)
I0925 02:01:50.202944  9442 net.cpp:98] Setting up debn1_2
I0925 02:01:50.203040  9442 net.cpp:105] Top shape: 8 64 224 224 (25690112)
I0925 02:01:50.203048  9442 layer_factory.hpp:78] Creating layer derelu1_2
I0925 02:01:50.203055  9442 net.cpp:69] Creating Layer derelu1_2
I0925 02:01:50.203060  9442 net.cpp:396] derelu1_2 <- deconv1_2
I0925 02:01:50.203065  9442 net.cpp:347] derelu1_2 -> deconv1_2 (in-place)
I0925 02:01:50.203071  9442 net.cpp:98] Setting up derelu1_2
I0925 02:01:50.203076  9442 net.cpp:105] Top shape: 8 64 224 224 (25690112)
I0925 02:01:50.203081  9442 layer_factory.hpp:78] Creating layer seg-score-voc
I0925 02:01:50.203088  9442 net.cpp:69] Creating Layer seg-score-voc
I0925 02:01:50.203094  9442 net.cpp:396] seg-score-voc <- deconv1_2
I0925 02:01:50.203099  9442 net.cpp:358] seg-score-voc -> seg-score
I0925 02:01:50.203105  9442 net.cpp:98] Setting up seg-score-voc
I0925 02:01:50.203204  9442 net.cpp:105] Top shape: 8 21 224 224 (8429568)
I0925 02:01:50.203213  9442 layer_factory.hpp:78] Creating layer seg-score_seg-score-voc_0_split
I0925 02:01:50.203219  9442 net.cpp:69] Creating Layer seg-score_seg-score-voc_0_split
I0925 02:01:50.203224  9442 net.cpp:396] seg-score_seg-score-voc_0_split <- seg-score
I0925 02:01:50.203232  9442 net.cpp:358] seg-score_seg-score-voc_0_split -> seg-score_seg-score-voc_0_split_0
I0925 02:01:50.203238  9442 net.cpp:358] seg-score_seg-score-voc_0_split -> seg-score_seg-score-voc_0_split_1
I0925 02:01:50.203251  9442 net.cpp:98] Setting up seg-score_seg-score-voc_0_split
I0925 02:01:50.203258  9442 net.cpp:105] Top shape: 8 21 224 224 (8429568)
I0925 02:01:50.203263  9442 net.cpp:105] Top shape: 8 21 224 224 (8429568)
I0925 02:01:50.203266  9442 layer_factory.hpp:78] Creating layer seg-accuracy
I0925 02:01:50.203274  9442 net.cpp:69] Creating Layer seg-accuracy
I0925 02:01:50.203279  9442 net.cpp:396] seg-accuracy <- seg-score_seg-score-voc_0_split_0
I0925 02:01:50.203285  9442 net.cpp:396] seg-accuracy <- seg-label_data_1_split_0
I0925 02:01:50.203291  9442 net.cpp:358] seg-accuracy -> seg-accuracy
I0925 02:01:50.203299  9442 net.cpp:98] Setting up seg-accuracy
I0925 02:01:50.203304  9442 net.cpp:105] Top shape: 1 1 1 1 (1)
I0925 02:01:50.203308  9442 layer_factory.hpp:78] Creating layer seg-loss
I0925 02:01:50.203315  9442 net.cpp:69] Creating Layer seg-loss
I0925 02:01:50.203320  9442 net.cpp:396] seg-loss <- seg-score_seg-score-voc_0_split_1
I0925 02:01:50.203326  9442 net.cpp:396] seg-loss <- seg-label_data_1_split_1
I0925 02:01:50.203332  9442 net.cpp:358] seg-loss -> seg-loss
I0925 02:01:50.203338  9442 net.cpp:98] Setting up seg-loss
I0925 02:01:50.203346  9442 net.cpp:105] Top shape: 1 1 1 1 (1)
I0925 02:01:50.203351  9442 net.cpp:111]     with loss weight 1
I0925 02:01:50.203361  9442 net.cpp:172] seg-loss needs backward computation.
I0925 02:01:50.203366  9442 net.cpp:174] seg-accuracy does not need backward computation.
I0925 02:01:50.203372  9442 net.cpp:172] seg-score_seg-score-voc_0_split needs backward computation.
I0925 02:01:50.203377  9442 net.cpp:172] seg-score-voc needs backward computation.
…
