…
I0923 18:54:10.387225 32289 net.cpp:277] The NetState phase (0) differed from the phase (1) specified by a rule in layer seg-accuracy
I0923 18:54:10.387611 32289 net.cpp:39] Initializing net from parameters: 
name: "stage_1_training"
layers {
  top: "data"
  top: "seg-label"
  name: "data"
  type: IMAGE_SEG_DATA
  image_data_param {
    source: "./stage_1_train_imgset/train_reduced_07.txt"
    batch_size: 8
    shuffle: true
    new_height: 250
    new_width: 250
    root_folder: "./VOC2012"
    label_type: PIXEL
  }
  include {
    phase: TRAIN
  }
  transform_param {
    mirror: true
    crop_size: 224
    mean_value: 104.008
    mean_value: 116.669
    mean_value: 122.675
  }
}
layers {
  bottom: "data"
  top: "conv1_1"
  name: "conv1_1"
  type: CONVOLUTION
  blobs_lr: 1
  blobs_lr: 2
  weight_decay: 1
  weight_decay: 0
  convolution_param {
    num_output: 64
    pad: 1
    kernel_size: 3
  }
}
layers {
  bottom: "conv1_1"
  top: "conv1_1"
  name: "bn1_1"
  type: BN
  bn_param {
    scale_filler {
      type: "constant"
      value: 1
    }
    shift_filler {
      type: "constant"
      value: 0.001
    }
  }
}
layers {
  bottom: "conv1_1"
  top: "conv1_1"
  name: "relu1_1"
  type: RELU
}
layers {
  bottom: "conv1_1"
  top: "conv1_2"
  name: "conv1_2"
  type: CONVOLUTION
  blobs_lr: 1
  blobs_lr: 2
  weight_decay: 1
  weight_decay: 0
  convolution_param {
    num_output: 64
    pad: 1
    kernel_size: 3
  }
}
layers {
  bottom: "conv1_2"
  top: "conv1_2"
  name: "bn1_2"
  type: BN
  bn_param {
    scale_filler {
      type: "constant"
      value: 1
    }
    shift_filler {
      type: "constant"
      value: 0.001
    }
  }
}
layers {
  bottom: "conv1_2"
  top: "conv1_2"
  name: "relu1_2"
  type: RELU
}
layers {
  bottom: "conv1_2"
  top: "pool1"
  name: "pool1"
  type: POOLING
  pooling_param {
    pool: MAX
    kernel_size: 2
    stride: 2
  }
}
layers {
  bottom: "pool1"
  top: "conv2_1"
  name: "conv2_1"
  type: CONVOLUTION
  blobs_lr: 1
  blobs_lr: 2
  weight_decay: 1
  weight_decay: 0
  convolution_param {
    num_output: 128
    pad: 1
    kernel_size: 3
  }
}
layers {
  bottom: "conv2_1"
  top: "conv2_1"
  name: "bn2_1"
  type: BN
  bn_param {
    scale_filler {
      type: "constant"
      value: 1
    }
    shift_filler {
      type: "constant"
      value: 0.001
    }
  }
}
layers {
  bottom: "conv2_1"
  top: "conv2_1"
  name: "relu2_1"
  type: RELU
}
layers {
  bottom: "conv2_1"
  top: "conv2_2"
  name: "conv2_2"
  type: CONVOLUTION
  blobs_lr: 1
  blobs_lr: 2
  weight_decay: 1
  weight_decay: 0
  convolution_param {
    num_output: 128
    pad: 1
    kernel_size: 3
  }
}
layers {
  bottom: "conv2_2"
  top: "conv2_2"
  name: "bn2_2"
  type: BN
  bn_param {
    scale_filler {
      type: "constant"
      value: 1
    }
    shift_filler {
      type: "constant"
      value: 0.001
    }
  }
}
layers {
  bottom: "conv2_2"
  top: "conv2_2"
  name: "relu2_2"
  type: RELU
}
layers {
  bottom: "conv2_2"
  top: "pool2"
  name: "pool2"
  type: POOLING
  pooling_param {
    pool: MAX
    kernel_size: 2
    stride: 2
  }
}
layers {
  bottom: "pool2"
  top: "conv3_1"
  name: "conv3_1"
  type: CONVOLUTION
  blobs_lr: 1
  blobs_lr: 2
  weight_decay: 1
  weight_decay: 0
  convolution_param {
    num_output: 256
    pad: 1
    kernel_size: 3
  }
}
layers {
  bottom: "conv3_1"
  top: "conv3_1"
  name: "bn3_1"
  type: BN
  bn_param {
    scale_filler {
      type: "constant"
      value: 1
    }
    shift_filler {
      type: "constant"
      value: 0.001
    }
  }
}
layers {
  bottom: "conv3_1"
  top: "conv3_1"
  name: "relu3_1"
  type: RELU
}
layers {
  bottom: "conv3_1"
  top: "conv3_2"
  name: "conv3_2"
  type: CONVOLUTION
  blobs_lr: 1
  blobs_lr: 2
  weight_decay: 1
  weight_decay: 0
  convolution_param {
    num_output: 256
    pad: 1
    kernel_size: 3
  }
}
layers {
  bottom: "conv3_2"
  top: "conv3_2"
  name: "bn3_2"
  type: BN
  bn_param {
    scale_filler {
      type: "constant"
      value: 1
    }
    shift_filler {
      type: "constant"
      value: 0.001
    }
  }
}
layers {
  bottom: "conv3_2"
  top: "conv3_2"
  name: "relu3_2"
  type: RELU
}
layers {
  bottom: "conv3_2"
  top: "conv3_3"
  name: "conv3_3"
  type: CONVOLUTION
  blobs_lr: 1
  blobs_lr: 2
  weight_decay: 1
  weight_decay: 0
  convolution_param {
    num_output: 256
    pad: 1
    kernel_size: 3
  }
}
layers {
  bottom: "conv3_3"
  top: "conv3_3"
  name: "bn3_3"
  type: BN
  bn_param {
    scale_filler {
      type: "constant"
      value: 1
    }
    shift_filler {
      type: "constant"
      value: 0.001
    }
  }
}
layers {
  bottom: "conv3_3"
  top: "conv3_3"
  name: "relu3_3"
  type: RELU
}
layers {
  bottom: "conv3_3"
  top: "pool3"
  name: "pool3"
  type: POOLING
  pooling_param {
    pool: MAX
    kernel_size: 2
    stride: 2
  }
}
layers {
  bottom: "pool3"
  top: "conv4_1"
  name: "conv4_1"
  type: CONVOLUTION
  blobs_lr: 1
  blobs_lr: 2
  weight_decay: 1
  weight_decay: 0
  convolution_param {
    num_output: 512
    pad: 1
    kernel_size: 3
  }
}
layers {
  bottom: "conv4_1"
  top: "conv4_1"
  name: "bn4_1"
  type: BN
  bn_param {
    scale_filler {
      type: "constant"
      value: 1
    }
    shift_filler {
      type: "constant"
      value: 0.001
    }
  }
}
layers {
  bottom: "conv4_1"
  top: "conv4_1"
  name: "relu4_1"
  type: RELU
}
layers {
  bottom: "conv4_1"
  top: "conv4_2"
  name: "conv4_2"
  type: CONVOLUTION
  blobs_lr: 1
  blobs_lr: 2
  weight_decay: 1
  weight_decay: 0
  convolution_param {
    num_output: 512
    pad: 1
    kernel_size: 3
  }
}
layers {
  bottom: "conv4_2"
  top: "conv4_2"
  name: "bn4_2"
  type: BN
  bn_param {
    scale_filler {
      type: "constant"
      value: 1
    }
    shift_filler {
      type: "constant"
      value: 0.001
    }
  }
}
layers {
  bottom: "conv4_2"
  top: "conv4_2"
  name: "relu4_2"
  type: RELU
}
layers {
  bottom: "conv4_2"
  top: "conv4_3"
  name: "conv4_3"
  type: CONVOLUTION
  blobs_lr: 1
  blobs_lr: 2
  weight_decay: 1
  weight_decay: 0
  convolution_param {
    num_output: 512
    pad: 1
    kernel_size: 3
  }
}
layers {
  bottom: "conv4_3"
  top: "conv4_3"
  name: "bn4_3"
  type: BN
  bn_param {
    scale_filler {
      type: "constant"
      value: 1
    }
    shift_filler {
      type: "constant"
      value: 0.001
    }
  }
}
layers {
  bottom: "conv4_3"
  top: "conv4_3"
  name: "relu4_3"
  type: RELU
}
layers {
  bottom: "conv4_3"
  top: "pool4"
  name: "pool4"
  type: POOLING
  pooling_param {
    pool: MAX
    kernel_size: 2
    stride: 2
  }
}
layers {
  bottom: "pool4"
  top: "conv5_1"
  name: "conv5_1"
  type: CONVOLUTION
  blobs_lr: 1
  blobs_lr: 2
  weight_decay: 1
  weight_decay: 0
  convolution_param {
    num_output: 512
    pad: 1
    kernel_size: 3
  }
}
layers {
  bottom: "conv5_1"
  top: "conv5_1"
  name: "bn5_1"
  type: BN
  bn_param {
    scale_filler {
      type: "constant"
      value: 1
    }
    shift_filler {
      type: "constant"
      value: 0.001
    }
  }
}
layers {
  bottom: "conv5_1"
  top: "conv5_1"
  name: "relu5_1"
  type: RELU
}
layers {
  bottom: "conv5_1"
  top: "conv5_2"
  name: "conv5_2"
  type: CONVOLUTION
  blobs_lr: 1
  blobs_lr: 2
  weight_decay: 1
  weight_decay: 0
  convolution_param {
    num_output: 512
    pad: 1
    kernel_size: 3
  }
}
layers {
  bottom: "conv5_2"
  top: "conv5_2"
  name: "bn5_2"
  type: BN
  bn_param {
    scale_filler {
      type: "constant"
      value: 1
    }
    shift_filler {
      type: "constant"
      value: 0.001
    }
  }
}
layers {
  bottom: "conv5_2"
  top: "conv5_2"
  name: "relu5_2"
  type: RELU
}
layers {
  bottom: "conv5_2"
  top: "conv5_3"
  name: "conv5_3"
  type: CONVOLUTION
  blobs_lr: 1
  blobs_lr: 2
  weight_decay: 1
  weight_decay: 0
  convolution_param {
    num_output: 512
    pad: 1
    kernel_size: 3
  }
}
layers {
  bottom: "conv5_3"
  top: "conv5_3"
  name: "bn5_3"
  type: BN
  bn_param {
    scale_filler {
      type: "constant"
      value: 1
    }
    shift_filler {
      type: "constant"
      value: 0.001
    }
  }
}
layers {
  bottom: "conv5_3"
  top: "conv5_3"
  name: "relu5_3"
  type: RELU
}
layers {
  bottom: "conv5_3"
  top: "pool5"
  name: "pool5"
  type: POOLING
  pooling_param {
    pool: MAX
    kernel_size: 2
    stride: 2
  }
}
layers {
  bottom: "pool5"
  top: "fc6"
  name: "fc6"
  type: CONVOLUTION
  blobs_lr: 1
  blobs_lr: 2
  weight_decay: 1
  weight_decay: 0
  convolution_param {
    num_output: 4096
    kernel_size: 7
  }
}
layers {
  bottom: "fc6"
  top: "fc6"
  name: "bnfc6"
  type: BN
  bn_param {
    scale_filler {
      type: "constant"
      value: 1
    }
    shift_filler {
      type: "constant"
      value: 0.001
    }
  }
}
layers {
  bottom: "fc6"
  top: "fc6"
  name: "relu6"
  type: RELU
}
layers {
  bottom: "fc6"
  top: "fc7"
  name: "fc7"
  type: CONVOLUTION
  blobs_lr: 1
  blobs_lr: 2
  weight_decay: 1
  weight_decay: 0
  convolution_param {
    num_output: 4096
    kernel_size: 1
  }
}
layers {
  bottom: "fc7"
  top: "fc7"
  name: "bnfc7"
  type: BN
  bn_param {
    scale_filler {
      type: "constant"
      value: 1
    }
    shift_filler {
      type: "constant"
      value: 0.001
    }
  }
}
layers {
  bottom: "fc7"
  top: "fc7"
  name: "relu7"
  type: RELU
}
layers {
  bottom: "fc7"
  top: "fc6-deconv"
  name: "fc6-deconv"
  type: DECONVOLUTION
  blobs_lr: 1
  blobs_lr: 2
  weight_decay: 1
  weight_decay: 0
  convolution_param {
    num_output: 512
    kernel_size: 7
    weight_filler {
      type: "gaussian"
      std: 0.01
    }
    bias_filler {
      type: "constant"
      value: 0
    }
  }
}
layers {
  bottom: "fc6-deconv"
  top: "fc6-deconv"
  name: "fc6-deconv-bn"
  type: BN
  bn_param {
    scale_filler {
      type: "constant"
      value: 1
    }
    shift_filler {
      type: "constant"
      value: 0.001
    }
  }
}
layers {
  bottom: "fc6-deconv"
  top: "fc6-deconv"
  name: "fc6-deconv-relu"
  type: RELU
}
layers {
  bottom: "fc6-deconv"
  top: "unpool5"
  name: "unpool5"
  type: UNPOOLING
  unpooling_param {
    unpool: TILE
    kernel_size: 2
    stride: 2
    unpool_size: 14
  }
}
layers {
  bottom: "unpool5"
  top: "deconv5_1"
  name: "deconv5_1"
  type: DECONVOLUTION
  blobs_lr: 1
  blobs_lr: 2
  weight_decay: 1
  weight_decay: 0
  convolution_param {
    num_output: 512
    pad: 1
    kernel_size: 3
    weight_filler {
      type: "gaussian"
      std: 0.01
    }
    bias_filler {
      type: "constant"
      value: 0
    }
  }
}
layers {
  bottom: "deconv5_1"
  top: "deconv5_1"
  name: "debn5_1"
  type: BN
  bn_param {
    scale_filler {
      type: "constant"
      value: 1
    }
    shift_filler {
      type: "constant"
      value: 0.001
    }
  }
}
layers {
  bottom: "deconv5_1"
  top: "deconv5_1"
  name: "derelu5_1"
  type: RELU
}
layers {
  bottom: "deconv5_1"
  top: "deconv5_2"
  name: "deconv5_2"
  type: DECONVOLUTION
  blobs_lr: 1
  blobs_lr: 2
  weight_decay: 1
  weight_decay: 0
  convolution_param {
    num_output: 512
    pad: 1
    kernel_size: 3
    weight_filler {
      type: "gaussian"
      std: 0.01
    }
    bias_filler {
      type: "constant"
      value: 0
    }
  }
}
layers {
  bottom: "deconv5_2"
  top: "deconv5_2"
  name: "debn5_2"
  type: BN
  bn_param {
    scale_filler {
      type: "constant"
      value: 1
    }
    shift_filler {
      type: "constant"
      value: 0.001
    }
  }
}
layers {
  bottom: "deconv5_2"
  top: "deconv5_2"
  name: "derelu5_2"
  type: RELU
}
layers {
  bottom: "deconv5_2"
  top: "deconv5_3"
  name: "deconv5_3"
  type: DECONVOLUTION
  blobs_lr: 1
  blobs_lr: 2
  weight_decay: 1
  weight_decay: 0
  convolution_param {
    num_output: 512
    pad: 1
    kernel_size: 3
    weight_filler {
      type: "gaussian"
      std: 0.01
    }
    bias_filler {
      type: "constant"
      value: 0
    }
  }
}
layers {
  bottom: "deconv5_3"
  top: "deconv5_3"
  name: "debn5_3"
  type: BN
  bn_param {
    scale_filler {
      type: "constant"
      value: 1
    }
    shift_filler {
      type: "constant"
      value: 0.001
    }
  }
}
layers {
  bottom: "deconv5_3"
  top: "deconv5_3"
  name: "derelu5_3"
  type: RELU
}
layers {
  bottom: "deconv5_3"
  top: "unpool4"
  name: "unpool4"
  type: UNPOOLING
  unpooling_param {
    unpool: TILE
    kernel_size: 2
    stride: 2
    unpool_size: 28
  }
}
layers {
  bottom: "unpool4"
  top: "deconv4_1"
  name: "deconv4_1"
  type: DECONVOLUTION
  blobs_lr: 1
  blobs_lr: 2
  weight_decay: 1
  weight_decay: 0
  convolution_param {
    num_output: 512
    pad: 1
    kernel_size: 3
    weight_filler {
      type: "gaussian"
      std: 0.01
    }
    bias_filler {
      type: "constant"
      value: 0
    }
  }
}
layers {
  bottom: "deconv4_1"
  top: "deconv4_1"
  name: "debn4_1"
  type: BN
  bn_param {
    scale_filler {
      type: "constant"
      value: 1
    }
    shift_filler {
      type: "constant"
      value: 0.001
    }
  }
}
layers {
  bottom: "deconv4_1"
  top: "deconv4_1"
  name: "derelu4_1"
  type: RELU
}
layers {
  bottom: "deconv4_1"
  top: "deconv4_2"
  name: "deconv4_2"
  type: DECONVOLUTION
  blobs_lr: 1
  blobs_lr: 2
  weight_decay: 1
  weight_decay: 0
  convolution_param {
    num_output: 512
    pad: 1
    kernel_size: 3
    weight_filler {
      type: "gaussian"
      std: 0.01
    }
    bias_filler {
      type: "constant"
      value: 0
    }
  }
}
layers {
  bottom: "deconv4_2"
  top: "deconv4_2"
  name: "debn4_2"
  type: BN
  bn_param {
    scale_filler {
      type: "constant"
      value: 1
    }
    shift_filler {
      type: "constant"
      value: 0.001
    }
  }
}
layers {
  bottom: "deconv4_2"
  top: "deconv4_2"
  name: "derelu4_2"
  type: RELU
}
layers {
  bottom: "deconv4_2"
  top: "deconv4_3"
  name: "deconv4_3"
  type: DECONVOLUTION
  blobs_lr: 1
  blobs_lr: 2
  weight_decay: 1
  weight_decay: 0
  convolution_param {
    num_output: 256
    pad: 1
    kernel_size: 3
    weight_filler {
      type: "gaussian"
      std: 0.01
    }
    bias_filler {
      type: "constant"
      value: 0
    }
  }
}
layers {
  bottom: "deconv4_3"
  top: "deconv4_3"
  name: "debn4_3"
  type: BN
  bn_param {
    scale_filler {
      type: "constant"
      value: 1
    }
    shift_filler {
      type: "constant"
      value: 0.001
    }
  }
}
layers {
  bottom: "deconv4_3"
  top: "deconv4_3"
  name: "derelu4_3"
  type: RELU
}
layers {
  bottom: "deconv4_3"
  top: "unpool3"
  name: "unpool3"
  type: UNPOOLING
  unpooling_param {
    unpool: TILE
    kernel_size: 2
    stride: 2
    unpool_size: 56
  }
}
layers {
  bottom: "unpool3"
  top: "deconv3_1"
  name: "deconv3_1"
  type: DECONVOLUTION
  blobs_lr: 1
  blobs_lr: 2
  weight_decay: 1
  weight_decay: 0
  convolution_param {
    num_output: 256
    pad: 1
    kernel_size: 3
    weight_filler {
      type: "gaussian"
      std: 0.01
    }
    bias_filler {
      type: "constant"
      value: 0
    }
  }
}
layers {
  bottom: "deconv3_1"
  top: "deconv3_1"
  name: "debn3_1"
  type: BN
  bn_param {
    scale_filler {
      type: "constant"
      value: 1
    }
    shift_filler {
      type: "constant"
      value: 0.001
    }
  }
}
layers {
  bottom: "deconv3_1"
  top: "deconv3_1"
  name: "derelu3_1"
  type: RELU
}
layers {
  bottom: "deconv3_1"
  top: "deconv3_2"
  name: "deconv3_2"
  type: DECONVOLUTION
  blobs_lr: 1
  blobs_lr: 2
  weight_decay: 1
  weight_decay: 0
  convolution_param {
    num_output: 256
    pad: 1
    kernel_size: 3
    weight_filler {
      type: "gaussian"
      std: 0.01
    }
    bias_filler {
      type: "constant"
      value: 0
    }
  }
}
layers {
  bottom: "deconv3_2"
  top: "deconv3_2"
  name: "debn3_2"
  type: BN
  bn_param {
    scale_filler {
      type: "constant"
      value: 1
    }
    shift_filler {
      type: "constant"
      value: 0.001
    }
  }
}
layers {
  bottom: "deconv3_2"
  top: "deconv3_2"
  name: "derelu3_2"
  type: RELU
}
layers {
  bottom: "deconv3_2"
  top: "deconv3_3"
  name: "deconv3_3"
  type: DECONVOLUTION
  blobs_lr: 1
  blobs_lr: 2
  weight_decay: 1
  weight_decay: 0
  convolution_param {
    num_output: 128
    pad: 1
    kernel_size: 3
    weight_filler {
      type: "gaussian"
      std: 0.01
    }
    bias_filler {
      type: "constant"
      value: 0
    }
  }
}
layers {
  bottom: "deconv3_3"
  top: "deconv3_3"
  name: "debn3_3"
  type: BN
  bn_param {
    scale_filler {
      type: "constant"
      value: 1
    }
    shift_filler {
      type: "constant"
      value: 0.001
    }
  }
}
layers {
  bottom: "deconv3_3"
  top: "deconv3_3"
  name: "derelu3_3"
  type: RELU
}
layers {
  bottom: "deconv3_3"
  top: "unpool2"
  name: "unpool2"
  type: UNPOOLING
  unpooling_param {
    unpool: TILE
    kernel_size: 2
    stride: 2
    unpool_size: 112
  }
}
layers {
  bottom: "unpool2"
  top: "deconv2_1"
  name: "deconv2_1"
  type: DECONVOLUTION
  blobs_lr: 1
  blobs_lr: 2
  weight_decay: 1
  weight_decay: 0
  convolution_param {
    num_output: 128
    pad: 1
    kernel_size: 3
    weight_filler {
      type: "gaussian"
      std: 0.01
    }
    bias_filler {
      type: "constant"
      value: 0
    }
  }
}
layers {
  bottom: "deconv2_1"
  top: "deconv2_1"
  name: "debn2_1"
  type: BN
  bn_param {
    scale_filler {
      type: "constant"
      value: 1
    }
    shift_filler {
      type: "constant"
      value: 0.001
    }
  }
}
layers {
  bottom: "deconv2_1"
  top: "deconv2_1"
  name: "derelu2_1"
  type: RELU
}
layers {
  bottom: "deconv2_1"
  top: "deconv2_2"
  name: "deconv2_2"
  type: DECONVOLUTION
  blobs_lr: 1
  blobs_lr: 2
  weight_decay: 1
  weight_decay: 0
  convolution_param {
    num_output: 64
    pad: 1
    kernel_size: 3
    weight_filler {
      type: "gaussian"
      std: 0.01
    }
    bias_filler {
      type: "constant"
      value: 0
    }
  }
}
layers {
  bottom: "deconv2_2"
  top: "deconv2_2"
  name: "debn2_2"
  type: BN
  bn_param {
    scale_filler {
      type: "constant"
      value: 1
    }
    shift_filler {
      type: "constant"
      value: 0.001
    }
  }
}
layers {
  bottom: "deconv2_2"
  top: "deconv2_2"
  name: "derelu2_2"
  type: RELU
}
layers {
  bottom: "deconv2_2"
  top: "unpool1"
  name: "unpool1"
  type: UNPOOLING
  unpooling_param {
    unpool: TILE
    kernel_size: 2
    stride: 2
    unpool_size: 224
  }
}
layers {
  bottom: "unpool1"
  top: "deconv1_1"
  name: "deconv1_1"
  type: DECONVOLUTION
  blobs_lr: 1
  blobs_lr: 2
  weight_decay: 1
  weight_decay: 0
  convolution_param {
    num_output: 64
    pad: 1
    kernel_size: 3
    weight_filler {
      type: "gaussian"
      std: 0.01
    }
    bias_filler {
      type: "constant"
      value: 0
    }
  }
}
layers {
  bottom: "deconv1_1"
  top: "deconv1_1"
  name: "debn1_1"
  type: BN
  bn_param {
    scale_filler {
      type: "constant"
      value: 1
    }
    shift_filler {
      type: "constant"
      value: 0.001
    }
  }
}
layers {
  bottom: "deconv1_1"
  top: "deconv1_1"
  name: "derelu1_1"
  type: RELU
}
layers {
  bottom: "deconv1_1"
  top: "deconv1_2"
  name: "deconv1_2"
  type: DECONVOLUTION
  blobs_lr: 1
  blobs_lr: 2
  weight_decay: 1
  weight_decay: 0
  convolution_param {
    num_output: 64
    pad: 1
    kernel_size: 3
    weight_filler {
      type: "gaussian"
      std: 0.01
    }
    bias_filler {
      type: "constant"
      value: 0
    }
  }
}
layers {
  bottom: "deconv1_2"
  top: "deconv1_2"
  name: "debn1_2"
  type: BN
  bn_param {
    scale_filler {
      type: "constant"
      value: 1
    }
    shift_filler {
      type: "constant"
      value: 0.001
    }
  }
}
layers {
  bottom: "deconv1_2"
  top: "deconv1_2"
  name: "derelu1_2"
  type: RELU
}
layers {
  bottom: "deconv1_2"
  top: "seg-score"
  name: "seg-score-voc"
  type: CONVOLUTION
  blobs_lr: 1
  blobs_lr: 2
  weight_decay: 1
  weight_decay: 0
  convolution_param {
    num_output: 21
    kernel_size: 1
    weight_filler {
      type: "gaussian"
      std: 0.01
    }
    bias_filler {
      type: "constant"
      value: 0
    }
  }
}
layers {
  bottom: "seg-score"
  bottom: "seg-label"
  top: "seg-loss"
  name: "seg-loss"
  type: SOFTMAX_LOSS
  loss_param {
    ignore_label: 255
  }
}
state {
  phase: TRAIN
}
I0923 18:54:10.389972 32289 layer_factory.hpp:78] Creating layer data
I0923 18:54:10.390010 32289 net.cpp:69] Creating Layer data
I0923 18:54:10.390030 32289 net.cpp:358] data -> data
I0923 18:54:10.390058 32289 net.cpp:358] data -> seg-label
I0923 18:54:10.390080 32289 net.cpp:358] data -> (automatic)
I0923 18:54:10.390100 32289 net.cpp:98] Setting up data
I0923 18:54:10.390106 32289 image_seg_data_layer.cpp:51] Opening file ./stage_1_train_imgset/train_reduced_07.txt
I0923 18:54:10.427126 32289 image_seg_data_layer.cpp:68] Shuffling data
I0923 18:54:10.434429 32289 image_seg_data_layer.cpp:73] A total of 53412 images.
I0923 18:54:10.438066 32289 image_seg_data_layer.cpp:119] output data size: 8,3,224,224
I0923 18:54:10.438093 32289 image_seg_data_layer.cpp:123] output label size: 8,1,224,224
I0923 18:54:10.438099 32289 image_seg_data_layer.cpp:127] output data_dim size: 8,1,1,2
I0923 18:54:10.438959 32289 net.cpp:105] Top shape: 8 3 224 224 (1204224)
I0923 18:54:10.438988 32289 net.cpp:105] Top shape: 8 1 224 224 (401408)
I0923 18:54:10.438994 32289 net.cpp:105] Top shape: 8 1 1 2 (16)
I0923 18:54:10.438999 32289 layer_factory.hpp:78] Creating layer conv1_1
I0923 18:54:10.439012 32289 net.cpp:69] Creating Layer conv1_1
I0923 18:54:10.439016 32289 net.cpp:396] conv1_1 <- data
I0923 18:54:10.439028 32289 net.cpp:358] conv1_1 -> conv1_1
I0923 18:54:10.439036 32289 net.cpp:98] Setting up conv1_1
I0923 18:54:10.439100 32289 net.cpp:105] Top shape: 8 64 224 224 (25690112)
I0923 18:54:10.439126 32289 layer_factory.hpp:78] Creating layer bn1_1
I0923 18:54:10.439138 32289 net.cpp:69] Creating Layer bn1_1
I0923 18:54:10.439143 32289 net.cpp:396] bn1_1 <- conv1_1
I0923 18:54:10.439151 32289 net.cpp:347] bn1_1 -> conv1_1 (in-place)
I0923 18:54:10.439157 32289 net.cpp:98] Setting up bn1_1
I0923 18:54:10.439263 32289 net.cpp:105] Top shape: 8 64 224 224 (25690112)
I0923 18:54:10.439285 32289 layer_factory.hpp:78] Creating layer relu1_1
I0923 18:54:10.439291 32289 net.cpp:69] Creating Layer relu1_1
I0923 18:54:10.439296 32289 net.cpp:396] relu1_1 <- conv1_1
I0923 18:54:10.439301 32289 net.cpp:347] relu1_1 -> conv1_1 (in-place)
I0923 18:54:10.439307 32289 net.cpp:98] Setting up relu1_1
I0923 18:54:10.439317 32289 net.cpp:105] Top shape: 8 64 224 224 (25690112)
I0923 18:54:10.439321 32289 layer_factory.hpp:78] Creating layer conv1_2
I0923 18:54:10.439328 32289 net.cpp:69] Creating Layer conv1_2
I0923 18:54:10.439332 32289 net.cpp:396] conv1_2 <- conv1_1
I0923 18:54:10.439338 32289 net.cpp:358] conv1_2 -> conv1_2
I0923 18:54:10.439344 32289 net.cpp:98] Setting up conv1_2
I0923 18:54:10.439437 32289 net.cpp:105] Top shape: 8 64 224 224 (25690112)
I0923 18:54:10.439458 32289 layer_factory.hpp:78] Creating layer bn1_2
I0923 18:54:10.439465 32289 net.cpp:69] Creating Layer bn1_2
I0923 18:54:10.439471 32289 net.cpp:396] bn1_2 <- conv1_2
I0923 18:54:10.439476 32289 net.cpp:347] bn1_2 -> conv1_2 (in-place)
I0923 18:54:10.439481 32289 net.cpp:98] Setting up bn1_2
I0923 18:54:10.439579 32289 net.cpp:105] Top shape: 8 64 224 224 (25690112)
I0923 18:54:10.439599 32289 layer_factory.hpp:78] Creating layer relu1_2
I0923 18:54:10.439605 32289 net.cpp:69] Creating Layer relu1_2
I0923 18:54:10.439610 32289 net.cpp:396] relu1_2 <- conv1_2
I0923 18:54:10.439615 32289 net.cpp:347] relu1_2 -> conv1_2 (in-place)
I0923 18:54:10.439620 32289 net.cpp:98] Setting up relu1_2
I0923 18:54:10.439625 32289 net.cpp:105] Top shape: 8 64 224 224 (25690112)
I0923 18:54:10.439630 32289 layer_factory.hpp:78] Creating layer pool1
I0923 18:54:10.439635 32289 net.cpp:69] Creating Layer pool1
I0923 18:54:10.439640 32289 net.cpp:396] pool1 <- conv1_2
I0923 18:54:10.439645 32289 net.cpp:358] pool1 -> pool1
I0923 18:54:10.439651 32289 net.cpp:98] Setting up pool1
I0923 18:54:10.439667 32289 net.cpp:105] Top shape: 8 64 112 112 (6422528)
I0923 18:54:10.439712 32289 layer_factory.hpp:78] Creating layer conv2_1
I0923 18:54:10.439730 32289 net.cpp:69] Creating Layer conv2_1
I0923 18:54:10.439735 32289 net.cpp:396] conv2_1 <- pool1
I0923 18:54:10.439740 32289 net.cpp:358] conv2_1 -> conv2_1
I0923 18:54:10.439748 32289 net.cpp:98] Setting up conv2_1
I0923 18:54:10.439864 32289 net.cpp:105] Top shape: 8 128 112 112 (12845056)
I0923 18:54:10.439887 32289 layer_factory.hpp:78] Creating layer bn2_1
I0923 18:54:10.439893 32289 net.cpp:69] Creating Layer bn2_1
I0923 18:54:10.439898 32289 net.cpp:396] bn2_1 <- conv2_1
I0923 18:54:10.439903 32289 net.cpp:347] bn2_1 -> conv2_1 (in-place)
I0923 18:54:10.439909 32289 net.cpp:98] Setting up bn2_1
I0923 18:54:10.439967 32289 net.cpp:105] Top shape: 8 128 112 112 (12845056)
I0923 18:54:10.439987 32289 layer_factory.hpp:78] Creating layer relu2_1
I0923 18:54:10.439993 32289 net.cpp:69] Creating Layer relu2_1
I0923 18:54:10.439998 32289 net.cpp:396] relu2_1 <- conv2_1
I0923 18:54:10.440003 32289 net.cpp:347] relu2_1 -> conv2_1 (in-place)
I0923 18:54:10.440008 32289 net.cpp:98] Setting up relu2_1
I0923 18:54:10.440013 32289 net.cpp:105] Top shape: 8 128 112 112 (12845056)
I0923 18:54:10.440017 32289 layer_factory.hpp:78] Creating layer conv2_2
I0923 18:54:10.440022 32289 net.cpp:69] Creating Layer conv2_2
I0923 18:54:10.440027 32289 net.cpp:396] conv2_2 <- conv2_1
I0923 18:54:10.440032 32289 net.cpp:358] conv2_2 -> conv2_2
I0923 18:54:10.440038 32289 net.cpp:98] Setting up conv2_2
I0923 18:54:10.440259 32289 net.cpp:105] Top shape: 8 128 112 112 (12845056)
I0923 18:54:10.440280 32289 layer_factory.hpp:78] Creating layer bn2_2
I0923 18:54:10.440287 32289 net.cpp:69] Creating Layer bn2_2
I0923 18:54:10.440292 32289 net.cpp:396] bn2_2 <- conv2_2
I0923 18:54:10.440297 32289 net.cpp:347] bn2_2 -> conv2_2 (in-place)
I0923 18:54:10.440304 32289 net.cpp:98] Setting up bn2_2
I0923 18:54:10.440347 32289 net.cpp:105] Top shape: 8 128 112 112 (12845056)
I0923 18:54:10.440358 32289 layer_factory.hpp:78] Creating layer relu2_2
I0923 18:54:10.440364 32289 net.cpp:69] Creating Layer relu2_2
I0923 18:54:10.440369 32289 net.cpp:396] relu2_2 <- conv2_2
I0923 18:54:10.440376 32289 net.cpp:347] relu2_2 -> conv2_2 (in-place)
I0923 18:54:10.440382 32289 net.cpp:98] Setting up relu2_2
I0923 18:54:10.440385 32289 net.cpp:105] Top shape: 8 128 112 112 (12845056)
I0923 18:54:10.440390 32289 layer_factory.hpp:78] Creating layer pool2
I0923 18:54:10.440400 32289 net.cpp:69] Creating Layer pool2
I0923 18:54:10.440407 32289 net.cpp:396] pool2 <- conv2_2
I0923 18:54:10.440417 32289 net.cpp:358] pool2 -> pool2
I0923 18:54:10.440424 32289 net.cpp:98] Setting up pool2
I0923 18:54:10.440429 32289 net.cpp:105] Top shape: 8 128 56 56 (3211264)
I0923 18:54:10.440434 32289 layer_factory.hpp:78] Creating layer conv3_1
I0923 18:54:10.440441 32289 net.cpp:69] Creating Layer conv3_1
I0923 18:54:10.440446 32289 net.cpp:396] conv3_1 <- pool2
I0923 18:54:10.440451 32289 net.cpp:358] conv3_1 -> conv3_1
I0923 18:54:10.440459 32289 net.cpp:98] Setting up conv3_1
I0923 18:54:10.440883 32289 net.cpp:105] Top shape: 8 256 56 56 (6422528)
I0923 18:54:10.440907 32289 layer_factory.hpp:78] Creating layer bn3_1
I0923 18:54:10.440917 32289 net.cpp:69] Creating Layer bn3_1
I0923 18:54:10.440922 32289 net.cpp:396] bn3_1 <- conv3_1
I0923 18:54:10.440927 32289 net.cpp:347] bn3_1 -> conv3_1 (in-place)
I0923 18:54:10.440934 32289 net.cpp:98] Setting up bn3_1
I0923 18:54:10.440954 32289 net.cpp:105] Top shape: 8 256 56 56 (6422528)
I0923 18:54:10.440974 32289 layer_factory.hpp:78] Creating layer relu3_1
I0923 18:54:10.440991 32289 net.cpp:69] Creating Layer relu3_1
I0923 18:54:10.440996 32289 net.cpp:396] relu3_1 <- conv3_1
I0923 18:54:10.441001 32289 net.cpp:347] relu3_1 -> conv3_1 (in-place)
I0923 18:54:10.441006 32289 net.cpp:98] Setting up relu3_1
I0923 18:54:10.441011 32289 net.cpp:105] Top shape: 8 256 56 56 (6422528)
I0923 18:54:10.441015 32289 layer_factory.hpp:78] Creating layer conv3_2
I0923 18:54:10.441021 32289 net.cpp:69] Creating Layer conv3_2
I0923 18:54:10.441033 32289 net.cpp:396] conv3_2 <- conv3_1
I0923 18:54:10.441040 32289 net.cpp:358] conv3_2 -> conv3_2
I0923 18:54:10.441046 32289 net.cpp:98] Setting up conv3_2
I0923 18:54:10.441872 32289 net.cpp:105] Top shape: 8 256 56 56 (6422528)
I0923 18:54:10.441884 32289 layer_factory.hpp:78] Creating layer bn3_2
I0923 18:54:10.441892 32289 net.cpp:69] Creating Layer bn3_2
I0923 18:54:10.441900 32289 net.cpp:396] bn3_2 <- conv3_2
I0923 18:54:10.441910 32289 net.cpp:347] bn3_2 -> conv3_2 (in-place)
I0923 18:54:10.441917 32289 net.cpp:98] Setting up bn3_2
I0923 18:54:10.441932 32289 net.cpp:105] Top shape: 8 256 56 56 (6422528)
I0923 18:54:10.441944 32289 layer_factory.hpp:78] Creating layer relu3_2
I0923 18:54:10.441952 32289 net.cpp:69] Creating Layer relu3_2
I0923 18:54:10.441957 32289 net.cpp:396] relu3_2 <- conv3_2
I0923 18:54:10.441962 32289 net.cpp:347] relu3_2 -> conv3_2 (in-place)
I0923 18:54:10.441968 32289 net.cpp:98] Setting up relu3_2
I0923 18:54:10.441973 32289 net.cpp:105] Top shape: 8 256 56 56 (6422528)
I0923 18:54:10.441977 32289 layer_factory.hpp:78] Creating layer conv3_3
I0923 18:54:10.441983 32289 net.cpp:69] Creating Layer conv3_3
I0923 18:54:10.441987 32289 net.cpp:396] conv3_3 <- conv3_2
I0923 18:54:10.441997 32289 net.cpp:358] conv3_3 -> conv3_3
I0923 18:54:10.442008 32289 net.cpp:98] Setting up conv3_3
I0923 18:54:10.442792 32289 net.cpp:105] Top shape: 8 256 56 56 (6422528)
I0923 18:54:10.442814 32289 layer_factory.hpp:78] Creating layer bn3_3
I0923 18:54:10.442821 32289 net.cpp:69] Creating Layer bn3_3
I0923 18:54:10.442826 32289 net.cpp:396] bn3_3 <- conv3_3
I0923 18:54:10.442832 32289 net.cpp:347] bn3_3 -> conv3_3 (in-place)
I0923 18:54:10.442837 32289 net.cpp:98] Setting up bn3_3
I0923 18:54:10.442853 32289 net.cpp:105] Top shape: 8 256 56 56 (6422528)
I0923 18:54:10.442863 32289 layer_factory.hpp:78] Creating layer relu3_3
I0923 18:54:10.442873 32289 net.cpp:69] Creating Layer relu3_3
I0923 18:54:10.442878 32289 net.cpp:396] relu3_3 <- conv3_3
I0923 18:54:10.442885 32289 net.cpp:347] relu3_3 -> conv3_3 (in-place)
I0923 18:54:10.442890 32289 net.cpp:98] Setting up relu3_3
I0923 18:54:10.442895 32289 net.cpp:105] Top shape: 8 256 56 56 (6422528)
I0923 18:54:10.442899 32289 layer_factory.hpp:78] Creating layer pool3
I0923 18:54:10.442905 32289 net.cpp:69] Creating Layer pool3
I0923 18:54:10.442909 32289 net.cpp:396] pool3 <- conv3_3
I0923 18:54:10.442914 32289 net.cpp:358] pool3 -> pool3
I0923 18:54:10.442920 32289 net.cpp:98] Setting up pool3
I0923 18:54:10.442929 32289 net.cpp:105] Top shape: 8 256 28 28 (1605632)
I0923 18:54:10.442939 32289 layer_factory.hpp:78] Creating layer conv4_1
I0923 18:54:10.442946 32289 net.cpp:69] Creating Layer conv4_1
I0923 18:54:10.442953 32289 net.cpp:396] conv4_1 <- pool3
I0923 18:54:10.442962 32289 net.cpp:358] conv4_1 -> conv4_1
I0923 18:54:10.442968 32289 net.cpp:98] Setting up conv4_1
I0923 18:54:10.444172 32289 net.cpp:105] Top shape: 8 512 28 28 (3211264)
I0923 18:54:10.444198 32289 layer_factory.hpp:78] Creating layer bn4_1
I0923 18:54:10.444207 32289 net.cpp:69] Creating Layer bn4_1
I0923 18:54:10.444212 32289 net.cpp:396] bn4_1 <- conv4_1
I0923 18:54:10.444218 32289 net.cpp:347] bn4_1 -> conv4_1 (in-place)
I0923 18:54:10.444224 32289 net.cpp:98] Setting up bn4_1
I0923 18:54:10.444237 32289 net.cpp:105] Top shape: 8 512 28 28 (3211264)
I0923 18:54:10.444244 32289 layer_factory.hpp:78] Creating layer relu4_1
I0923 18:54:10.444249 32289 net.cpp:69] Creating Layer relu4_1
I0923 18:54:10.444253 32289 net.cpp:396] relu4_1 <- conv4_1
I0923 18:54:10.444260 32289 net.cpp:347] relu4_1 -> conv4_1 (in-place)
I0923 18:54:10.444265 32289 net.cpp:98] Setting up relu4_1
I0923 18:54:10.444270 32289 net.cpp:105] Top shape: 8 512 28 28 (3211264)
I0923 18:54:10.444274 32289 layer_factory.hpp:78] Creating layer conv4_2
I0923 18:54:10.444280 32289 net.cpp:69] Creating Layer conv4_2
I0923 18:54:10.444284 32289 net.cpp:396] conv4_2 <- conv4_1
I0923 18:54:10.444290 32289 net.cpp:358] conv4_2 -> conv4_2
I0923 18:54:10.444296 32289 net.cpp:98] Setting up conv4_2
I0923 18:54:10.447048 32289 net.cpp:105] Top shape: 8 512 28 28 (3211264)
I0923 18:54:10.447116 32289 layer_factory.hpp:78] Creating layer bn4_2
I0923 18:54:10.447130 32289 net.cpp:69] Creating Layer bn4_2
I0923 18:54:10.447136 32289 net.cpp:396] bn4_2 <- conv4_2
I0923 18:54:10.447144 32289 net.cpp:347] bn4_2 -> conv4_2 (in-place)
I0923 18:54:10.447152 32289 net.cpp:98] Setting up bn4_2
I0923 18:54:10.447166 32289 net.cpp:105] Top shape: 8 512 28 28 (3211264)
I0923 18:54:10.447172 32289 layer_factory.hpp:78] Creating layer relu4_2
I0923 18:54:10.447178 32289 net.cpp:69] Creating Layer relu4_2
I0923 18:54:10.447182 32289 net.cpp:396] relu4_2 <- conv4_2
I0923 18:54:10.447188 32289 net.cpp:347] relu4_2 -> conv4_2 (in-place)
I0923 18:54:10.447193 32289 net.cpp:98] Setting up relu4_2
I0923 18:54:10.447198 32289 net.cpp:105] Top shape: 8 512 28 28 (3211264)
I0923 18:54:10.447203 32289 layer_factory.hpp:78] Creating layer conv4_3
I0923 18:54:10.447211 32289 net.cpp:69] Creating Layer conv4_3
I0923 18:54:10.447214 32289 net.cpp:396] conv4_3 <- conv4_2
I0923 18:54:10.447221 32289 net.cpp:358] conv4_3 -> conv4_3
I0923 18:54:10.447227 32289 net.cpp:98] Setting up conv4_3
I0923 18:54:10.450039 32289 net.cpp:105] Top shape: 8 512 28 28 (3211264)
I0923 18:54:10.450081 32289 layer_factory.hpp:78] Creating layer bn4_3
I0923 18:54:10.450095 32289 net.cpp:69] Creating Layer bn4_3
I0923 18:54:10.450103 32289 net.cpp:396] bn4_3 <- conv4_3
I0923 18:54:10.450109 32289 net.cpp:347] bn4_3 -> conv4_3 (in-place)
I0923 18:54:10.450116 32289 net.cpp:98] Setting up bn4_3
I0923 18:54:10.450130 32289 net.cpp:105] Top shape: 8 512 28 28 (3211264)
I0923 18:54:10.450136 32289 layer_factory.hpp:78] Creating layer relu4_3
I0923 18:54:10.450142 32289 net.cpp:69] Creating Layer relu4_3
I0923 18:54:10.450146 32289 net.cpp:396] relu4_3 <- conv4_3
I0923 18:54:10.450151 32289 net.cpp:347] relu4_3 -> conv4_3 (in-place)
I0923 18:54:10.450156 32289 net.cpp:98] Setting up relu4_3
I0923 18:54:10.450161 32289 net.cpp:105] Top shape: 8 512 28 28 (3211264)
I0923 18:54:10.450166 32289 layer_factory.hpp:78] Creating layer pool4
I0923 18:54:10.450172 32289 net.cpp:69] Creating Layer pool4
I0923 18:54:10.450176 32289 net.cpp:396] pool4 <- conv4_3
I0923 18:54:10.450181 32289 net.cpp:358] pool4 -> pool4
I0923 18:54:10.450189 32289 net.cpp:98] Setting up pool4
I0923 18:54:10.450196 32289 net.cpp:105] Top shape: 8 512 14 14 (802816)
I0923 18:54:10.450201 32289 layer_factory.hpp:78] Creating layer conv5_1
I0923 18:54:10.450207 32289 net.cpp:69] Creating Layer conv5_1
I0923 18:54:10.450212 32289 net.cpp:396] conv5_1 <- pool4
I0923 18:54:10.450217 32289 net.cpp:358] conv5_1 -> conv5_1
I0923 18:54:10.450223 32289 net.cpp:98] Setting up conv5_1
I0923 18:54:10.452499 32289 net.cpp:105] Top shape: 8 512 14 14 (802816)
I0923 18:54:10.452548 32289 layer_factory.hpp:78] Creating layer bn5_1
I0923 18:54:10.452563 32289 net.cpp:69] Creating Layer bn5_1
I0923 18:54:10.452569 32289 net.cpp:396] bn5_1 <- conv5_1
I0923 18:54:10.452575 32289 net.cpp:347] bn5_1 -> conv5_1 (in-place)
I0923 18:54:10.452582 32289 net.cpp:98] Setting up bn5_1
I0923 18:54:10.452594 32289 net.cpp:105] Top shape: 8 512 14 14 (802816)
I0923 18:54:10.452600 32289 layer_factory.hpp:78] Creating layer relu5_1
I0923 18:54:10.452606 32289 net.cpp:69] Creating Layer relu5_1
I0923 18:54:10.452611 32289 net.cpp:396] relu5_1 <- conv5_1
I0923 18:54:10.452617 32289 net.cpp:347] relu5_1 -> conv5_1 (in-place)
I0923 18:54:10.452622 32289 net.cpp:98] Setting up relu5_1
I0923 18:54:10.452627 32289 net.cpp:105] Top shape: 8 512 14 14 (802816)
I0923 18:54:10.452631 32289 layer_factory.hpp:78] Creating layer conv5_2
I0923 18:54:10.452638 32289 net.cpp:69] Creating Layer conv5_2
I0923 18:54:10.452642 32289 net.cpp:396] conv5_2 <- conv5_1
I0923 18:54:10.452647 32289 net.cpp:358] conv5_2 -> conv5_2
I0923 18:54:10.452654 32289 net.cpp:98] Setting up conv5_2
I0923 18:54:10.455171 32289 net.cpp:105] Top shape: 8 512 14 14 (802816)
I0923 18:54:10.455216 32289 layer_factory.hpp:78] Creating layer bn5_2
I0923 18:54:10.455235 32289 net.cpp:69] Creating Layer bn5_2
I0923 18:54:10.455270 32289 net.cpp:396] bn5_2 <- conv5_2
I0923 18:54:10.455277 32289 net.cpp:347] bn5_2 -> conv5_2 (in-place)
I0923 18:54:10.455291 32289 net.cpp:98] Setting up bn5_2
I0923 18:54:10.455307 32289 net.cpp:105] Top shape: 8 512 14 14 (802816)
I0923 18:54:10.455319 32289 layer_factory.hpp:78] Creating layer relu5_2
I0923 18:54:10.455328 32289 net.cpp:69] Creating Layer relu5_2
I0923 18:54:10.455333 32289 net.cpp:396] relu5_2 <- conv5_2
I0923 18:54:10.455338 32289 net.cpp:347] relu5_2 -> conv5_2 (in-place)
I0923 18:54:10.455344 32289 net.cpp:98] Setting up relu5_2
I0923 18:54:10.455349 32289 net.cpp:105] Top shape: 8 512 14 14 (802816)
I0923 18:54:10.455354 32289 layer_factory.hpp:78] Creating layer conv5_3
I0923 18:54:10.455361 32289 net.cpp:69] Creating Layer conv5_3
I0923 18:54:10.455365 32289 net.cpp:396] conv5_3 <- conv5_2
I0923 18:54:10.455371 32289 net.cpp:358] conv5_3 -> conv5_3
I0923 18:54:10.455377 32289 net.cpp:98] Setting up conv5_3
I0923 18:54:10.458199 32289 net.cpp:105] Top shape: 8 512 14 14 (802816)
I0923 18:54:10.458241 32289 layer_factory.hpp:78] Creating layer bn5_3
I0923 18:54:10.458252 32289 net.cpp:69] Creating Layer bn5_3
I0923 18:54:10.458258 32289 net.cpp:396] bn5_3 <- conv5_3
I0923 18:54:10.458266 32289 net.cpp:347] bn5_3 -> conv5_3 (in-place)
I0923 18:54:10.458274 32289 net.cpp:98] Setting up bn5_3
I0923 18:54:10.458288 32289 net.cpp:105] Top shape: 8 512 14 14 (802816)
I0923 18:54:10.458294 32289 layer_factory.hpp:78] Creating layer relu5_3
I0923 18:54:10.458309 32289 net.cpp:69] Creating Layer relu5_3
I0923 18:54:10.458318 32289 net.cpp:396] relu5_3 <- conv5_3
I0923 18:54:10.458326 32289 net.cpp:347] relu5_3 -> conv5_3 (in-place)
I0923 18:54:10.458334 32289 net.cpp:98] Setting up relu5_3
I0923 18:54:10.458343 32289 net.cpp:105] Top shape: 8 512 14 14 (802816)
I0923 18:54:10.458348 32289 layer_factory.hpp:78] Creating layer pool5
I0923 18:54:10.458353 32289 net.cpp:69] Creating Layer pool5
I0923 18:54:10.458359 32289 net.cpp:396] pool5 <- conv5_3
I0923 18:54:10.458364 32289 net.cpp:358] pool5 -> pool5
I0923 18:54:10.458371 32289 net.cpp:98] Setting up pool5
I0923 18:54:10.458380 32289 net.cpp:105] Top shape: 8 512 7 7 (200704)
I0923 18:54:10.458389 32289 layer_factory.hpp:78] Creating layer fc6
I0923 18:54:10.458395 32289 net.cpp:69] Creating Layer fc6
I0923 18:54:10.458400 32289 net.cpp:396] fc6 <- pool5
I0923 18:54:10.458406 32289 net.cpp:358] fc6 -> fc6
I0923 18:54:10.458416 32289 net.cpp:98] Setting up fc6
I0923 18:54:10.560761 32289 net.cpp:105] Top shape: 8 4096 1 1 (32768)
I0923 18:54:10.560814 32289 layer_factory.hpp:78] Creating layer bnfc6
I0923 18:54:10.560825 32289 net.cpp:69] Creating Layer bnfc6
I0923 18:54:10.560832 32289 net.cpp:396] bnfc6 <- fc6
I0923 18:54:10.560838 32289 net.cpp:347] bnfc6 -> fc6 (in-place)
I0923 18:54:10.560847 32289 net.cpp:98] Setting up bnfc6
I0923 18:54:10.560868 32289 net.cpp:105] Top shape: 8 4096 1 1 (32768)
I0923 18:54:10.560875 32289 layer_factory.hpp:78] Creating layer relu6
I0923 18:54:10.560881 32289 net.cpp:69] Creating Layer relu6
I0923 18:54:10.560886 32289 net.cpp:396] relu6 <- fc6
I0923 18:54:10.560891 32289 net.cpp:347] relu6 -> fc6 (in-place)
I0923 18:54:10.560896 32289 net.cpp:98] Setting up relu6
I0923 18:54:10.560901 32289 net.cpp:105] Top shape: 8 4096 1 1 (32768)
I0923 18:54:10.560905 32289 layer_factory.hpp:78] Creating layer fc7
I0923 18:54:10.560911 32289 net.cpp:69] Creating Layer fc7
I0923 18:54:10.560916 32289 net.cpp:396] fc7 <- fc6
I0923 18:54:10.560922 32289 net.cpp:358] fc7 -> fc7
I0923 18:54:10.560930 32289 net.cpp:98] Setting up fc7
I0923 18:54:10.578394 32289 net.cpp:105] Top shape: 8 4096 1 1 (32768)
I0923 18:54:10.578444 32289 layer_factory.hpp:78] Creating layer bnfc7
I0923 18:54:10.578455 32289 net.cpp:69] Creating Layer bnfc7
I0923 18:54:10.578461 32289 net.cpp:396] bnfc7 <- fc7
I0923 18:54:10.578469 32289 net.cpp:347] bnfc7 -> fc7 (in-place)
I0923 18:54:10.578477 32289 net.cpp:98] Setting up bnfc7
I0923 18:54:10.578501 32289 net.cpp:105] Top shape: 8 4096 1 1 (32768)
I0923 18:54:10.578507 32289 layer_factory.hpp:78] Creating layer relu7
I0923 18:54:10.578552 32289 net.cpp:69] Creating Layer relu7
I0923 18:54:10.578557 32289 net.cpp:396] relu7 <- fc7
I0923 18:54:10.578563 32289 net.cpp:347] relu7 -> fc7 (in-place)
I0923 18:54:10.578568 32289 net.cpp:98] Setting up relu7
I0923 18:54:10.578573 32289 net.cpp:105] Top shape: 8 4096 1 1 (32768)
I0923 18:54:10.578577 32289 layer_factory.hpp:78] Creating layer fc6-deconv
I0923 18:54:10.578603 32289 net.cpp:69] Creating Layer fc6-deconv
I0923 18:54:10.578610 32289 net.cpp:396] fc6-deconv <- fc7
I0923 18:54:10.578620 32289 net.cpp:358] fc6-deconv -> fc6-deconv
I0923 18:54:10.578640 32289 net.cpp:98] Setting up fc6-deconv
I0923 18:54:12.587947 32289 net.cpp:105] Top shape: 8 512 7 7 (200704)
I0923 18:54:12.587996 32289 layer_factory.hpp:78] Creating layer fc6-deconv-bn
I0923 18:54:12.588007 32289 net.cpp:69] Creating Layer fc6-deconv-bn
I0923 18:54:12.588014 32289 net.cpp:396] fc6-deconv-bn <- fc6-deconv
I0923 18:54:12.588021 32289 net.cpp:347] fc6-deconv-bn -> fc6-deconv (in-place)
I0923 18:54:12.588028 32289 net.cpp:98] Setting up fc6-deconv-bn
I0923 18:54:12.588039 32289 net.cpp:105] Top shape: 8 512 7 7 (200704)
I0923 18:54:12.588045 32289 layer_factory.hpp:78] Creating layer fc6-deconv-relu
I0923 18:54:12.588052 32289 net.cpp:69] Creating Layer fc6-deconv-relu
I0923 18:54:12.588055 32289 net.cpp:396] fc6-deconv-relu <- fc6-deconv
I0923 18:54:12.588063 32289 net.cpp:347] fc6-deconv-relu -> fc6-deconv (in-place)
I0923 18:54:12.588068 32289 net.cpp:98] Setting up fc6-deconv-relu
I0923 18:54:12.588073 32289 net.cpp:105] Top shape: 8 512 7 7 (200704)
I0923 18:54:12.588076 32289 layer_factory.hpp:78] Creating layer unpool5
I0923 18:54:12.588083 32289 net.cpp:69] Creating Layer unpool5
I0923 18:54:12.588086 32289 net.cpp:396] unpool5 <- fc6-deconv
I0923 18:54:12.588093 32289 net.cpp:358] unpool5 -> unpool5
I0923 18:54:12.588099 32289 net.cpp:98] Setting up unpool5
I0923 18:54:12.588112 32289 net.cpp:105] Top shape: 8 512 14 14 (802816)
I0923 18:54:12.588129 32289 layer_factory.hpp:78] Creating layer deconv5_1
I0923 18:54:12.588135 32289 net.cpp:69] Creating Layer deconv5_1
I0923 18:54:12.588140 32289 net.cpp:396] deconv5_1 <- unpool5
I0923 18:54:12.588146 32289 net.cpp:358] deconv5_1 -> deconv5_1
I0923 18:54:12.588153 32289 net.cpp:98] Setting up deconv5_1
I0923 18:54:12.634256 32289 net.cpp:105] Top shape: 8 512 14 14 (802816)
I0923 18:54:12.634309 32289 layer_factory.hpp:78] Creating layer debn5_1
I0923 18:54:12.634320 32289 net.cpp:69] Creating Layer debn5_1
I0923 18:54:12.634325 32289 net.cpp:396] debn5_1 <- deconv5_1
I0923 18:54:12.634333 32289 net.cpp:347] debn5_1 -> deconv5_1 (in-place)
I0923 18:54:12.634341 32289 net.cpp:98] Setting up debn5_1
I0923 18:54:12.634351 32289 net.cpp:105] Top shape: 8 512 14 14 (802816)
I0923 18:54:12.634357 32289 layer_factory.hpp:78] Creating layer derelu5_1
I0923 18:54:12.634363 32289 net.cpp:69] Creating Layer derelu5_1
I0923 18:54:12.634367 32289 net.cpp:396] derelu5_1 <- deconv5_1
I0923 18:54:12.634374 32289 net.cpp:347] derelu5_1 -> deconv5_1 (in-place)
I0923 18:54:12.634382 32289 net.cpp:98] Setting up derelu5_1
I0923 18:54:12.634398 32289 net.cpp:105] Top shape: 8 512 14 14 (802816)
I0923 18:54:12.634403 32289 layer_factory.hpp:78] Creating layer deconv5_2
I0923 18:54:12.634409 32289 net.cpp:69] Creating Layer deconv5_2
I0923 18:54:12.634413 32289 net.cpp:396] deconv5_2 <- deconv5_1
I0923 18:54:12.634419 32289 net.cpp:358] deconv5_2 -> deconv5_2
I0923 18:54:12.634426 32289 net.cpp:98] Setting up deconv5_2
I0923 18:54:12.680830 32289 net.cpp:105] Top shape: 8 512 14 14 (802816)
I0923 18:54:12.680868 32289 layer_factory.hpp:78] Creating layer debn5_2
I0923 18:54:12.680878 32289 net.cpp:69] Creating Layer debn5_2
I0923 18:54:12.680884 32289 net.cpp:396] debn5_2 <- deconv5_2
I0923 18:54:12.680892 32289 net.cpp:347] debn5_2 -> deconv5_2 (in-place)
I0923 18:54:12.680899 32289 net.cpp:98] Setting up debn5_2
I0923 18:54:12.680910 32289 net.cpp:105] Top shape: 8 512 14 14 (802816)
I0923 18:54:12.680917 32289 layer_factory.hpp:78] Creating layer derelu5_2
I0923 18:54:12.680956 32289 net.cpp:69] Creating Layer derelu5_2
I0923 18:54:12.680963 32289 net.cpp:396] derelu5_2 <- deconv5_2
I0923 18:54:12.680968 32289 net.cpp:347] derelu5_2 -> deconv5_2 (in-place)
I0923 18:54:12.680974 32289 net.cpp:98] Setting up derelu5_2
I0923 18:54:12.680979 32289 net.cpp:105] Top shape: 8 512 14 14 (802816)
I0923 18:54:12.680982 32289 layer_factory.hpp:78] Creating layer deconv5_3
I0923 18:54:12.680990 32289 net.cpp:69] Creating Layer deconv5_3
I0923 18:54:12.680994 32289 net.cpp:396] deconv5_3 <- deconv5_2
I0923 18:54:12.680999 32289 net.cpp:358] deconv5_3 -> deconv5_3
I0923 18:54:12.681006 32289 net.cpp:98] Setting up deconv5_3
I0923 18:54:12.727349 32289 net.cpp:105] Top shape: 8 512 14 14 (802816)
I0923 18:54:12.727388 32289 layer_factory.hpp:78] Creating layer debn5_3
I0923 18:54:12.727397 32289 net.cpp:69] Creating Layer debn5_3
I0923 18:54:12.727403 32289 net.cpp:396] debn5_3 <- deconv5_3
I0923 18:54:12.727411 32289 net.cpp:347] debn5_3 -> deconv5_3 (in-place)
I0923 18:54:12.727418 32289 net.cpp:98] Setting up debn5_3
I0923 18:54:12.727428 32289 net.cpp:105] Top shape: 8 512 14 14 (802816)
I0923 18:54:12.727434 32289 layer_factory.hpp:78] Creating layer derelu5_3
I0923 18:54:12.727440 32289 net.cpp:69] Creating Layer derelu5_3
I0923 18:54:12.727444 32289 net.cpp:396] derelu5_3 <- deconv5_3
I0923 18:54:12.727452 32289 net.cpp:347] derelu5_3 -> deconv5_3 (in-place)
I0923 18:54:12.727457 32289 net.cpp:98] Setting up derelu5_3
I0923 18:54:12.727463 32289 net.cpp:105] Top shape: 8 512 14 14 (802816)
I0923 18:54:12.727466 32289 layer_factory.hpp:78] Creating layer unpool4
I0923 18:54:12.727475 32289 net.cpp:69] Creating Layer unpool4
I0923 18:54:12.727480 32289 net.cpp:396] unpool4 <- deconv5_3
I0923 18:54:12.727485 32289 net.cpp:358] unpool4 -> unpool4
I0923 18:54:12.727493 32289 net.cpp:98] Setting up unpool4
I0923 18:54:12.727500 32289 net.cpp:105] Top shape: 8 512 28 28 (3211264)
I0923 18:54:12.727515 32289 layer_factory.hpp:78] Creating layer deconv4_1
I0923 18:54:12.727524 32289 net.cpp:69] Creating Layer deconv4_1
I0923 18:54:12.727529 32289 net.cpp:396] deconv4_1 <- unpool4
I0923 18:54:12.727535 32289 net.cpp:358] deconv4_1 -> deconv4_1
I0923 18:54:12.727540 32289 net.cpp:98] Setting up deconv4_1
I0923 18:54:12.773953 32289 net.cpp:105] Top shape: 8 512 28 28 (3211264)
I0923 18:54:12.773993 32289 layer_factory.hpp:78] Creating layer debn4_1
I0923 18:54:12.774004 32289 net.cpp:69] Creating Layer debn4_1
I0923 18:54:12.774010 32289 net.cpp:396] debn4_1 <- deconv4_1
I0923 18:54:12.774016 32289 net.cpp:347] debn4_1 -> deconv4_1 (in-place)
I0923 18:54:12.774024 32289 net.cpp:98] Setting up debn4_1
I0923 18:54:12.774037 32289 net.cpp:105] Top shape: 8 512 28 28 (3211264)
I0923 18:54:12.774044 32289 layer_factory.hpp:78] Creating layer derelu4_1
I0923 18:54:12.774049 32289 net.cpp:69] Creating Layer derelu4_1
I0923 18:54:12.774054 32289 net.cpp:396] derelu4_1 <- deconv4_1
I0923 18:54:12.774058 32289 net.cpp:347] derelu4_1 -> deconv4_1 (in-place)
I0923 18:54:12.774063 32289 net.cpp:98] Setting up derelu4_1
I0923 18:54:12.774068 32289 net.cpp:105] Top shape: 8 512 28 28 (3211264)
I0923 18:54:12.774073 32289 layer_factory.hpp:78] Creating layer deconv4_2
I0923 18:54:12.774080 32289 net.cpp:69] Creating Layer deconv4_2
I0923 18:54:12.774083 32289 net.cpp:396] deconv4_2 <- deconv4_1
I0923 18:54:12.774091 32289 net.cpp:358] deconv4_2 -> deconv4_2
I0923 18:54:12.774097 32289 net.cpp:98] Setting up deconv4_2
I0923 18:54:12.820209 32289 net.cpp:105] Top shape: 8 512 28 28 (3211264)
I0923 18:54:12.820251 32289 layer_factory.hpp:78] Creating layer debn4_2
I0923 18:54:12.820261 32289 net.cpp:69] Creating Layer debn4_2
I0923 18:54:12.820267 32289 net.cpp:396] debn4_2 <- deconv4_2
I0923 18:54:12.820276 32289 net.cpp:347] debn4_2 -> deconv4_2 (in-place)
I0923 18:54:12.820282 32289 net.cpp:98] Setting up debn4_2
I0923 18:54:12.820297 32289 net.cpp:105] Top shape: 8 512 28 28 (3211264)
I0923 18:54:12.820302 32289 layer_factory.hpp:78] Creating layer derelu4_2
I0923 18:54:12.820309 32289 net.cpp:69] Creating Layer derelu4_2
I0923 18:54:12.820344 32289 net.cpp:396] derelu4_2 <- deconv4_2
I0923 18:54:12.820350 32289 net.cpp:347] derelu4_2 -> deconv4_2 (in-place)
I0923 18:54:12.820356 32289 net.cpp:98] Setting up derelu4_2
I0923 18:54:12.820361 32289 net.cpp:105] Top shape: 8 512 28 28 (3211264)
I0923 18:54:12.820365 32289 layer_factory.hpp:78] Creating layer deconv4_3
I0923 18:54:12.820374 32289 net.cpp:69] Creating Layer deconv4_3
I0923 18:54:12.820379 32289 net.cpp:396] deconv4_3 <- deconv4_2
I0923 18:54:12.820384 32289 net.cpp:358] deconv4_3 -> deconv4_3
I0923 18:54:12.820391 32289 net.cpp:98] Setting up deconv4_3
I0923 18:54:12.843503 32289 net.cpp:105] Top shape: 8 256 28 28 (1605632)
I0923 18:54:12.843525 32289 layer_factory.hpp:78] Creating layer debn4_3
I0923 18:54:12.843533 32289 net.cpp:69] Creating Layer debn4_3
I0923 18:54:12.843538 32289 net.cpp:396] debn4_3 <- deconv4_3
I0923 18:54:12.843543 32289 net.cpp:347] debn4_3 -> deconv4_3 (in-place)
I0923 18:54:12.843549 32289 net.cpp:98] Setting up debn4_3
I0923 18:54:12.843559 32289 net.cpp:105] Top shape: 8 256 28 28 (1605632)
I0923 18:54:12.843566 32289 layer_factory.hpp:78] Creating layer derelu4_3
I0923 18:54:12.843571 32289 net.cpp:69] Creating Layer derelu4_3
I0923 18:54:12.843576 32289 net.cpp:396] derelu4_3 <- deconv4_3
I0923 18:54:12.843580 32289 net.cpp:347] derelu4_3 -> deconv4_3 (in-place)
I0923 18:54:12.843586 32289 net.cpp:98] Setting up derelu4_3
I0923 18:54:12.843590 32289 net.cpp:105] Top shape: 8 256 28 28 (1605632)
I0923 18:54:12.843595 32289 layer_factory.hpp:78] Creating layer unpool3
I0923 18:54:12.843600 32289 net.cpp:69] Creating Layer unpool3
I0923 18:54:12.843605 32289 net.cpp:396] unpool3 <- deconv4_3
I0923 18:54:12.843611 32289 net.cpp:358] unpool3 -> unpool3
I0923 18:54:12.843619 32289 net.cpp:98] Setting up unpool3
I0923 18:54:12.843636 32289 net.cpp:105] Top shape: 8 256 56 56 (6422528)
I0923 18:54:12.843641 32289 layer_factory.hpp:78] Creating layer deconv3_1
I0923 18:54:12.843648 32289 net.cpp:69] Creating Layer deconv3_1
I0923 18:54:12.843653 32289 net.cpp:396] deconv3_1 <- unpool3
I0923 18:54:12.843658 32289 net.cpp:358] deconv3_1 -> deconv3_1
I0923 18:54:12.843664 32289 net.cpp:98] Setting up deconv3_1
I0923 18:54:12.855464 32289 net.cpp:105] Top shape: 8 256 56 56 (6422528)
I0923 18:54:12.855491 32289 layer_factory.hpp:78] Creating layer debn3_1
I0923 18:54:12.855499 32289 net.cpp:69] Creating Layer debn3_1
I0923 18:54:12.855504 32289 net.cpp:396] debn3_1 <- deconv3_1
I0923 18:54:12.855510 32289 net.cpp:347] debn3_1 -> deconv3_1 (in-place)
I0923 18:54:12.855516 32289 net.cpp:98] Setting up debn3_1
I0923 18:54:12.855530 32289 net.cpp:105] Top shape: 8 256 56 56 (6422528)
I0923 18:54:12.855535 32289 layer_factory.hpp:78] Creating layer derelu3_1
I0923 18:54:12.855541 32289 net.cpp:69] Creating Layer derelu3_1
I0923 18:54:12.855545 32289 net.cpp:396] derelu3_1 <- deconv3_1
I0923 18:54:12.855551 32289 net.cpp:347] derelu3_1 -> deconv3_1 (in-place)
I0923 18:54:12.855556 32289 net.cpp:98] Setting up derelu3_1
I0923 18:54:12.855559 32289 net.cpp:105] Top shape: 8 256 56 56 (6422528)
I0923 18:54:12.855563 32289 layer_factory.hpp:78] Creating layer deconv3_2
I0923 18:54:12.855569 32289 net.cpp:69] Creating Layer deconv3_2
I0923 18:54:12.855574 32289 net.cpp:396] deconv3_2 <- deconv3_1
I0923 18:54:12.855581 32289 net.cpp:358] deconv3_2 -> deconv3_2
I0923 18:54:12.855587 32289 net.cpp:98] Setting up deconv3_2
I0923 18:54:12.867445 32289 net.cpp:105] Top shape: 8 256 56 56 (6422528)
I0923 18:54:12.867466 32289 layer_factory.hpp:78] Creating layer debn3_2
I0923 18:54:12.867475 32289 net.cpp:69] Creating Layer debn3_2
I0923 18:54:12.867478 32289 net.cpp:396] debn3_2 <- deconv3_2
I0923 18:54:12.867485 32289 net.cpp:347] debn3_2 -> deconv3_2 (in-place)
I0923 18:54:12.867490 32289 net.cpp:98] Setting up debn3_2
I0923 18:54:12.867502 32289 net.cpp:105] Top shape: 8 256 56 56 (6422528)
I0923 18:54:12.867509 32289 layer_factory.hpp:78] Creating layer derelu3_2
I0923 18:54:12.867514 32289 net.cpp:69] Creating Layer derelu3_2
I0923 18:54:12.867518 32289 net.cpp:396] derelu3_2 <- deconv3_2
I0923 18:54:12.867553 32289 net.cpp:347] derelu3_2 -> deconv3_2 (in-place)
I0923 18:54:12.867560 32289 net.cpp:98] Setting up derelu3_2
I0923 18:54:12.867564 32289 net.cpp:105] Top shape: 8 256 56 56 (6422528)
I0923 18:54:12.867569 32289 layer_factory.hpp:78] Creating layer deconv3_3
I0923 18:54:12.867584 32289 net.cpp:69] Creating Layer deconv3_3
I0923 18:54:12.867589 32289 net.cpp:396] deconv3_3 <- deconv3_2
I0923 18:54:12.867595 32289 net.cpp:358] deconv3_3 -> deconv3_3
I0923 18:54:12.867601 32289 net.cpp:98] Setting up deconv3_3
I0923 18:54:12.873558 32289 net.cpp:105] Top shape: 8 128 56 56 (3211264)
I0923 18:54:12.873577 32289 layer_factory.hpp:78] Creating layer debn3_3
I0923 18:54:12.873584 32289 net.cpp:69] Creating Layer debn3_3
I0923 18:54:12.873587 32289 net.cpp:396] debn3_3 <- deconv3_3
I0923 18:54:12.873594 32289 net.cpp:347] debn3_3 -> deconv3_3 (in-place)
I0923 18:54:12.873600 32289 net.cpp:98] Setting up debn3_3
I0923 18:54:12.873613 32289 net.cpp:105] Top shape: 8 128 56 56 (3211264)
I0923 18:54:12.873620 32289 layer_factory.hpp:78] Creating layer derelu3_3
I0923 18:54:12.873625 32289 net.cpp:69] Creating Layer derelu3_3
I0923 18:54:12.873628 32289 net.cpp:396] derelu3_3 <- deconv3_3
I0923 18:54:12.873635 32289 net.cpp:347] derelu3_3 -> deconv3_3 (in-place)
I0923 18:54:12.873639 32289 net.cpp:98] Setting up derelu3_3
I0923 18:54:12.873643 32289 net.cpp:105] Top shape: 8 128 56 56 (3211264)
I0923 18:54:12.873648 32289 layer_factory.hpp:78] Creating layer unpool2
I0923 18:54:12.873653 32289 net.cpp:69] Creating Layer unpool2
I0923 18:54:12.873657 32289 net.cpp:396] unpool2 <- deconv3_3
I0923 18:54:12.873662 32289 net.cpp:358] unpool2 -> unpool2
I0923 18:54:12.873668 32289 net.cpp:98] Setting up unpool2
I0923 18:54:12.873673 32289 net.cpp:105] Top shape: 8 128 112 112 (12845056)
I0923 18:54:12.873678 32289 layer_factory.hpp:78] Creating layer deconv2_1
I0923 18:54:12.873683 32289 net.cpp:69] Creating Layer deconv2_1
I0923 18:54:12.873688 32289 net.cpp:396] deconv2_1 <- unpool2
I0923 18:54:12.873693 32289 net.cpp:358] deconv2_1 -> deconv2_1
I0923 18:54:12.873699 32289 net.cpp:98] Setting up deconv2_1
I0923 18:54:12.876706 32289 net.cpp:105] Top shape: 8 128 112 112 (12845056)
I0923 18:54:12.876725 32289 layer_factory.hpp:78] Creating layer debn2_1
I0923 18:54:12.876731 32289 net.cpp:69] Creating Layer debn2_1
I0923 18:54:12.876735 32289 net.cpp:396] debn2_1 <- deconv2_1
I0923 18:54:12.876741 32289 net.cpp:347] debn2_1 -> deconv2_1 (in-place)
I0923 18:54:12.876747 32289 net.cpp:98] Setting up debn2_1
I0923 18:54:12.876802 32289 net.cpp:105] Top shape: 8 128 112 112 (12845056)
I0923 18:54:12.876811 32289 layer_factory.hpp:78] Creating layer derelu2_1
I0923 18:54:12.876826 32289 net.cpp:69] Creating Layer derelu2_1
I0923 18:54:12.876832 32289 net.cpp:396] derelu2_1 <- deconv2_1
I0923 18:54:12.876847 32289 net.cpp:347] derelu2_1 -> deconv2_1 (in-place)
I0923 18:54:12.876852 32289 net.cpp:98] Setting up derelu2_1
I0923 18:54:12.876855 32289 net.cpp:105] Top shape: 8 128 112 112 (12845056)
I0923 18:54:12.876860 32289 layer_factory.hpp:78] Creating layer deconv2_2
I0923 18:54:12.876865 32289 net.cpp:69] Creating Layer deconv2_2
I0923 18:54:12.876869 32289 net.cpp:396] deconv2_2 <- deconv2_1
I0923 18:54:12.876875 32289 net.cpp:358] deconv2_2 -> deconv2_2
I0923 18:54:12.876881 32289 net.cpp:98] Setting up deconv2_2
I0923 18:54:12.878437 32289 net.cpp:105] Top shape: 8 64 112 112 (6422528)
I0923 18:54:12.878445 32289 layer_factory.hpp:78] Creating layer debn2_2
I0923 18:54:12.878461 32289 net.cpp:69] Creating Layer debn2_2
I0923 18:54:12.878465 32289 net.cpp:396] debn2_2 <- deconv2_2
I0923 18:54:12.878471 32289 net.cpp:347] debn2_2 -> deconv2_2 (in-place)
I0923 18:54:12.878478 32289 net.cpp:98] Setting up debn2_2
I0923 18:54:12.878518 32289 net.cpp:105] Top shape: 8 64 112 112 (6422528)
I0923 18:54:12.878536 32289 layer_factory.hpp:78] Creating layer derelu2_2
I0923 18:54:12.878552 32289 net.cpp:69] Creating Layer derelu2_2
I0923 18:54:12.878557 32289 net.cpp:396] derelu2_2 <- deconv2_2
I0923 18:54:12.878582 32289 net.cpp:347] derelu2_2 -> deconv2_2 (in-place)
I0923 18:54:12.878592 32289 net.cpp:98] Setting up derelu2_2
I0923 18:54:12.878599 32289 net.cpp:105] Top shape: 8 64 112 112 (6422528)
I0923 18:54:12.878607 32289 layer_factory.hpp:78] Creating layer unpool1
I0923 18:54:12.878612 32289 net.cpp:69] Creating Layer unpool1
I0923 18:54:12.878617 32289 net.cpp:396] unpool1 <- deconv2_2
I0923 18:54:12.878621 32289 net.cpp:358] unpool1 -> unpool1
I0923 18:54:12.878628 32289 net.cpp:98] Setting up unpool1
I0923 18:54:12.878631 32289 net.cpp:105] Top shape: 8 64 224 224 (25690112)
I0923 18:54:12.878636 32289 layer_factory.hpp:78] Creating layer deconv1_1
I0923 18:54:12.878643 32289 net.cpp:69] Creating Layer deconv1_1
I0923 18:54:12.878648 32289 net.cpp:396] deconv1_1 <- unpool1
I0923 18:54:12.878654 32289 net.cpp:358] deconv1_1 -> deconv1_1
I0923 18:54:12.878659 32289 net.cpp:98] Setting up deconv1_1
I0923 18:54:12.879523 32289 net.cpp:105] Top shape: 8 64 224 224 (25690112)
I0923 18:54:12.879531 32289 layer_factory.hpp:78] Creating layer debn1_1
I0923 18:54:12.879547 32289 net.cpp:69] Creating Layer debn1_1
I0923 18:54:12.879551 32289 net.cpp:396] debn1_1 <- deconv1_1
I0923 18:54:12.879557 32289 net.cpp:347] debn1_1 -> deconv1_1 (in-place)
I0923 18:54:12.879564 32289 net.cpp:98] Setting up debn1_1
I0923 18:54:12.879684 32289 net.cpp:105] Top shape: 8 64 224 224 (25690112)
I0923 18:54:12.879703 32289 layer_factory.hpp:78] Creating layer derelu1_1
I0923 18:54:12.879708 32289 net.cpp:69] Creating Layer derelu1_1
I0923 18:54:12.879712 32289 net.cpp:396] derelu1_1 <- deconv1_1
I0923 18:54:12.879716 32289 net.cpp:347] derelu1_1 -> deconv1_1 (in-place)
I0923 18:54:12.879721 32289 net.cpp:98] Setting up derelu1_1
I0923 18:54:12.879726 32289 net.cpp:105] Top shape: 8 64 224 224 (25690112)
I0923 18:54:12.879730 32289 layer_factory.hpp:78] Creating layer deconv1_2
I0923 18:54:12.879736 32289 net.cpp:69] Creating Layer deconv1_2
I0923 18:54:12.879740 32289 net.cpp:396] deconv1_2 <- deconv1_1
I0923 18:54:12.879745 32289 net.cpp:358] deconv1_2 -> deconv1_2
I0923 18:54:12.879752 32289 net.cpp:98] Setting up deconv1_2
I0923 18:54:12.880553 32289 net.cpp:105] Top shape: 8 64 224 224 (25690112)
I0923 18:54:12.880571 32289 layer_factory.hpp:78] Creating layer debn1_2
I0923 18:54:12.880576 32289 net.cpp:69] Creating Layer debn1_2
I0923 18:54:12.880581 32289 net.cpp:396] debn1_2 <- deconv1_2
I0923 18:54:12.880587 32289 net.cpp:347] debn1_2 -> deconv1_2 (in-place)
I0923 18:54:12.880592 32289 net.cpp:98] Setting up debn1_2
I0923 18:54:12.880709 32289 net.cpp:105] Top shape: 8 64 224 224 (25690112)
I0923 18:54:12.880728 32289 layer_factory.hpp:78] Creating layer derelu1_2
I0923 18:54:12.880733 32289 net.cpp:69] Creating Layer derelu1_2
I0923 18:54:12.880736 32289 net.cpp:396] derelu1_2 <- deconv1_2
I0923 18:54:12.880743 32289 net.cpp:347] derelu1_2 -> deconv1_2 (in-place)
I0923 18:54:12.880748 32289 net.cpp:98] Setting up derelu1_2
I0923 18:54:12.880751 32289 net.cpp:105] Top shape: 8 64 224 224 (25690112)
I0923 18:54:12.880755 32289 layer_factory.hpp:78] Creating layer seg-score-voc
I0923 18:54:12.880763 32289 net.cpp:69] Creating Layer seg-score-voc
I0923 18:54:12.880766 32289 net.cpp:396] seg-score-voc <- deconv1_2
I0923 18:54:12.880771 32289 net.cpp:358] seg-score-voc -> seg-score
I0923 18:54:12.880779 32289 net.cpp:98] Setting up seg-score-voc
I0923 18:54:12.880877 32289 net.cpp:105] Top shape: 8 21 224 224 (8429568)
I0923 18:54:12.880894 32289 layer_factory.hpp:78] Creating layer seg-loss
I0923 18:54:12.880909 32289 net.cpp:69] Creating Layer seg-loss
I0923 18:54:12.880914 32289 net.cpp:396] seg-loss <- seg-score
I0923 18:54:12.880919 32289 net.cpp:396] seg-loss <- seg-label
I0923 18:54:12.880924 32289 net.cpp:358] seg-loss -> seg-loss
I0923 18:54:12.880930 32289 net.cpp:98] Setting up seg-loss
I0923 18:54:12.880941 32289 net.cpp:105] Top shape: 1 1 1 1 (1)
I0923 18:54:12.880947 32289 net.cpp:111]     with loss weight 1
I0923 18:54:12.880970 32289 net.cpp:172] seg-loss needs backward computation.
I0923 18:54:12.880981 32289 net.cpp:172] seg-score-voc needs backward computation.
I0923 18:54:12.880997 32289 net.cpp:172] derelu1_2 needs backward computation.
I0923 18:54:12.881001 32289 net.cpp:172] debn1_2 needs backward computation.
I0923 18:54:12.881006 32289 net.cpp:172] deconv1_2 needs backward computation.
…
I0923 18:54:12.883080 32289 net.cpp:277] The NetState phase (1) differed from the phase (0) specified by a rule in layer data
I0923 18:54:12.883483 32289 net.cpp:39] Initializing net from parameters: 
name: "stage_1_training"
layers {
  top: "data"
  top: "seg-label"
  name: "data"
  type: IMAGE_SEG_DATA
  image_data_param {
    source: "./stage_1_train_imgset/val_reduced_07.txt"
    batch_size: 8
    shuffle: true
    new_height: 250
    new_width: 250
    root_folder: "./VOC2012"
    label_type: PIXEL
  }
  include {
    phase: TEST
  }
  transform_param {
    mirror: true
    crop_size: 224
    mean_value: 104.008
    mean_value: 116.669
    mean_value: 122.675
  }
}
layers {
  bottom: "data"
  top: "conv1_1"
  name: "conv1_1"
  type: CONVOLUTION
  blobs_lr: 1
  blobs_lr: 2
  weight_decay: 1
  weight_decay: 0
  convolution_param {
    num_output: 64
    pad: 1
    kernel_size: 3
  }
}
layers {
  bottom: "conv1_1"
  top: "conv1_1"
  name: "bn1_1"
  type: BN
  bn_param {
    scale_filler {
      type: "constant"
      value: 1
    }
    shift_filler {
      type: "constant"
      value: 0.001
    }
  }
}
layers {
  bottom: "conv1_1"
  top: "conv1_1"
  name: "relu1_1"
  type: RELU
}
layers {
  bottom: "conv1_1"
  top: "conv1_2"
  name: "conv1_2"
  type: CONVOLUTION
  blobs_lr: 1
  blobs_lr: 2
  weight_decay: 1
  weight_decay: 0
  convolution_param {
    num_output: 64
    pad: 1
    kernel_size: 3
  }
}
layers {
  bottom: "conv1_2"
  top: "conv1_2"
  name: "bn1_2"
  type: BN
  bn_param {
    scale_filler {
      type: "constant"
      value: 1
    }
    shift_filler {
      type: "constant"
      value: 0.001
    }
  }
}
layers {
  bottom: "conv1_2"
  top: "conv1_2"
  name: "relu1_2"
  type: RELU
}
layers {
  bottom: "conv1_2"
  top: "pool1"
  name: "pool1"
  type: POOLING
  pooling_param {
    pool: MAX
    kernel_size: 2
    stride: 2
  }
}
layers {
  bottom: "pool1"
  top: "conv2_1"
  name: "conv2_1"
  type: CONVOLUTION
  blobs_lr: 1
  blobs_lr: 2
  weight_decay: 1
  weight_decay: 0
  convolution_param {
    num_output: 128
    pad: 1
    kernel_size: 3
  }
}
layers {
  bottom: "conv2_1"
  top: "conv2_1"
  name: "bn2_1"
  type: BN
  bn_param {
    scale_filler {
      type: "constant"
      value: 1
    }
    shift_filler {
      type: "constant"
      value: 0.001
    }
  }
}
layers {
  bottom: "conv2_1"
  top: "conv2_1"
  name: "relu2_1"
  type: RELU
}
layers {
  bottom: "conv2_1"
  top: "conv2_2"
  name: "conv2_2"
  type: CONVOLUTION
  blobs_lr: 1
  blobs_lr: 2
  weight_decay: 1
  weight_decay: 0
  convolution_param {
    num_output: 128
    pad: 1
    kernel_size: 3
  }
}
layers {
  bottom: "conv2_2"
  top: "conv2_2"
  name: "bn2_2"
  type: BN
  bn_param {
    scale_filler {
      type: "constant"
      value: 1
    }
    shift_filler {
      type: "constant"
      value: 0.001
    }
  }
}
layers {
  bottom: "conv2_2"
  top: "conv2_2"
  name: "relu2_2"
  type: RELU
}
layers {
  bottom: "conv2_2"
  top: "pool2"
  name: "pool2"
  type: POOLING
  pooling_param {
    pool: MAX
    kernel_size: 2
    stride: 2
  }
}
layers {
  bottom: "pool2"
  top: "conv3_1"
  name: "conv3_1"
  type: CONVOLUTION
  blobs_lr: 1
  blobs_lr: 2
  weight_decay: 1
  weight_decay: 0
  convolution_param {
    num_output: 256
    pad: 1
    kernel_size: 3
  }
}
layers {
  bottom: "conv3_1"
  top: "conv3_1"
  name: "bn3_1"
  type: BN
  bn_param {
    scale_filler {
      type: "constant"
      value: 1
    }
    shift_filler {
      type: "constant"
      value: 0.001
    }
  }
}
layers {
  bottom: "conv3_1"
  top: "conv3_1"
  name: "relu3_1"
  type: RELU
}
layers {
  bottom: "conv3_1"
  top: "conv3_2"
  name: "conv3_2"
  type: CONVOLUTION
  blobs_lr: 1
  blobs_lr: 2
  weight_decay: 1
  weight_decay: 0
  convolution_param {
    num_output: 256
    pad: 1
    kernel_size: 3
  }
}
layers {
  bottom: "conv3_2"
  top: "conv3_2"
  name: "bn3_2"
  type: BN
  bn_param {
    scale_filler {
      type: "constant"
      value: 1
    }
    shift_filler {
      type: "constant"
      value: 0.001
    }
  }
}
layers {
  bottom: "conv3_2"
  top: "conv3_2"
  name: "relu3_2"
  type: RELU
}
layers {
  bottom: "conv3_2"
  top: "conv3_3"
  name: "conv3_3"
  type: CONVOLUTION
  blobs_lr: 1
  blobs_lr: 2
  weight_decay: 1
  weight_decay: 0
  convolution_param {
    num_output: 256
    pad: 1
    kernel_size: 3
  }
}
layers {
  bottom: "conv3_3"
  top: "conv3_3"
  name: "bn3_3"
  type: BN
  bn_param {
    scale_filler {
      type: "constant"
      value: 1
    }
    shift_filler {
      type: "constant"
      value: 0.001
    }
  }
}
layers {
  bottom: "conv3_3"
  top: "conv3_3"
  name: "relu3_3"
  type: RELU
}
layers {
  bottom: "conv3_3"
  top: "pool3"
  name: "pool3"
  type: POOLING
  pooling_param {
    pool: MAX
    kernel_size: 2
    stride: 2
  }
}
layers {
  bottom: "pool3"
  top: "conv4_1"
  name: "conv4_1"
  type: CONVOLUTION
  blobs_lr: 1
  blobs_lr: 2
  weight_decay: 1
  weight_decay: 0
  convolution_param {
    num_output: 512
    pad: 1
    kernel_size: 3
  }
}
layers {
  bottom: "conv4_1"
  top: "conv4_1"
  name: "bn4_1"
  type: BN
  bn_param {
    scale_filler {
      type: "constant"
      value: 1
    }
    shift_filler {
      type: "constant"
      value: 0.001
    }
  }
}
layers {
  bottom: "conv4_1"
  top: "conv4_1"
  name: "relu4_1"
  type: RELU
}
layers {
  bottom: "conv4_1"
  top: "conv4_2"
  name: "conv4_2"
  type: CONVOLUTION
  blobs_lr: 1
  blobs_lr: 2
  weight_decay: 1
  weight_decay: 0
  convolution_param {
    num_output: 512
    pad: 1
    kernel_size: 3
  }
}
layers {
  bottom: "conv4_2"
  top: "conv4_2"
  name: "bn4_2"
  type: BN
  bn_param {
    scale_filler {
      type: "constant"
      value: 1
    }
    shift_filler {
      type: "constant"
      value: 0.001
    }
  }
}
layers {
  bottom: "conv4_2"
  top: "conv4_2"
  name: "relu4_2"
  type: RELU
}
layers {
  bottom: "conv4_2"
  top: "conv4_3"
  name: "conv4_3"
  type: CONVOLUTION
  blobs_lr: 1
  blobs_lr: 2
  weight_decay: 1
  weight_decay: 0
  convolution_param {
    num_output: 512
    pad: 1
    kernel_size: 3
  }
}
layers {
  bottom: "conv4_3"
  top: "conv4_3"
  name: "bn4_3"
  type: BN
  bn_param {
    scale_filler {
      type: "constant"
      value: 1
    }
    shift_filler {
      type: "constant"
      value: 0.001
    }
  }
}
layers {
  bottom: "conv4_3"
  top: "conv4_3"
  name: "relu4_3"
  type: RELU
}
layers {
  bottom: "conv4_3"
  top: "pool4"
  name: "pool4"
  type: POOLING
  pooling_param {
    pool: MAX
    kernel_size: 2
    stride: 2
  }
}
layers {
  bottom: "pool4"
  top: "conv5_1"
  name: "conv5_1"
  type: CONVOLUTION
  blobs_lr: 1
  blobs_lr: 2
  weight_decay: 1
  weight_decay: 0
  convolution_param {
    num_output: 512
    pad: 1
    kernel_size: 3
  }
}
layers {
  bottom: "conv5_1"
  top: "conv5_1"
  name: "bn5_1"
  type: BN
  bn_param {
    scale_filler {
      type: "constant"
      value: 1
    }
    shift_filler {
      type: "constant"
      value: 0.001
    }
  }
}
layers {
  bottom: "conv5_1"
  top: "conv5_1"
  name: "relu5_1"
  type: RELU
}
layers {
  bottom: "conv5_1"
  top: "conv5_2"
  name: "conv5_2"
  type: CONVOLUTION
  blobs_lr: 1
  blobs_lr: 2
  weight_decay: 1
  weight_decay: 0
  convolution_param {
    num_output: 512
    pad: 1
    kernel_size: 3
  }
}
layers {
  bottom: "conv5_2"
  top: "conv5_2"
  name: "bn5_2"
  type: BN
  bn_param {
    scale_filler {
      type: "constant"
      value: 1
    }
    shift_filler {
      type: "constant"
      value: 0.001
    }
  }
}
layers {
  bottom: "conv5_2"
  top: "conv5_2"
  name: "relu5_2"
  type: RELU
}
layers {
  bottom: "conv5_2"
  top: "conv5_3"
  name: "conv5_3"
  type: CONVOLUTION
  blobs_lr: 1
  blobs_lr: 2
  weight_decay: 1
  weight_decay: 0
  convolution_param {
    num_output: 512
    pad: 1
    kernel_size: 3
  }
}
layers {
  bottom: "conv5_3"
  top: "conv5_3"
  name: "bn5_3"
  type: BN
  bn_param {
    scale_filler {
      type: "constant"
      value: 1
    }
    shift_filler {
      type: "constant"
      value: 0.001
    }
  }
}
layers {
  bottom: "conv5_3"
  top: "conv5_3"
  name: "relu5_3"
  type: RELU
}
layers {
  bottom: "conv5_3"
  top: "pool5"
  name: "pool5"
  type: POOLING
  pooling_param {
    pool: MAX
    kernel_size: 2
    stride: 2
  }
}
layers {
  bottom: "pool5"
  top: "fc6"
  name: "fc6"
  type: CONVOLUTION
  blobs_lr: 1
  blobs_lr: 2
  weight_decay: 1
  weight_decay: 0
  convolution_param {
    num_output: 4096
    kernel_size: 7
  }
}
layers {
  bottom: "fc6"
  top: "fc6"
  name: "bnfc6"
  type: BN
  bn_param {
    scale_filler {
      type: "constant"
      value: 1
    }
    shift_filler {
      type: "constant"
      value: 0.001
    }
  }
}
layers {
  bottom: "fc6"
  top: "fc6"
  name: "relu6"
  type: RELU
}
layers {
  bottom: "fc6"
  top: "fc7"
  name: "fc7"
  type: CONVOLUTION
  blobs_lr: 1
  blobs_lr: 2
  weight_decay: 1
  weight_decay: 0
  convolution_param {
    num_output: 4096
    kernel_size: 1
  }
}
layers {
  bottom: "fc7"
  top: "fc7"
  name: "bnfc7"
  type: BN
  bn_param {
    scale_filler {
      type: "constant"
      value: 1
    }
    shift_filler {
      type: "constant"
      value: 0.001
    }
  }
}
layers {
  bottom: "fc7"
  top: "fc7"
  name: "relu7"
  type: RELU
}
layers {
  bottom: "fc7"
  top: "fc6-deconv"
  name: "fc6-deconv"
  type: DECONVOLUTION
  blobs_lr: 1
  blobs_lr: 2
  weight_decay: 1
  weight_decay: 0
  convolution_param {
    num_output: 512
    kernel_size: 7
    weight_filler {
      type: "gaussian"
      std: 0.01
    }
    bias_filler {
      type: "constant"
      value: 0
    }
  }
}
layers {
  bottom: "fc6-deconv"
  top: "fc6-deconv"
  name: "fc6-deconv-bn"
  type: BN
  bn_param {
    scale_filler {
      type: "constant"
      value: 1
    }
    shift_filler {
      type: "constant"
      value: 0.001
    }
  }
}
layers {
  bottom: "fc6-deconv"
  top: "fc6-deconv"
  name: "fc6-deconv-relu"
  type: RELU
}
layers {
  bottom: "fc6-deconv"
  top: "unpool5"
  name: "unpool5"
  type: UNPOOLING
  unpooling_param {
    unpool: TILE
    kernel_size: 2
    stride: 2
    unpool_size: 14
  }
}
layers {
  bottom: "unpool5"
  top: "deconv5_1"
  name: "deconv5_1"
  type: DECONVOLUTION
  blobs_lr: 1
  blobs_lr: 2
  weight_decay: 1
  weight_decay: 0
  convolution_param {
    num_output: 512
    pad: 1
    kernel_size: 3
    weight_filler {
      type: "gaussian"
      std: 0.01
    }
    bias_filler {
      type: "constant"
      value: 0
    }
  }
}
layers {
  bottom: "deconv5_1"
  top: "deconv5_1"
  name: "debn5_1"
  type: BN
  bn_param {
    scale_filler {
      type: "constant"
      value: 1
    }
    shift_filler {
      type: "constant"
      value: 0.001
    }
  }
}
layers {
  bottom: "deconv5_1"
  top: "deconv5_1"
  name: "derelu5_1"
  type: RELU
}
layers {
  bottom: "deconv5_1"
  top: "deconv5_2"
  name: "deconv5_2"
  type: DECONVOLUTION
  blobs_lr: 1
  blobs_lr: 2
  weight_decay: 1
  weight_decay: 0
  convolution_param {
    num_output: 512
    pad: 1
    kernel_size: 3
    weight_filler {
      type: "gaussian"
      std: 0.01
    }
    bias_filler {
      type: "constant"
      value: 0
    }
  }
}
layers {
  bottom: "deconv5_2"
  top: "deconv5_2"
  name: "debn5_2"
  type: BN
  bn_param {
    scale_filler {
      type: "constant"
      value: 1
    }
    shift_filler {
      type: "constant"
      value: 0.001
    }
  }
}
layers {
  bottom: "deconv5_2"
  top: "deconv5_2"
  name: "derelu5_2"
  type: RELU
}
layers {
  bottom: "deconv5_2"
  top: "deconv5_3"
  name: "deconv5_3"
  type: DECONVOLUTION
  blobs_lr: 1
  blobs_lr: 2
  weight_decay: 1
  weight_decay: 0
  convolution_param {
    num_output: 512
    pad: 1
    kernel_size: 3
    weight_filler {
      type: "gaussian"
      std: 0.01
    }
    bias_filler {
      type: "constant"
      value: 0
    }
  }
}
layers {
  bottom: "deconv5_3"
  top: "deconv5_3"
  name: "debn5_3"
  type: BN
  bn_param {
    scale_filler {
      type: "constant"
      value: 1
    }
    shift_filler {
      type: "constant"
      value: 0.001
    }
  }
}
layers {
  bottom: "deconv5_3"
  top: "deconv5_3"
  name: "derelu5_3"
  type: RELU
}
layers {
  bottom: "deconv5_3"
  top: "unpool4"
  name: "unpool4"
  type: UNPOOLING
  unpooling_param {
    unpool: TILE
    kernel_size: 2
    stride: 2
    unpool_size: 28
  }
}
layers {
  bottom: "unpool4"
  top: "deconv4_1"
  name: "deconv4_1"
  type: DECONVOLUTION
  blobs_lr: 1
  blobs_lr: 2
  weight_decay: 1
  weight_decay: 0
  convolution_param {
    num_output: 512
    pad: 1
    kernel_size: 3
    weight_filler {
      type: "gaussian"
      std: 0.01
    }
    bias_filler {
      type: "constant"
      value: 0
    }
  }
}
layers {
  bottom: "deconv4_1"
  top: "deconv4_1"
  name: "debn4_1"
  type: BN
  bn_param {
    scale_filler {
      type: "constant"
      value: 1
    }
    shift_filler {
      type: "constant"
      value: 0.001
    }
  }
}
layers {
  bottom: "deconv4_1"
  top: "deconv4_1"
  name: "derelu4_1"
  type: RELU
}
layers {
  bottom: "deconv4_1"
  top: "deconv4_2"
  name: "deconv4_2"
  type: DECONVOLUTION
  blobs_lr: 1
  blobs_lr: 2
  weight_decay: 1
  weight_decay: 0
  convolution_param {
    num_output: 512
    pad: 1
    kernel_size: 3
    weight_filler {
      type: "gaussian"
      std: 0.01
    }
    bias_filler {
      type: "constant"
      value: 0
    }
  }
}
layers {
  bottom: "deconv4_2"
  top: "deconv4_2"
  name: "debn4_2"
  type: BN
  bn_param {
    scale_filler {
      type: "constant"
      value: 1
    }
    shift_filler {
      type: "constant"
      value: 0.001
    }
  }
}
layers {
  bottom: "deconv4_2"
  top: "deconv4_2"
  name: "derelu4_2"
  type: RELU
}
layers {
  bottom: "deconv4_2"
  top: "deconv4_3"
  name: "deconv4_3"
  type: DECONVOLUTION
  blobs_lr: 1
  blobs_lr: 2
  weight_decay: 1
  weight_decay: 0
  convolution_param {
    num_output: 256
    pad: 1
    kernel_size: 3
    weight_filler {
      type: "gaussian"
      std: 0.01
    }
    bias_filler {
      type: "constant"
      value: 0
    }
  }
}
layers {
  bottom: "deconv4_3"
  top: "deconv4_3"
  name: "debn4_3"
  type: BN
  bn_param {
    scale_filler {
      type: "constant"
      value: 1
    }
    shift_filler {
      type: "constant"
      value: 0.001
    }
  }
}
layers {
  bottom: "deconv4_3"
  top: "deconv4_3"
  name: "derelu4_3"
  type: RELU
}
layers {
  bottom: "deconv4_3"
  top: "unpool3"
  name: "unpool3"
  type: UNPOOLING
  unpooling_param {
    unpool: TILE
    kernel_size: 2
    stride: 2
    unpool_size: 56
  }
}
layers {
  bottom: "unpool3"
  top: "deconv3_1"
  name: "deconv3_1"
  type: DECONVOLUTION
  blobs_lr: 1
  blobs_lr: 2
  weight_decay: 1
  weight_decay: 0
  convolution_param {
    num_output: 256
    pad: 1
    kernel_size: 3
    weight_filler {
      type: "gaussian"
      std: 0.01
    }
    bias_filler {
      type: "constant"
      value: 0
    }
  }
}
layers {
  bottom: "deconv3_1"
  top: "deconv3_1"
  name: "debn3_1"
  type: BN
  bn_param {
    scale_filler {
      type: "constant"
      value: 1
    }
    shift_filler {
      type: "constant"
      value: 0.001
    }
  }
}
layers {
  bottom: "deconv3_1"
  top: "deconv3_1"
  name: "derelu3_1"
  type: RELU
}
layers {
  bottom: "deconv3_1"
  top: "deconv3_2"
  name: "deconv3_2"
  type: DECONVOLUTION
  blobs_lr: 1
  blobs_lr: 2
  weight_decay: 1
  weight_decay: 0
  convolution_param {
    num_output: 256
    pad: 1
    kernel_size: 3
    weight_filler {
      type: "gaussian"
      std: 0.01
    }
    bias_filler {
      type: "constant"
      value: 0
    }
  }
}
layers {
  bottom: "deconv3_2"
  top: "deconv3_2"
  name: "debn3_2"
  type: BN
  bn_param {
    scale_filler {
      type: "constant"
      value: 1
    }
    shift_filler {
      type: "constant"
      value: 0.001
    }
  }
}
layers {
  bottom: "deconv3_2"
  top: "deconv3_2"
  name: "derelu3_2"
  type: RELU
}
layers {
  bottom: "deconv3_2"
  top: "deconv3_3"
  name: "deconv3_3"
  type: DECONVOLUTION
  blobs_lr: 1
  blobs_lr: 2
  weight_decay: 1
  weight_decay: 0
  convolution_param {
    num_output: 128
    pad: 1
    kernel_size: 3
    weight_filler {
      type: "gaussian"
      std: 0.01
    }
    bias_filler {
      type: "constant"
      value: 0
    }
  }
}
layers {
  bottom: "deconv3_3"
  top: "deconv3_3"
  name: "debn3_3"
  type: BN
  bn_param {
    scale_filler {
      type: "constant"
      value: 1
    }
    shift_filler {
      type: "constant"
      value: 0.001
    }
  }
}
layers {
  bottom: "deconv3_3"
  top: "deconv3_3"
  name: "derelu3_3"
  type: RELU
}
layers {
  bottom: "deconv3_3"
  top: "unpool2"
  name: "unpool2"
  type: UNPOOLING
  unpooling_param {
    unpool: TILE
    kernel_size: 2
    stride: 2
    unpool_size: 112
  }
}
layers {
  bottom: "unpool2"
  top: "deconv2_1"
  name: "deconv2_1"
  type: DECONVOLUTION
  blobs_lr: 1
  blobs_lr: 2
  weight_decay: 1
  weight_decay: 0
  convolution_param {
    num_output: 128
    pad: 1
    kernel_size: 3
    weight_filler {
      type: "gaussian"
      std: 0.01
    }
    bias_filler {
      type: "constant"
      value: 0
    }
  }
}
layers {
  bottom: "deconv2_1"
  top: "deconv2_1"
  name: "debn2_1"
  type: BN
  bn_param {
    scale_filler {
      type: "constant"
      value: 1
    }
    shift_filler {
      type: "constant"
      value: 0.001
    }
  }
}
layers {
  bottom: "deconv2_1"
  top: "deconv2_1"
  name: "derelu2_1"
  type: RELU
}
layers {
  bottom: "deconv2_1"
  top: "deconv2_2"
  name: "deconv2_2"
  type: DECONVOLUTION
  blobs_lr: 1
  blobs_lr: 2
  weight_decay: 1
  weight_decay: 0
  convolution_param {
    num_output: 64
    pad: 1
    kernel_size: 3
    weight_filler {
      type: "gaussian"
      std: 0.01
    }
    bias_filler {
      type: "constant"
      value: 0
    }
  }
}
layers {
  bottom: "deconv2_2"
  top: "deconv2_2"
  name: "debn2_2"
  type: BN
  bn_param {
    scale_filler {
      type: "constant"
      value: 1
    }
    shift_filler {
      type: "constant"
      value: 0.001
    }
  }
}
layers {
  bottom: "deconv2_2"
  top: "deconv2_2"
  name: "derelu2_2"
  type: RELU
}
layers {
  bottom: "deconv2_2"
  top: "unpool1"
  name: "unpool1"
  type: UNPOOLING
  unpooling_param {
    unpool: TILE
    kernel_size: 2
    stride: 2
    unpool_size: 224
  }
}
layers {
  bottom: "unpool1"
  top: "deconv1_1"
  name: "deconv1_1"
  type: DECONVOLUTION
  blobs_lr: 1
  blobs_lr: 2
  weight_decay: 1
  weight_decay: 0
  convolution_param {
    num_output: 64
    pad: 1
    kernel_size: 3
    weight_filler {
      type: "gaussian"
      std: 0.01
    }
    bias_filler {
      type: "constant"
      value: 0
    }
  }
}
layers {
  bottom: "deconv1_1"
  top: "deconv1_1"
  name: "debn1_1"
  type: BN
  bn_param {
    scale_filler {
      type: "constant"
      value: 1
    }
    shift_filler {
      type: "constant"
      value: 0.001
    }
  }
}
layers {
  bottom: "deconv1_1"
  top: "deconv1_1"
  name: "derelu1_1"
  type: RELU
}
layers {
  bottom: "deconv1_1"
  top: "deconv1_2"
  name: "deconv1_2"
  type: DECONVOLUTION
  blobs_lr: 1
  blobs_lr: 2
  weight_decay: 1
  weight_decay: 0
  convolution_param {
    num_output: 64
    pad: 1
    kernel_size: 3
    weight_filler {
      type: "gaussian"
      std: 0.01
    }
    bias_filler {
      type: "constant"
      value: 0
    }
  }
}
layers {
  bottom: "deconv1_2"
  top: "deconv1_2"
  name: "debn1_2"
  type: BN
  bn_param {
    scale_filler {
      type: "constant"
      value: 1
    }
    shift_filler {
      type: "constant"
      value: 0.001
    }
  }
}
layers {
  bottom: "deconv1_2"
  top: "deconv1_2"
  name: "derelu1_2"
  type: RELU
}
layers {
  bottom: "deconv1_2"
  top: "seg-score"
  name: "seg-score-voc"
  type: CONVOLUTION
  blobs_lr: 1
  blobs_lr: 2
  weight_decay: 1
  weight_decay: 0
  convolution_param {
    num_output: 21
    kernel_size: 1
    weight_filler {
      type: "gaussian"
      std: 0.01
    }
    bias_filler {
      type: "constant"
      value: 0
    }
  }
}
layers {
  bottom: "seg-score"
  bottom: "seg-label"
  top: "seg-accuracy"
  name: "seg-accuracy"
  type: ELTWISE_ACCURACY
  include {
    phase: TEST
  }
  eltwise_accuracy_param {
    ignore_label: 255
  }
}
layers {
  bottom: "seg-score"
  bottom: "seg-label"
  top: "seg-loss"
  name: "seg-loss"
  type: SOFTMAX_LOSS
  loss_param {
    ignore_label: 255
  }
}
state {
  phase: TEST
}
I0923 18:54:12.885754 32289 layer_factory.hpp:78] Creating layer data
I0923 18:54:12.885777 32289 net.cpp:69] Creating Layer data
I0923 18:54:12.885783 32289 net.cpp:358] data -> data
I0923 18:54:12.885790 32289 net.cpp:358] data -> seg-label
I0923 18:54:12.885797 32289 net.cpp:358] data -> (automatic)
I0923 18:54:12.885812 32289 net.cpp:98] Setting up data
I0923 18:54:12.885828 32289 image_seg_data_layer.cpp:51] Opening file ./stage_1_train_imgset/val_reduced_07.txt
I0923 18:54:12.889369 32289 image_seg_data_layer.cpp:68] Shuffling data
I0923 18:54:12.889792 32289 image_seg_data_layer.cpp:73] A total of 4992 images.
I0923 18:54:12.892112 32289 image_seg_data_layer.cpp:119] output data size: 8,3,224,224
I0923 18:54:12.892122 32289 image_seg_data_layer.cpp:123] output label size: 8,1,224,224
I0923 18:54:12.892138 32289 image_seg_data_layer.cpp:127] output data_dim size: 8,1,1,2
I0923 18:54:12.893219 32289 net.cpp:105] Top shape: 8 3 224 224 (1204224)
I0923 18:54:12.893249 32289 net.cpp:105] Top shape: 8 1 224 224 (401408)
I0923 18:54:12.893254 32289 net.cpp:105] Top shape: 8 1 1 2 (16)
I0923 18:54:12.893260 32289 layer_factory.hpp:78] Creating layer seg-label_data_1_split
I0923 18:54:12.893268 32289 net.cpp:69] Creating Layer seg-label_data_1_split
I0923 18:54:12.893275 32289 net.cpp:396] seg-label_data_1_split <- seg-label
I0923 18:54:12.893281 32289 net.cpp:358] seg-label_data_1_split -> seg-label_data_1_split_0
I0923 18:54:12.893291 32289 net.cpp:358] seg-label_data_1_split -> seg-label_data_1_split_1
I0923 18:54:12.893298 32289 net.cpp:98] Setting up seg-label_data_1_split
I0923 18:54:12.893303 32289 net.cpp:105] Top shape: 8 1 224 224 (401408)
I0923 18:54:12.893308 32289 net.cpp:105] Top shape: 8 1 224 224 (401408)
I0923 18:54:12.893312 32289 layer_factory.hpp:78] Creating layer conv1_1
I0923 18:54:12.893319 32289 net.cpp:69] Creating Layer conv1_1
I0923 18:54:12.893323 32289 net.cpp:396] conv1_1 <- data
I0923 18:54:12.893329 32289 net.cpp:358] conv1_1 -> conv1_1
I0923 18:54:12.893335 32289 net.cpp:98] Setting up conv1_1
I0923 18:54:12.893419 32289 net.cpp:105] Top shape: 8 64 224 224 (25690112)
I0923 18:54:12.893440 32289 layer_factory.hpp:78] Creating layer bn1_1
I0923 18:54:12.893448 32289 net.cpp:69] Creating Layer bn1_1
I0923 18:54:12.893452 32289 net.cpp:396] bn1_1 <- conv1_1
I0923 18:54:12.893458 32289 net.cpp:347] bn1_1 -> conv1_1 (in-place)
I0923 18:54:12.893465 32289 net.cpp:98] Setting up bn1_1
I0923 18:54:12.893585 32289 net.cpp:105] Top shape: 8 64 224 224 (25690112)
I0923 18:54:12.893605 32289 layer_factory.hpp:78] Creating layer relu1_1
I0923 18:54:12.893612 32289 net.cpp:69] Creating Layer relu1_1
I0923 18:54:12.893617 32289 net.cpp:396] relu1_1 <- conv1_1
I0923 18:54:12.893622 32289 net.cpp:347] relu1_1 -> conv1_1 (in-place)
I0923 18:54:12.893627 32289 net.cpp:98] Setting up relu1_1
I0923 18:54:12.893632 32289 net.cpp:105] Top shape: 8 64 224 224 (25690112)
I0923 18:54:12.893636 32289 layer_factory.hpp:78] Creating layer conv1_2
I0923 18:54:12.893642 32289 net.cpp:69] Creating Layer conv1_2
I0923 18:54:12.893647 32289 net.cpp:396] conv1_2 <- conv1_1
I0923 18:54:12.893652 32289 net.cpp:358] conv1_2 -> conv1_2
I0923 18:54:12.893658 32289 net.cpp:98] Setting up conv1_2
I0923 18:54:12.893769 32289 net.cpp:105] Top shape: 8 64 224 224 (25690112)
I0923 18:54:12.893779 32289 layer_factory.hpp:78] Creating layer bn1_2
I0923 18:54:12.893795 32289 net.cpp:69] Creating Layer bn1_2
I0923 18:54:12.893800 32289 net.cpp:396] bn1_2 <- conv1_2
I0923 18:54:12.893805 32289 net.cpp:347] bn1_2 -> conv1_2 (in-place)
I0923 18:54:12.893811 32289 net.cpp:98] Setting up bn1_2
I0923 18:54:12.893928 32289 net.cpp:105] Top shape: 8 64 224 224 (25690112)
I0923 18:54:12.893935 32289 layer_factory.hpp:78] Creating layer relu1_2
I0923 18:54:12.893951 32289 net.cpp:69] Creating Layer relu1_2
I0923 18:54:12.893956 32289 net.cpp:396] relu1_2 <- conv1_2
I0923 18:54:12.893962 32289 net.cpp:347] relu1_2 -> conv1_2 (in-place)
I0923 18:54:12.893967 32289 net.cpp:98] Setting up relu1_2
I0923 18:54:12.893972 32289 net.cpp:105] Top shape: 8 64 224 224 (25690112)
I0923 18:54:12.893976 32289 layer_factory.hpp:78] Creating layer pool1
I0923 18:54:12.893982 32289 net.cpp:69] Creating Layer pool1
I0923 18:54:12.893987 32289 net.cpp:396] pool1 <- conv1_2
I0923 18:54:12.893992 32289 net.cpp:358] pool1 -> pool1
I0923 18:54:12.894000 32289 net.cpp:98] Setting up pool1
I0923 18:54:12.894022 32289 net.cpp:105] Top shape: 8 64 112 112 (6422528)
I0923 18:54:12.894028 32289 layer_factory.hpp:78] Creating layer conv2_1
I0923 18:54:12.894033 32289 net.cpp:69] Creating Layer conv2_1
I0923 18:54:12.894038 32289 net.cpp:396] conv2_1 <- pool1
I0923 18:54:12.894043 32289 net.cpp:358] conv2_1 -> conv2_1
I0923 18:54:12.894050 32289 net.cpp:98] Setting up conv2_1
I0923 18:54:12.894156 32289 net.cpp:105] Top shape: 8 128 112 112 (12845056)
I0923 18:54:12.894176 32289 layer_factory.hpp:78] Creating layer bn2_1
I0923 18:54:12.894183 32289 net.cpp:69] Creating Layer bn2_1
I0923 18:54:12.894187 32289 net.cpp:396] bn2_1 <- conv2_1
I0923 18:54:12.894193 32289 net.cpp:347] bn2_1 -> conv2_1 (in-place)
I0923 18:54:12.894199 32289 net.cpp:98] Setting up bn2_1
I0923 18:54:12.894244 32289 net.cpp:105] Top shape: 8 128 112 112 (12845056)
I0923 18:54:12.894251 32289 layer_factory.hpp:78] Creating layer relu2_1
I0923 18:54:12.894270 32289 net.cpp:69] Creating Layer relu2_1
I0923 18:54:12.894275 32289 net.cpp:396] relu2_1 <- conv2_1
I0923 18:54:12.894280 32289 net.cpp:347] relu2_1 -> conv2_1 (in-place)
I0923 18:54:12.894285 32289 net.cpp:98] Setting up relu2_1
I0923 18:54:12.894290 32289 net.cpp:105] Top shape: 8 128 112 112 (12845056)
I0923 18:54:12.894294 32289 layer_factory.hpp:78] Creating layer conv2_2
I0923 18:54:12.894299 32289 net.cpp:69] Creating Layer conv2_2
I0923 18:54:12.894304 32289 net.cpp:396] conv2_2 <- conv2_1
I0923 18:54:12.894310 32289 net.cpp:358] conv2_2 -> conv2_2
I0923 18:54:12.894316 32289 net.cpp:98] Setting up conv2_2
I0923 18:54:12.894511 32289 net.cpp:105] Top shape: 8 128 112 112 (12845056)
I0923 18:54:12.894520 32289 layer_factory.hpp:78] Creating layer bn2_2
I0923 18:54:12.894536 32289 net.cpp:69] Creating Layer bn2_2
I0923 18:54:12.894541 32289 net.cpp:396] bn2_2 <- conv2_2
I0923 18:54:12.894547 32289 net.cpp:347] bn2_2 -> conv2_2 (in-place)
I0923 18:54:12.894552 32289 net.cpp:98] Setting up bn2_2
I0923 18:54:12.894603 32289 net.cpp:105] Top shape: 8 128 112 112 (12845056)
I0923 18:54:12.894610 32289 layer_factory.hpp:78] Creating layer relu2_2
I0923 18:54:12.894628 32289 net.cpp:69] Creating Layer relu2_2
I0923 18:54:12.894632 32289 net.cpp:396] relu2_2 <- conv2_2
I0923 18:54:12.894637 32289 net.cpp:347] relu2_2 -> conv2_2 (in-place)
I0923 18:54:12.894642 32289 net.cpp:98] Setting up relu2_2
I0923 18:54:12.894646 32289 net.cpp:105] Top shape: 8 128 112 112 (12845056)
I0923 18:54:12.894651 32289 layer_factory.hpp:78] Creating layer pool2
I0923 18:54:12.894656 32289 net.cpp:69] Creating Layer pool2
I0923 18:54:12.894660 32289 net.cpp:396] pool2 <- conv2_2
I0923 18:54:12.894666 32289 net.cpp:358] pool2 -> pool2
I0923 18:54:12.894672 32289 net.cpp:98] Setting up pool2
I0923 18:54:12.894677 32289 net.cpp:105] Top shape: 8 128 56 56 (3211264)
I0923 18:54:12.894681 32289 layer_factory.hpp:78] Creating layer conv3_1
I0923 18:54:12.894691 32289 net.cpp:69] Creating Layer conv3_1
I0923 18:54:12.894695 32289 net.cpp:396] conv3_1 <- pool2
I0923 18:54:12.894701 32289 net.cpp:358] conv3_1 -> conv3_1
I0923 18:54:12.894706 32289 net.cpp:98] Setting up conv3_1
I0923 18:54:12.895056 32289 net.cpp:105] Top shape: 8 256 56 56 (6422528)
I0923 18:54:12.895077 32289 layer_factory.hpp:78] Creating layer bn3_1
I0923 18:54:12.895084 32289 net.cpp:69] Creating Layer bn3_1
I0923 18:54:12.895089 32289 net.cpp:396] bn3_1 <- conv3_1
I0923 18:54:12.895094 32289 net.cpp:347] bn3_1 -> conv3_1 (in-place)
I0923 18:54:12.895099 32289 net.cpp:98] Setting up bn3_1
I0923 18:54:12.895114 32289 net.cpp:105] Top shape: 8 256 56 56 (6422528)
I0923 18:54:12.895120 32289 layer_factory.hpp:78] Creating layer relu3_1
I0923 18:54:12.895128 32289 net.cpp:69] Creating Layer relu3_1
I0923 18:54:12.895133 32289 net.cpp:396] relu3_1 <- conv3_1
I0923 18:54:12.895138 32289 net.cpp:347] relu3_1 -> conv3_1 (in-place)
I0923 18:54:12.895143 32289 net.cpp:98] Setting up relu3_1
I0923 18:54:12.895146 32289 net.cpp:105] Top shape: 8 256 56 56 (6422528)
I0923 18:54:12.895151 32289 layer_factory.hpp:78] Creating layer conv3_2
I0923 18:54:12.895164 32289 net.cpp:69] Creating Layer conv3_2
I0923 18:54:12.895169 32289 net.cpp:396] conv3_2 <- conv3_1
I0923 18:54:12.895175 32289 net.cpp:358] conv3_2 -> conv3_2
I0923 18:54:12.895181 32289 net.cpp:98] Setting up conv3_2
I0923 18:54:12.895872 32289 net.cpp:105] Top shape: 8 256 56 56 (6422528)
I0923 18:54:12.895884 32289 layer_factory.hpp:78] Creating layer bn3_2
I0923 18:54:12.895901 32289 net.cpp:69] Creating Layer bn3_2
I0923 18:54:12.895907 32289 net.cpp:396] bn3_2 <- conv3_2
I0923 18:54:12.895913 32289 net.cpp:347] bn3_2 -> conv3_2 (in-place)
I0923 18:54:12.895920 32289 net.cpp:98] Setting up bn3_2
I0923 18:54:12.895932 32289 net.cpp:105] Top shape: 8 256 56 56 (6422528)
I0923 18:54:12.895938 32289 layer_factory.hpp:78] Creating layer relu3_2
I0923 18:54:12.895943 32289 net.cpp:69] Creating Layer relu3_2
I0923 18:54:12.895948 32289 net.cpp:396] relu3_2 <- conv3_2
I0923 18:54:12.895953 32289 net.cpp:347] relu3_2 -> conv3_2 (in-place)
I0923 18:54:12.895959 32289 net.cpp:98] Setting up relu3_2
I0923 18:54:12.895963 32289 net.cpp:105] Top shape: 8 256 56 56 (6422528)
I0923 18:54:12.895967 32289 layer_factory.hpp:78] Creating layer conv3_3
I0923 18:54:12.895973 32289 net.cpp:69] Creating Layer conv3_3
I0923 18:54:12.895977 32289 net.cpp:396] conv3_3 <- conv3_2
I0923 18:54:12.895982 32289 net.cpp:358] conv3_3 -> conv3_3
I0923 18:54:12.895988 32289 net.cpp:98] Setting up conv3_3
I0923 18:54:12.896715 32289 net.cpp:105] Top shape: 8 256 56 56 (6422528)
I0923 18:54:12.896739 32289 layer_factory.hpp:78] Creating layer bn3_3
I0923 18:54:12.896746 32289 net.cpp:69] Creating Layer bn3_3
I0923 18:54:12.896751 32289 net.cpp:396] bn3_3 <- conv3_3
I0923 18:54:12.896757 32289 net.cpp:347] bn3_3 -> conv3_3 (in-place)
I0923 18:54:12.896764 32289 net.cpp:98] Setting up bn3_3
I0923 18:54:12.896778 32289 net.cpp:105] Top shape: 8 256 56 56 (6422528)
I0923 18:54:12.896785 32289 layer_factory.hpp:78] Creating layer relu3_3
I0923 18:54:12.896790 32289 net.cpp:69] Creating Layer relu3_3
I0923 18:54:12.896795 32289 net.cpp:396] relu3_3 <- conv3_3
I0923 18:54:12.896800 32289 net.cpp:347] relu3_3 -> conv3_3 (in-place)
I0923 18:54:12.896806 32289 net.cpp:98] Setting up relu3_3
I0923 18:54:12.896809 32289 net.cpp:105] Top shape: 8 256 56 56 (6422528)
I0923 18:54:12.896813 32289 layer_factory.hpp:78] Creating layer pool3
I0923 18:54:12.896821 32289 net.cpp:69] Creating Layer pool3
I0923 18:54:12.896826 32289 net.cpp:396] pool3 <- conv3_3
I0923 18:54:12.896831 32289 net.cpp:358] pool3 -> pool3
I0923 18:54:12.896836 32289 net.cpp:98] Setting up pool3
I0923 18:54:12.896842 32289 net.cpp:105] Top shape: 8 256 28 28 (1605632)
I0923 18:54:12.896847 32289 layer_factory.hpp:78] Creating layer conv4_1
I0923 18:54:12.896853 32289 net.cpp:69] Creating Layer conv4_1
I0923 18:54:12.896858 32289 net.cpp:396] conv4_1 <- pool3
I0923 18:54:12.896863 32289 net.cpp:358] conv4_1 -> conv4_1
I0923 18:54:12.896869 32289 net.cpp:98] Setting up conv4_1
I0923 18:54:12.897817 32289 net.cpp:105] Top shape: 8 512 28 28 (3211264)
I0923 18:54:12.897840 32289 layer_factory.hpp:78] Creating layer bn4_1
I0923 18:54:12.897847 32289 net.cpp:69] Creating Layer bn4_1
I0923 18:54:12.897852 32289 net.cpp:396] bn4_1 <- conv4_1
I0923 18:54:12.897857 32289 net.cpp:347] bn4_1 -> conv4_1 (in-place)
I0923 18:54:12.897863 32289 net.cpp:98] Setting up bn4_1
I0923 18:54:12.897877 32289 net.cpp:105] Top shape: 8 512 28 28 (3211264)
I0923 18:54:12.897884 32289 layer_factory.hpp:78] Creating layer relu4_1
I0923 18:54:12.897889 32289 net.cpp:69] Creating Layer relu4_1
I0923 18:54:12.897894 32289 net.cpp:396] relu4_1 <- conv4_1
I0923 18:54:12.897899 32289 net.cpp:347] relu4_1 -> conv4_1 (in-place)
I0923 18:54:12.897904 32289 net.cpp:98] Setting up relu4_1
I0923 18:54:12.897908 32289 net.cpp:105] Top shape: 8 512 28 28 (3211264)
I0923 18:54:12.897912 32289 layer_factory.hpp:78] Creating layer conv4_2
I0923 18:54:12.897919 32289 net.cpp:69] Creating Layer conv4_2
I0923 18:54:12.897923 32289 net.cpp:396] conv4_2 <- conv4_1
I0923 18:54:12.897928 32289 net.cpp:358] conv4_2 -> conv4_2
I0923 18:54:12.897953 32289 net.cpp:98] Setting up conv4_2
I0923 18:54:12.900864 32289 net.cpp:105] Top shape: 8 512 28 28 (3211264)
I0923 18:54:12.900910 32289 layer_factory.hpp:78] Creating layer bn4_2
I0923 18:54:12.900921 32289 net.cpp:69] Creating Layer bn4_2
I0923 18:54:12.900928 32289 net.cpp:396] bn4_2 <- conv4_2
I0923 18:54:12.900935 32289 net.cpp:347] bn4_2 -> conv4_2 (in-place)
I0923 18:54:12.900943 32289 net.cpp:98] Setting up bn4_2
I0923 18:54:12.900956 32289 net.cpp:105] Top shape: 8 512 28 28 (3211264)
I0923 18:54:12.900964 32289 layer_factory.hpp:78] Creating layer relu4_2
I0923 18:54:12.900969 32289 net.cpp:69] Creating Layer relu4_2
I0923 18:54:12.900974 32289 net.cpp:396] relu4_2 <- conv4_2
I0923 18:54:12.900979 32289 net.cpp:347] relu4_2 -> conv4_2 (in-place)
I0923 18:54:12.900985 32289 net.cpp:98] Setting up relu4_2
I0923 18:54:12.900990 32289 net.cpp:105] Top shape: 8 512 28 28 (3211264)
I0923 18:54:12.900993 32289 layer_factory.hpp:78] Creating layer conv4_3
I0923 18:54:12.901002 32289 net.cpp:69] Creating Layer conv4_3
I0923 18:54:12.901007 32289 net.cpp:396] conv4_3 <- conv4_2
I0923 18:54:12.901013 32289 net.cpp:358] conv4_3 -> conv4_3
I0923 18:54:12.901020 32289 net.cpp:98] Setting up conv4_3
I0923 18:54:12.903807 32289 net.cpp:105] Top shape: 8 512 28 28 (3211264)
I0923 18:54:12.903846 32289 layer_factory.hpp:78] Creating layer bn4_3
I0923 18:54:12.903858 32289 net.cpp:69] Creating Layer bn4_3
I0923 18:54:12.903864 32289 net.cpp:396] bn4_3 <- conv4_3
I0923 18:54:12.903873 32289 net.cpp:347] bn4_3 -> conv4_3 (in-place)
I0923 18:54:12.903880 32289 net.cpp:98] Setting up bn4_3
I0923 18:54:12.903897 32289 net.cpp:105] Top shape: 8 512 28 28 (3211264)
I0923 18:54:12.903903 32289 layer_factory.hpp:78] Creating layer relu4_3
I0923 18:54:12.903909 32289 net.cpp:69] Creating Layer relu4_3
I0923 18:54:12.903913 32289 net.cpp:396] relu4_3 <- conv4_3
I0923 18:54:12.903918 32289 net.cpp:347] relu4_3 -> conv4_3 (in-place)
I0923 18:54:12.903924 32289 net.cpp:98] Setting up relu4_3
I0923 18:54:12.903930 32289 net.cpp:105] Top shape: 8 512 28 28 (3211264)
I0923 18:54:12.903934 32289 layer_factory.hpp:78] Creating layer pool4
I0923 18:54:12.903941 32289 net.cpp:69] Creating Layer pool4
I0923 18:54:12.903946 32289 net.cpp:396] pool4 <- conv4_3
I0923 18:54:12.903952 32289 net.cpp:358] pool4 -> pool4
I0923 18:54:12.903959 32289 net.cpp:98] Setting up pool4
I0923 18:54:12.903964 32289 net.cpp:105] Top shape: 8 512 14 14 (802816)
I0923 18:54:12.903969 32289 layer_factory.hpp:78] Creating layer conv5_1
I0923 18:54:12.903975 32289 net.cpp:69] Creating Layer conv5_1
I0923 18:54:12.903980 32289 net.cpp:396] conv5_1 <- pool4
I0923 18:54:12.903985 32289 net.cpp:358] conv5_1 -> conv5_1
I0923 18:54:12.903990 32289 net.cpp:98] Setting up conv5_1
I0923 18:54:12.906894 32289 net.cpp:105] Top shape: 8 512 14 14 (802816)
I0923 18:54:12.906931 32289 layer_factory.hpp:78] Creating layer bn5_1
I0923 18:54:12.906940 32289 net.cpp:69] Creating Layer bn5_1
I0923 18:54:12.906947 32289 net.cpp:396] bn5_1 <- conv5_1
I0923 18:54:12.906956 32289 net.cpp:347] bn5_1 -> conv5_1 (in-place)
I0923 18:54:12.906965 32289 net.cpp:98] Setting up bn5_1
I0923 18:54:12.906975 32289 net.cpp:105] Top shape: 8 512 14 14 (802816)
I0923 18:54:12.906981 32289 layer_factory.hpp:78] Creating layer relu5_1
I0923 18:54:12.906988 32289 net.cpp:69] Creating Layer relu5_1
I0923 18:54:12.906992 32289 net.cpp:396] relu5_1 <- conv5_1
I0923 18:54:12.906998 32289 net.cpp:347] relu5_1 -> conv5_1 (in-place)
I0923 18:54:12.907003 32289 net.cpp:98] Setting up relu5_1
I0923 18:54:12.907008 32289 net.cpp:105] Top shape: 8 512 14 14 (802816)
I0923 18:54:12.907012 32289 layer_factory.hpp:78] Creating layer conv5_2
I0923 18:54:12.907019 32289 net.cpp:69] Creating Layer conv5_2
I0923 18:54:12.907024 32289 net.cpp:396] conv5_2 <- conv5_1
I0923 18:54:12.907029 32289 net.cpp:358] conv5_2 -> conv5_2
I0923 18:54:12.907035 32289 net.cpp:98] Setting up conv5_2
I0923 18:54:12.909379 32289 net.cpp:105] Top shape: 8 512 14 14 (802816)
I0923 18:54:12.909421 32289 layer_factory.hpp:78] Creating layer bn5_2
I0923 18:54:12.909456 32289 net.cpp:69] Creating Layer bn5_2
I0923 18:54:12.909463 32289 net.cpp:396] bn5_2 <- conv5_2
I0923 18:54:12.909476 32289 net.cpp:347] bn5_2 -> conv5_2 (in-place)
I0923 18:54:12.909484 32289 net.cpp:98] Setting up bn5_2
I0923 18:54:12.909495 32289 net.cpp:105] Top shape: 8 512 14 14 (802816)
I0923 18:54:12.909502 32289 layer_factory.hpp:78] Creating layer relu5_2
I0923 18:54:12.909509 32289 net.cpp:69] Creating Layer relu5_2
I0923 18:54:12.909514 32289 net.cpp:396] relu5_2 <- conv5_2
I0923 18:54:12.909519 32289 net.cpp:347] relu5_2 -> conv5_2 (in-place)
I0923 18:54:12.909524 32289 net.cpp:98] Setting up relu5_2
I0923 18:54:12.909529 32289 net.cpp:105] Top shape: 8 512 14 14 (802816)
I0923 18:54:12.909533 32289 layer_factory.hpp:78] Creating layer conv5_3
I0923 18:54:12.909540 32289 net.cpp:69] Creating Layer conv5_3
I0923 18:54:12.909544 32289 net.cpp:396] conv5_3 <- conv5_2
I0923 18:54:12.909549 32289 net.cpp:358] conv5_3 -> conv5_3
I0923 18:54:12.909556 32289 net.cpp:98] Setting up conv5_3
I0923 18:54:12.912376 32289 net.cpp:105] Top shape: 8 512 14 14 (802816)
I0923 18:54:12.912415 32289 layer_factory.hpp:78] Creating layer bn5_3
I0923 18:54:12.912425 32289 net.cpp:69] Creating Layer bn5_3
I0923 18:54:12.912432 32289 net.cpp:396] bn5_3 <- conv5_3
I0923 18:54:12.912441 32289 net.cpp:347] bn5_3 -> conv5_3 (in-place)
I0923 18:54:12.912449 32289 net.cpp:98] Setting up bn5_3
I0923 18:54:12.912461 32289 net.cpp:105] Top shape: 8 512 14 14 (802816)
I0923 18:54:12.912467 32289 layer_factory.hpp:78] Creating layer relu5_3
I0923 18:54:12.912472 32289 net.cpp:69] Creating Layer relu5_3
I0923 18:54:12.912477 32289 net.cpp:396] relu5_3 <- conv5_3
I0923 18:54:12.912482 32289 net.cpp:347] relu5_3 -> conv5_3 (in-place)
I0923 18:54:12.912487 32289 net.cpp:98] Setting up relu5_3
I0923 18:54:12.912492 32289 net.cpp:105] Top shape: 8 512 14 14 (802816)
I0923 18:54:12.912497 32289 layer_factory.hpp:78] Creating layer pool5
I0923 18:54:12.912503 32289 net.cpp:69] Creating Layer pool5
I0923 18:54:12.912506 32289 net.cpp:396] pool5 <- conv5_3
I0923 18:54:12.912513 32289 net.cpp:358] pool5 -> pool5
I0923 18:54:12.912519 32289 net.cpp:98] Setting up pool5
I0923 18:54:12.912525 32289 net.cpp:105] Top shape: 8 512 7 7 (200704)
I0923 18:54:12.912529 32289 layer_factory.hpp:78] Creating layer fc6
I0923 18:54:12.912535 32289 net.cpp:69] Creating Layer fc6
I0923 18:54:12.912539 32289 net.cpp:396] fc6 <- pool5
I0923 18:54:12.912545 32289 net.cpp:358] fc6 -> fc6
I0923 18:54:12.912550 32289 net.cpp:98] Setting up fc6
I0923 18:54:13.012203 32289 net.cpp:105] Top shape: 8 4096 1 1 (32768)
I0923 18:54:13.012248 32289 layer_factory.hpp:78] Creating layer bnfc6
I0923 18:54:13.012259 32289 net.cpp:69] Creating Layer bnfc6
I0923 18:54:13.012264 32289 net.cpp:396] bnfc6 <- fc6
I0923 18:54:13.012271 32289 net.cpp:347] bnfc6 -> fc6 (in-place)
I0923 18:54:13.012279 32289 net.cpp:98] Setting up bnfc6
I0923 18:54:13.012310 32289 net.cpp:105] Top shape: 8 4096 1 1 (32768)
I0923 18:54:13.012315 32289 layer_factory.hpp:78] Creating layer relu6
I0923 18:54:13.012322 32289 net.cpp:69] Creating Layer relu6
I0923 18:54:13.012326 32289 net.cpp:396] relu6 <- fc6
I0923 18:54:13.012332 32289 net.cpp:347] relu6 -> fc6 (in-place)
I0923 18:54:13.012337 32289 net.cpp:98] Setting up relu6
I0923 18:54:13.012342 32289 net.cpp:105] Top shape: 8 4096 1 1 (32768)
I0923 18:54:13.012346 32289 layer_factory.hpp:78] Creating layer fc7
I0923 18:54:13.012353 32289 net.cpp:69] Creating Layer fc7
I0923 18:54:13.012357 32289 net.cpp:396] fc7 <- fc6
I0923 18:54:13.012363 32289 net.cpp:358] fc7 -> fc7
I0923 18:54:13.012369 32289 net.cpp:98] Setting up fc7
I0923 18:54:13.029428 32289 net.cpp:105] Top shape: 8 4096 1 1 (32768)
I0923 18:54:13.029476 32289 layer_factory.hpp:78] Creating layer bnfc7
I0923 18:54:13.029490 32289 net.cpp:69] Creating Layer bnfc7
I0923 18:54:13.029500 32289 net.cpp:396] bnfc7 <- fc7
I0923 18:54:13.029510 32289 net.cpp:347] bnfc7 -> fc7 (in-place)
I0923 18:54:13.029517 32289 net.cpp:98] Setting up bnfc7
I0923 18:54:13.029551 32289 net.cpp:105] Top shape: 8 4096 1 1 (32768)
I0923 18:54:13.029585 32289 layer_factory.hpp:78] Creating layer relu7
I0923 18:54:13.029597 32289 net.cpp:69] Creating Layer relu7
I0923 18:54:13.029603 32289 net.cpp:396] relu7 <- fc7
I0923 18:54:13.029608 32289 net.cpp:347] relu7 -> fc7 (in-place)
I0923 18:54:13.029623 32289 net.cpp:98] Setting up relu7
I0923 18:54:13.029636 32289 net.cpp:105] Top shape: 8 4096 1 1 (32768)
I0923 18:54:13.029641 32289 layer_factory.hpp:78] Creating layer fc6-deconv
I0923 18:54:13.029649 32289 net.cpp:69] Creating Layer fc6-deconv
I0923 18:54:13.029654 32289 net.cpp:396] fc6-deconv <- fc7
I0923 18:54:13.029659 32289 net.cpp:358] fc6-deconv -> fc6-deconv
I0923 18:54:13.029666 32289 net.cpp:98] Setting up fc6-deconv
I0923 18:54:15.037477 32289 net.cpp:105] Top shape: 8 512 7 7 (200704)
I0923 18:54:15.037523 32289 layer_factory.hpp:78] Creating layer fc6-deconv-bn
I0923 18:54:15.037533 32289 net.cpp:69] Creating Layer fc6-deconv-bn
I0923 18:54:15.037539 32289 net.cpp:396] fc6-deconv-bn <- fc6-deconv
I0923 18:54:15.037547 32289 net.cpp:347] fc6-deconv-bn -> fc6-deconv (in-place)
I0923 18:54:15.037554 32289 net.cpp:98] Setting up fc6-deconv-bn
I0923 18:54:15.037566 32289 net.cpp:105] Top shape: 8 512 7 7 (200704)
I0923 18:54:15.037582 32289 layer_factory.hpp:78] Creating layer fc6-deconv-relu
I0923 18:54:15.037588 32289 net.cpp:69] Creating Layer fc6-deconv-relu
I0923 18:54:15.037593 32289 net.cpp:396] fc6-deconv-relu <- fc6-deconv
I0923 18:54:15.037598 32289 net.cpp:347] fc6-deconv-relu -> fc6-deconv (in-place)
I0923 18:54:15.037603 32289 net.cpp:98] Setting up fc6-deconv-relu
I0923 18:54:15.037608 32289 net.cpp:105] Top shape: 8 512 7 7 (200704)
I0923 18:54:15.037612 32289 layer_factory.hpp:78] Creating layer unpool5
I0923 18:54:15.037619 32289 net.cpp:69] Creating Layer unpool5
I0923 18:54:15.037624 32289 net.cpp:396] unpool5 <- fc6-deconv
I0923 18:54:15.037629 32289 net.cpp:358] unpool5 -> unpool5
I0923 18:54:15.037636 32289 net.cpp:98] Setting up unpool5
I0923 18:54:15.037642 32289 net.cpp:105] Top shape: 8 512 14 14 (802816)
I0923 18:54:15.037645 32289 layer_factory.hpp:78] Creating layer deconv5_1
I0923 18:54:15.037653 32289 net.cpp:69] Creating Layer deconv5_1
I0923 18:54:15.037657 32289 net.cpp:396] deconv5_1 <- unpool5
I0923 18:54:15.037663 32289 net.cpp:358] deconv5_1 -> deconv5_1
I0923 18:54:15.037669 32289 net.cpp:98] Setting up deconv5_1
I0923 18:54:15.085414 32289 net.cpp:105] Top shape: 8 512 14 14 (802816)
I0923 18:54:15.085461 32289 layer_factory.hpp:78] Creating layer debn5_1
I0923 18:54:15.085471 32289 net.cpp:69] Creating Layer debn5_1
I0923 18:54:15.085477 32289 net.cpp:396] debn5_1 <- deconv5_1
I0923 18:54:15.085484 32289 net.cpp:347] debn5_1 -> deconv5_1 (in-place)
I0923 18:54:15.085491 32289 net.cpp:98] Setting up debn5_1
I0923 18:54:15.085512 32289 net.cpp:105] Top shape: 8 512 14 14 (802816)
I0923 18:54:15.085520 32289 layer_factory.hpp:78] Creating layer derelu5_1
I0923 18:54:15.085525 32289 net.cpp:69] Creating Layer derelu5_1
I0923 18:54:15.085530 32289 net.cpp:396] derelu5_1 <- deconv5_1
I0923 18:54:15.085536 32289 net.cpp:347] derelu5_1 -> deconv5_1 (in-place)
I0923 18:54:15.085541 32289 net.cpp:98] Setting up derelu5_1
I0923 18:54:15.085546 32289 net.cpp:105] Top shape: 8 512 14 14 (802816)
I0923 18:54:15.085551 32289 layer_factory.hpp:78] Creating layer deconv5_2
I0923 18:54:15.085558 32289 net.cpp:69] Creating Layer deconv5_2
I0923 18:54:15.085562 32289 net.cpp:396] deconv5_2 <- deconv5_1
I0923 18:54:15.085568 32289 net.cpp:358] deconv5_2 -> deconv5_2
I0923 18:54:15.085574 32289 net.cpp:98] Setting up deconv5_2
I0923 18:54:15.131850 32289 net.cpp:105] Top shape: 8 512 14 14 (802816)
I0923 18:54:15.131891 32289 layer_factory.hpp:78] Creating layer debn5_2
I0923 18:54:15.131901 32289 net.cpp:69] Creating Layer debn5_2
I0923 18:54:15.131906 32289 net.cpp:396] debn5_2 <- deconv5_2
I0923 18:54:15.131912 32289 net.cpp:347] debn5_2 -> deconv5_2 (in-place)
I0923 18:54:15.131921 32289 net.cpp:98] Setting up debn5_2
I0923 18:54:15.131930 32289 net.cpp:105] Top shape: 8 512 14 14 (802816)
I0923 18:54:15.131968 32289 layer_factory.hpp:78] Creating layer derelu5_2
I0923 18:54:15.131975 32289 net.cpp:69] Creating Layer derelu5_2
I0923 18:54:15.131979 32289 net.cpp:396] derelu5_2 <- deconv5_2
I0923 18:54:15.131984 32289 net.cpp:347] derelu5_2 -> deconv5_2 (in-place)
I0923 18:54:15.131990 32289 net.cpp:98] Setting up derelu5_2
I0923 18:54:15.131995 32289 net.cpp:105] Top shape: 8 512 14 14 (802816)
I0923 18:54:15.131999 32289 layer_factory.hpp:78] Creating layer deconv5_3
I0923 18:54:15.132007 32289 net.cpp:69] Creating Layer deconv5_3
I0923 18:54:15.132012 32289 net.cpp:396] deconv5_3 <- deconv5_2
I0923 18:54:15.132019 32289 net.cpp:358] deconv5_3 -> deconv5_3
I0923 18:54:15.132025 32289 net.cpp:98] Setting up deconv5_3
I0923 18:54:15.178151 32289 net.cpp:105] Top shape: 8 512 14 14 (802816)
I0923 18:54:15.178194 32289 layer_factory.hpp:78] Creating layer debn5_3
I0923 18:54:15.178205 32289 net.cpp:69] Creating Layer debn5_3
I0923 18:54:15.178212 32289 net.cpp:396] debn5_3 <- deconv5_3
I0923 18:54:15.178220 32289 net.cpp:347] debn5_3 -> deconv5_3 (in-place)
I0923 18:54:15.178226 32289 net.cpp:98] Setting up debn5_3
I0923 18:54:15.178238 32289 net.cpp:105] Top shape: 8 512 14 14 (802816)
I0923 18:54:15.178254 32289 layer_factory.hpp:78] Creating layer derelu5_3
I0923 18:54:15.178267 32289 net.cpp:69] Creating Layer derelu5_3
I0923 18:54:15.178272 32289 net.cpp:396] derelu5_3 <- deconv5_3
I0923 18:54:15.178277 32289 net.cpp:347] derelu5_3 -> deconv5_3 (in-place)
I0923 18:54:15.178283 32289 net.cpp:98] Setting up derelu5_3
I0923 18:54:15.178288 32289 net.cpp:105] Top shape: 8 512 14 14 (802816)
I0923 18:54:15.178293 32289 layer_factory.hpp:78] Creating layer unpool4
I0923 18:54:15.178299 32289 net.cpp:69] Creating Layer unpool4
I0923 18:54:15.178303 32289 net.cpp:396] unpool4 <- deconv5_3
I0923 18:54:15.178309 32289 net.cpp:358] unpool4 -> unpool4
I0923 18:54:15.178315 32289 net.cpp:98] Setting up unpool4
I0923 18:54:15.178321 32289 net.cpp:105] Top shape: 8 512 28 28 (3211264)
I0923 18:54:15.178325 32289 layer_factory.hpp:78] Creating layer deconv4_1
I0923 18:54:15.178333 32289 net.cpp:69] Creating Layer deconv4_1
I0923 18:54:15.178336 32289 net.cpp:396] deconv4_1 <- unpool4
I0923 18:54:15.178344 32289 net.cpp:358] deconv4_1 -> deconv4_1
I0923 18:54:15.178350 32289 net.cpp:98] Setting up deconv4_1
I0923 18:54:15.225543 32289 net.cpp:105] Top shape: 8 512 28 28 (3211264)
I0923 18:54:15.225587 32289 layer_factory.hpp:78] Creating layer debn4_1
I0923 18:54:15.225597 32289 net.cpp:69] Creating Layer debn4_1
I0923 18:54:15.225603 32289 net.cpp:396] debn4_1 <- deconv4_1
I0923 18:54:15.225611 32289 net.cpp:347] debn4_1 -> deconv4_1 (in-place)
I0923 18:54:15.225620 32289 net.cpp:98] Setting up debn4_1
I0923 18:54:15.225631 32289 net.cpp:105] Top shape: 8 512 28 28 (3211264)
I0923 18:54:15.225648 32289 layer_factory.hpp:78] Creating layer derelu4_1
I0923 18:54:15.225659 32289 net.cpp:69] Creating Layer derelu4_1
I0923 18:54:15.225663 32289 net.cpp:396] derelu4_1 <- deconv4_1
I0923 18:54:15.225668 32289 net.cpp:347] derelu4_1 -> deconv4_1 (in-place)
I0923 18:54:15.225674 32289 net.cpp:98] Setting up derelu4_1
I0923 18:54:15.225679 32289 net.cpp:105] Top shape: 8 512 28 28 (3211264)
I0923 18:54:15.225683 32289 layer_factory.hpp:78] Creating layer deconv4_2
I0923 18:54:15.225690 32289 net.cpp:69] Creating Layer deconv4_2
I0923 18:54:15.225694 32289 net.cpp:396] deconv4_2 <- deconv4_1
I0923 18:54:15.225700 32289 net.cpp:358] deconv4_2 -> deconv4_2
I0923 18:54:15.225711 32289 net.cpp:98] Setting up deconv4_2
I0923 18:54:15.272785 32289 net.cpp:105] Top shape: 8 512 28 28 (3211264)
I0923 18:54:15.272824 32289 layer_factory.hpp:78] Creating layer debn4_2
I0923 18:54:15.272833 32289 net.cpp:69] Creating Layer debn4_2
I0923 18:54:15.272840 32289 net.cpp:396] debn4_2 <- deconv4_2
I0923 18:54:15.272847 32289 net.cpp:347] debn4_2 -> deconv4_2 (in-place)
I0923 18:54:15.272855 32289 net.cpp:98] Setting up debn4_2
I0923 18:54:15.272867 32289 net.cpp:105] Top shape: 8 512 28 28 (3211264)
I0923 18:54:15.272883 32289 layer_factory.hpp:78] Creating layer derelu4_2
I0923 18:54:15.272920 32289 net.cpp:69] Creating Layer derelu4_2
I0923 18:54:15.272925 32289 net.cpp:396] derelu4_2 <- deconv4_2
I0923 18:54:15.272932 32289 net.cpp:347] derelu4_2 -> deconv4_2 (in-place)
I0923 18:54:15.272936 32289 net.cpp:98] Setting up derelu4_2
I0923 18:54:15.272941 32289 net.cpp:105] Top shape: 8 512 28 28 (3211264)
I0923 18:54:15.272946 32289 layer_factory.hpp:78] Creating layer deconv4_3
I0923 18:54:15.272953 32289 net.cpp:69] Creating Layer deconv4_3
I0923 18:54:15.272956 32289 net.cpp:396] deconv4_3 <- deconv4_2
I0923 18:54:15.272971 32289 net.cpp:358] deconv4_3 -> deconv4_3
I0923 18:54:15.272989 32289 net.cpp:98] Setting up deconv4_3
I0923 18:54:15.296370 32289 net.cpp:105] Top shape: 8 256 28 28 (1605632)
I0923 18:54:15.296396 32289 layer_factory.hpp:78] Creating layer debn4_3
I0923 18:54:15.296404 32289 net.cpp:69] Creating Layer debn4_3
I0923 18:54:15.296409 32289 net.cpp:396] debn4_3 <- deconv4_3
I0923 18:54:15.296414 32289 net.cpp:347] debn4_3 -> deconv4_3 (in-place)
I0923 18:54:15.296421 32289 net.cpp:98] Setting up debn4_3
I0923 18:54:15.296443 32289 net.cpp:105] Top shape: 8 256 28 28 (1605632)
I0923 18:54:15.296450 32289 layer_factory.hpp:78] Creating layer derelu4_3
I0923 18:54:15.296457 32289 net.cpp:69] Creating Layer derelu4_3
I0923 18:54:15.296461 32289 net.cpp:396] derelu4_3 <- deconv4_3
I0923 18:54:15.296466 32289 net.cpp:347] derelu4_3 -> deconv4_3 (in-place)
I0923 18:54:15.296471 32289 net.cpp:98] Setting up derelu4_3
I0923 18:54:15.296476 32289 net.cpp:105] Top shape: 8 256 28 28 (1605632)
I0923 18:54:15.296480 32289 layer_factory.hpp:78] Creating layer unpool3
I0923 18:54:15.296488 32289 net.cpp:69] Creating Layer unpool3
I0923 18:54:15.296491 32289 net.cpp:396] unpool3 <- deconv4_3
I0923 18:54:15.296497 32289 net.cpp:358] unpool3 -> unpool3
I0923 18:54:15.296504 32289 net.cpp:98] Setting up unpool3
I0923 18:54:15.296509 32289 net.cpp:105] Top shape: 8 256 56 56 (6422528)
I0923 18:54:15.296512 32289 layer_factory.hpp:78] Creating layer deconv3_1
I0923 18:54:15.296519 32289 net.cpp:69] Creating Layer deconv3_1
I0923 18:54:15.296524 32289 net.cpp:396] deconv3_1 <- unpool3
I0923 18:54:15.296530 32289 net.cpp:358] deconv3_1 -> deconv3_1
I0923 18:54:15.296536 32289 net.cpp:98] Setting up deconv3_1
I0923 18:54:15.308410 32289 net.cpp:105] Top shape: 8 256 56 56 (6422528)
I0923 18:54:15.308434 32289 layer_factory.hpp:78] Creating layer debn3_1
I0923 18:54:15.308441 32289 net.cpp:69] Creating Layer debn3_1
I0923 18:54:15.308446 32289 net.cpp:396] debn3_1 <- deconv3_1
I0923 18:54:15.308455 32289 net.cpp:347] debn3_1 -> deconv3_1 (in-place)
I0923 18:54:15.308461 32289 net.cpp:98] Setting up debn3_1
I0923 18:54:15.308485 32289 net.cpp:105] Top shape: 8 256 56 56 (6422528)
I0923 18:54:15.308490 32289 layer_factory.hpp:78] Creating layer derelu3_1
I0923 18:54:15.308496 32289 net.cpp:69] Creating Layer derelu3_1
I0923 18:54:15.308501 32289 net.cpp:396] derelu3_1 <- deconv3_1
I0923 18:54:15.308506 32289 net.cpp:347] derelu3_1 -> deconv3_1 (in-place)
I0923 18:54:15.308511 32289 net.cpp:98] Setting up derelu3_1
I0923 18:54:15.308516 32289 net.cpp:105] Top shape: 8 256 56 56 (6422528)
I0923 18:54:15.308521 32289 layer_factory.hpp:78] Creating layer deconv3_2
I0923 18:54:15.308526 32289 net.cpp:69] Creating Layer deconv3_2
I0923 18:54:15.308531 32289 net.cpp:396] deconv3_2 <- deconv3_1
I0923 18:54:15.308537 32289 net.cpp:358] deconv3_2 -> deconv3_2
I0923 18:54:15.308543 32289 net.cpp:98] Setting up deconv3_2
I0923 18:54:15.320629 32289 net.cpp:105] Top shape: 8 256 56 56 (6422528)
I0923 18:54:15.320650 32289 layer_factory.hpp:78] Creating layer debn3_2
I0923 18:54:15.320657 32289 net.cpp:69] Creating Layer debn3_2
I0923 18:54:15.320662 32289 net.cpp:396] debn3_2 <- deconv3_2
I0923 18:54:15.320669 32289 net.cpp:347] debn3_2 -> deconv3_2 (in-place)
I0923 18:54:15.320675 32289 net.cpp:98] Setting up debn3_2
I0923 18:54:15.320688 32289 net.cpp:105] Top shape: 8 256 56 56 (6422528)
I0923 18:54:15.320695 32289 layer_factory.hpp:78] Creating layer derelu3_2
I0923 18:54:15.320736 32289 net.cpp:69] Creating Layer derelu3_2
I0923 18:54:15.320742 32289 net.cpp:396] derelu3_2 <- deconv3_2
I0923 18:54:15.320747 32289 net.cpp:347] derelu3_2 -> deconv3_2 (in-place)
I0923 18:54:15.320754 32289 net.cpp:98] Setting up derelu3_2
I0923 18:54:15.320758 32289 net.cpp:105] Top shape: 8 256 56 56 (6422528)
I0923 18:54:15.320762 32289 layer_factory.hpp:78] Creating layer deconv3_3
I0923 18:54:15.320768 32289 net.cpp:69] Creating Layer deconv3_3
I0923 18:54:15.320772 32289 net.cpp:396] deconv3_3 <- deconv3_2
I0923 18:54:15.320778 32289 net.cpp:358] deconv3_3 -> deconv3_3
I0923 18:54:15.320785 32289 net.cpp:98] Setting up deconv3_3
I0923 18:54:15.326850 32289 net.cpp:105] Top shape: 8 128 56 56 (3211264)
I0923 18:54:15.326860 32289 layer_factory.hpp:78] Creating layer debn3_3
I0923 18:54:15.326877 32289 net.cpp:69] Creating Layer debn3_3
I0923 18:54:15.326882 32289 net.cpp:396] debn3_3 <- deconv3_3
I0923 18:54:15.326887 32289 net.cpp:347] debn3_3 -> deconv3_3 (in-place)
I0923 18:54:15.326894 32289 net.cpp:98] Setting up debn3_3
I0923 18:54:15.326910 32289 net.cpp:105] Top shape: 8 128 56 56 (3211264)
I0923 18:54:15.326916 32289 layer_factory.hpp:78] Creating layer derelu3_3
I0923 18:54:15.326931 32289 net.cpp:69] Creating Layer derelu3_3
I0923 18:54:15.326946 32289 net.cpp:396] derelu3_3 <- deconv3_3
I0923 18:54:15.326951 32289 net.cpp:347] derelu3_3 -> deconv3_3 (in-place)
I0923 18:54:15.326956 32289 net.cpp:98] Setting up derelu3_3
I0923 18:54:15.326961 32289 net.cpp:105] Top shape: 8 128 56 56 (3211264)
I0923 18:54:15.326964 32289 layer_factory.hpp:78] Creating layer unpool2
I0923 18:54:15.326972 32289 net.cpp:69] Creating Layer unpool2
I0923 18:54:15.326977 32289 net.cpp:396] unpool2 <- deconv3_3
I0923 18:54:15.326982 32289 net.cpp:358] unpool2 -> unpool2
I0923 18:54:15.326987 32289 net.cpp:98] Setting up unpool2
I0923 18:54:15.326993 32289 net.cpp:105] Top shape: 8 128 112 112 (12845056)
I0923 18:54:15.326997 32289 layer_factory.hpp:78] Creating layer deconv2_1
I0923 18:54:15.327004 32289 net.cpp:69] Creating Layer deconv2_1
I0923 18:54:15.327008 32289 net.cpp:396] deconv2_1 <- unpool2
I0923 18:54:15.327014 32289 net.cpp:358] deconv2_1 -> deconv2_1
I0923 18:54:15.327020 32289 net.cpp:98] Setting up deconv2_1
I0923 18:54:15.330086 32289 net.cpp:105] Top shape: 8 128 112 112 (12845056)
I0923 18:54:15.330096 32289 layer_factory.hpp:78] Creating layer debn2_1
I0923 18:54:15.330112 32289 net.cpp:69] Creating Layer debn2_1
I0923 18:54:15.330117 32289 net.cpp:396] debn2_1 <- deconv2_1
I0923 18:54:15.330122 32289 net.cpp:347] debn2_1 -> deconv2_1 (in-place)
I0923 18:54:15.330128 32289 net.cpp:98] Setting up debn2_1
I0923 18:54:15.330163 32289 net.cpp:105] Top shape: 8 128 112 112 (12845056)
I0923 18:54:15.330178 32289 layer_factory.hpp:78] Creating layer derelu2_1
I0923 18:54:15.330198 32289 net.cpp:69] Creating Layer derelu2_1
I0923 18:54:15.330202 32289 net.cpp:396] derelu2_1 <- deconv2_1
I0923 18:54:15.330207 32289 net.cpp:347] derelu2_1 -> deconv2_1 (in-place)
I0923 18:54:15.330214 32289 net.cpp:98] Setting up derelu2_1
I0923 18:54:15.330217 32289 net.cpp:105] Top shape: 8 128 112 112 (12845056)
I0923 18:54:15.330222 32289 layer_factory.hpp:78] Creating layer deconv2_2
I0923 18:54:15.330227 32289 net.cpp:69] Creating Layer deconv2_2
I0923 18:54:15.330232 32289 net.cpp:396] deconv2_2 <- deconv2_1
I0923 18:54:15.330237 32289 net.cpp:358] deconv2_2 -> deconv2_2
I0923 18:54:15.330242 32289 net.cpp:98] Setting up deconv2_2
I0923 18:54:15.331817 32289 net.cpp:105] Top shape: 8 64 112 112 (6422528)
I0923 18:54:15.331827 32289 layer_factory.hpp:78] Creating layer debn2_2
I0923 18:54:15.331845 32289 net.cpp:69] Creating Layer debn2_2
I0923 18:54:15.331850 32289 net.cpp:396] debn2_2 <- deconv2_2
I0923 18:54:15.331854 32289 net.cpp:347] debn2_2 -> deconv2_2 (in-place)
I0923 18:54:15.331861 32289 net.cpp:98] Setting up debn2_2
I0923 18:54:15.331918 32289 net.cpp:105] Top shape: 8 64 112 112 (6422528)
I0923 18:54:15.331935 32289 layer_factory.hpp:78] Creating layer derelu2_2
I0923 18:54:15.331955 32289 net.cpp:69] Creating Layer derelu2_2
I0923 18:54:15.331977 32289 net.cpp:396] derelu2_2 <- deconv2_2
I0923 18:54:15.331984 32289 net.cpp:347] derelu2_2 -> deconv2_2 (in-place)
I0923 18:54:15.331989 32289 net.cpp:98] Setting up derelu2_2
I0923 18:54:15.332002 32289 net.cpp:105] Top shape: 8 64 112 112 (6422528)
I0923 18:54:15.332006 32289 layer_factory.hpp:78] Creating layer unpool1
I0923 18:54:15.332013 32289 net.cpp:69] Creating Layer unpool1
I0923 18:54:15.332017 32289 net.cpp:396] unpool1 <- deconv2_2
I0923 18:54:15.332022 32289 net.cpp:358] unpool1 -> unpool1
I0923 18:54:15.332028 32289 net.cpp:98] Setting up unpool1
I0923 18:54:15.332042 32289 net.cpp:105] Top shape: 8 64 224 224 (25690112)
I0923 18:54:15.332046 32289 layer_factory.hpp:78] Creating layer deconv1_1
I0923 18:54:15.332062 32289 net.cpp:69] Creating Layer deconv1_1
I0923 18:54:15.332067 32289 net.cpp:396] deconv1_1 <- unpool1
I0923 18:54:15.332072 32289 net.cpp:358] deconv1_1 -> deconv1_1
I0923 18:54:15.332079 32289 net.cpp:98] Setting up deconv1_1
I0923 18:54:15.332909 32289 net.cpp:105] Top shape: 8 64 224 224 (25690112)
I0923 18:54:15.332917 32289 layer_factory.hpp:78] Creating layer debn1_1
I0923 18:54:15.332936 32289 net.cpp:69] Creating Layer debn1_1
I0923 18:54:15.332940 32289 net.cpp:396] debn1_1 <- deconv1_1
I0923 18:54:15.332945 32289 net.cpp:347] debn1_1 -> deconv1_1 (in-place)
I0923 18:54:15.332950 32289 net.cpp:98] Setting up debn1_1
I0923 18:54:15.333101 32289 net.cpp:105] Top shape: 8 64 224 224 (25690112)
I0923 18:54:15.333118 32289 layer_factory.hpp:78] Creating layer derelu1_1
I0923 18:54:15.333124 32289 net.cpp:69] Creating Layer derelu1_1
I0923 18:54:15.333128 32289 net.cpp:396] derelu1_1 <- deconv1_1
I0923 18:54:15.333133 32289 net.cpp:347] derelu1_1 -> deconv1_1 (in-place)
I0923 18:54:15.333138 32289 net.cpp:98] Setting up derelu1_1
I0923 18:54:15.333142 32289 net.cpp:105] Top shape: 8 64 224 224 (25690112)
I0923 18:54:15.333147 32289 layer_factory.hpp:78] Creating layer deconv1_2
I0923 18:54:15.333161 32289 net.cpp:69] Creating Layer deconv1_2
I0923 18:54:15.333166 32289 net.cpp:396] deconv1_2 <- deconv1_1
I0923 18:54:15.333173 32289 net.cpp:358] deconv1_2 -> deconv1_2
I0923 18:54:15.333189 32289 net.cpp:98] Setting up deconv1_2
I0923 18:54:15.334022 32289 net.cpp:105] Top shape: 8 64 224 224 (25690112)
I0923 18:54:15.334031 32289 layer_factory.hpp:78] Creating layer debn1_2
I0923 18:54:15.334048 32289 net.cpp:69] Creating Layer debn1_2
I0923 18:54:15.334051 32289 net.cpp:396] debn1_2 <- deconv1_2
I0923 18:54:15.334058 32289 net.cpp:347] debn1_2 -> deconv1_2 (in-place)
I0923 18:54:15.334064 32289 net.cpp:98] Setting up debn1_2
I0923 18:54:15.334215 32289 net.cpp:105] Top shape: 8 64 224 224 (25690112)
I0923 18:54:15.334233 32289 layer_factory.hpp:78] Creating layer derelu1_2
I0923 18:54:15.334239 32289 net.cpp:69] Creating Layer derelu1_2
I0923 18:54:15.334244 32289 net.cpp:396] derelu1_2 <- deconv1_2
I0923 18:54:15.334249 32289 net.cpp:347] derelu1_2 -> deconv1_2 (in-place)
I0923 18:54:15.334254 32289 net.cpp:98] Setting up derelu1_2
I0923 18:54:15.334257 32289 net.cpp:105] Top shape: 8 64 224 224 (25690112)
I0923 18:54:15.334261 32289 layer_factory.hpp:78] Creating layer seg-score-voc
I0923 18:54:15.334278 32289 net.cpp:69] Creating Layer seg-score-voc
I0923 18:54:15.334283 32289 net.cpp:396] seg-score-voc <- deconv1_2
I0923 18:54:15.334298 32289 net.cpp:358] seg-score-voc -> seg-score
I0923 18:54:15.334305 32289 net.cpp:98] Setting up seg-score-voc
I0923 18:54:15.334444 32289 net.cpp:105] Top shape: 8 21 224 224 (8429568)
I0923 18:54:15.334462 32289 layer_factory.hpp:78] Creating layer seg-score_seg-score-voc_0_split
I0923 18:54:15.334468 32289 net.cpp:69] Creating Layer seg-score_seg-score-voc_0_split
I0923 18:54:15.334473 32289 net.cpp:396] seg-score_seg-score-voc_0_split <- seg-score
I0923 18:54:15.334480 32289 net.cpp:358] seg-score_seg-score-voc_0_split -> seg-score_seg-score-voc_0_split_0
I0923 18:54:15.334486 32289 net.cpp:358] seg-score_seg-score-voc_0_split -> seg-score_seg-score-voc_0_split_1
I0923 18:54:15.334502 32289 net.cpp:98] Setting up seg-score_seg-score-voc_0_split
I0923 18:54:15.334513 32289 net.cpp:105] Top shape: 8 21 224 224 (8429568)
I0923 18:54:15.334518 32289 net.cpp:105] Top shape: 8 21 224 224 (8429568)
I0923 18:54:15.334532 32289 layer_factory.hpp:78] Creating layer seg-accuracy
I0923 18:54:15.334549 32289 net.cpp:69] Creating Layer seg-accuracy
I0923 18:54:15.334553 32289 net.cpp:396] seg-accuracy <- seg-score_seg-score-voc_0_split_0
I0923 18:54:15.334559 32289 net.cpp:396] seg-accuracy <- seg-label_data_1_split_0
I0923 18:54:15.334564 32289 net.cpp:358] seg-accuracy -> seg-accuracy
I0923 18:54:15.334571 32289 net.cpp:98] Setting up seg-accuracy
I0923 18:54:15.334576 32289 net.cpp:105] Top shape: 1 1 1 1 (1)
I0923 18:54:15.334581 32289 layer_factory.hpp:78] Creating layer seg-loss
I0923 18:54:15.334591 32289 net.cpp:69] Creating Layer seg-loss
I0923 18:54:15.334596 32289 net.cpp:396] seg-loss <- seg-score_seg-score-voc_0_split_1
I0923 18:54:15.334601 32289 net.cpp:396] seg-loss <- seg-label_data_1_split_1
I0923 18:54:15.334606 32289 net.cpp:358] seg-loss -> seg-loss
I0923 18:54:15.334612 32289 net.cpp:98] Setting up seg-loss
I0923 18:54:15.334619 32289 net.cpp:105] Top shape: 1 1 1 1 (1)
I0923 18:54:15.334624 32289 net.cpp:111]     with loss weight 1
I0923 18:54:15.334633 32289 net.cpp:172] seg-loss needs backward computation.
I0923 18:54:15.334640 32289 net.cpp:174] seg-accuracy does not need backward computation.
I0923 18:54:15.334645 32289 net.cpp:172] seg-score_seg-score-voc_0_split needs backward computation.
I0923 18:54:15.334648 32289 net.cpp:172] seg-score-voc needs backward computation.
…
