…
I0923 02:43:33.232691 20394 net.cpp:277] The NetState phase (0) differed from the phase (1) specified by a rule in layer seg-accuracy
I0923 02:43:33.233037 20394 net.cpp:39] Initializing net from parameters: 
name: "stage_1_training"
layers {
  top: "data"
  top: "seg-label"
  name: "data"
  type: IMAGE_SEG_DATA
  image_data_param {
    source: "./stage_1_train_imgset/train_reduced_07.txt"
    batch_size: 8
    shuffle: true
    new_height: 250
    new_width: 250
    root_folder: "./VOC2012"
    label_type: PIXEL
  }
  include {
    phase: TRAIN
  }
  transform_param {
    mirror: true
    crop_size: 224
    mean_value: 104.008
    mean_value: 116.669
    mean_value: 122.675
  }
}
layers {
  bottom: "data"
  top: "conv1_1"
  name: "conv1_1"
  type: CONVOLUTION
  blobs_lr: 1
  blobs_lr: 2
  weight_decay: 1
  weight_decay: 0
  convolution_param {
    num_output: 64
    pad: 1
    kernel_size: 3
  }
}
layers {
  bottom: "conv1_1"
  top: "conv1_1"
  name: "bn1_1"
  type: BN
  bn_param {
    scale_filler {
      type: "constant"
      value: 1
    }
    shift_filler {
      type: "constant"
      value: 0.001
    }
  }
}
layers {
  bottom: "conv1_1"
  top: "conv1_1"
  name: "relu1_1"
  type: RELU
}
layers {
  bottom: "conv1_1"
  top: "conv1_2"
  name: "conv1_2"
  type: CONVOLUTION
  blobs_lr: 1
  blobs_lr: 2
  weight_decay: 1
  weight_decay: 0
  convolution_param {
    num_output: 64
    pad: 1
    kernel_size: 3
  }
}
layers {
  bottom: "conv1_2"
  top: "conv1_2"
  name: "bn1_2"
  type: BN
  bn_param {
    scale_filler {
      type: "constant"
      value: 1
    }
    shift_filler {
      type: "constant"
      value: 0.001
    }
  }
}
layers {
  bottom: "conv1_2"
  top: "conv1_2"
  name: "relu1_2"
  type: RELU
}
layers {
  bottom: "conv1_2"
  top: "pool1"
  name: "pool1"
  type: POOLING
  pooling_param {
    pool: MAX
    kernel_size: 2
    stride: 2
  }
}
layers {
  bottom: "pool1"
  top: "conv2_1"
  name: "conv2_1"
  type: CONVOLUTION
  blobs_lr: 1
  blobs_lr: 2
  weight_decay: 1
  weight_decay: 0
  convolution_param {
    num_output: 128
    pad: 1
    kernel_size: 3
  }
}
layers {
  bottom: "conv2_1"
  top: "conv2_1"
  name: "bn2_1"
  type: BN
  bn_param {
    scale_filler {
      type: "constant"
      value: 1
    }
    shift_filler {
      type: "constant"
      value: 0.001
    }
  }
}
layers {
  bottom: "conv2_1"
  top: "conv2_1"
  name: "relu2_1"
  type: RELU
}
layers {
  bottom: "conv2_1"
  top: "conv2_2"
  name: "conv2_2"
  type: CONVOLUTION
  blobs_lr: 1
  blobs_lr: 2
  weight_decay: 1
  weight_decay: 0
  convolution_param {
    num_output: 128
    pad: 1
    kernel_size: 3
  }
}
layers {
  bottom: "conv2_2"
  top: "conv2_2"
  name: "bn2_2"
  type: BN
  bn_param {
    scale_filler {
      type: "constant"
      value: 1
    }
    shift_filler {
      type: "constant"
      value: 0.001
    }
  }
}
layers {
  bottom: "conv2_2"
  top: "conv2_2"
  name: "relu2_2"
  type: RELU
}
layers {
  bottom: "conv2_2"
  top: "pool2"
  name: "pool2"
  type: POOLING
  pooling_param {
    pool: MAX
    kernel_size: 2
    stride: 2
  }
}
layers {
  bottom: "pool2"
  top: "conv3_1"
  name: "conv3_1"
  type: CONVOLUTION
  blobs_lr: 1
  blobs_lr: 2
  weight_decay: 1
  weight_decay: 0
  convolution_param {
    num_output: 256
    pad: 1
    kernel_size: 3
  }
}
layers {
  bottom: "conv3_1"
  top: "conv3_1"
  name: "bn3_1"
  type: BN
  bn_param {
    scale_filler {
      type: "constant"
      value: 1
    }
    shift_filler {
      type: "constant"
      value: 0.001
    }
  }
}
layers {
  bottom: "conv3_1"
  top: "conv3_1"
  name: "relu3_1"
  type: RELU
}
layers {
  bottom: "conv3_1"
  top: "conv3_2"
  name: "conv3_2"
  type: CONVOLUTION
  blobs_lr: 1
  blobs_lr: 2
  weight_decay: 1
  weight_decay: 0
  convolution_param {
    num_output: 256
    pad: 1
    kernel_size: 3
  }
}
layers {
  bottom: "conv3_2"
  top: "conv3_2"
  name: "bn3_2"
  type: BN
  bn_param {
    scale_filler {
      type: "constant"
      value: 1
    }
    shift_filler {
      type: "constant"
      value: 0.001
    }
  }
}
layers {
  bottom: "conv3_2"
  top: "conv3_2"
  name: "relu3_2"
  type: RELU
}
layers {
  bottom: "conv3_2"
  top: "conv3_3"
  name: "conv3_3"
  type: CONVOLUTION
  blobs_lr: 1
  blobs_lr: 2
  weight_decay: 1
  weight_decay: 0
  convolution_param {
    num_output: 256
    pad: 1
    kernel_size: 3
  }
}
layers {
  bottom: "conv3_3"
  top: "conv3_3"
  name: "bn3_3"
  type: BN
  bn_param {
    scale_filler {
      type: "constant"
      value: 1
    }
    shift_filler {
      type: "constant"
      value: 0.001
    }
  }
}
layers {
  bottom: "conv3_3"
  top: "conv3_3"
  name: "relu3_3"
  type: RELU
}
layers {
  bottom: "conv3_3"
  top: "pool3"
  name: "pool3"
  type: POOLING
  pooling_param {
    pool: MAX
    kernel_size: 2
    stride: 2
  }
}
layers {
  bottom: "pool3"
  top: "conv4_1"
  name: "conv4_1"
  type: CONVOLUTION
  blobs_lr: 1
  blobs_lr: 2
  weight_decay: 1
  weight_decay: 0
  convolution_param {
    num_output: 512
    pad: 1
    kernel_size: 3
  }
}
layers {
  bottom: "conv4_1"
  top: "conv4_1"
  name: "bn4_1"
  type: BN
  bn_param {
    scale_filler {
      type: "constant"
      value: 1
    }
    shift_filler {
      type: "constant"
      value: 0.001
    }
  }
}
layers {
  bottom: "conv4_1"
  top: "conv4_1"
  name: "relu4_1"
  type: RELU
}
layers {
  bottom: "conv4_1"
  top: "conv4_2"
  name: "conv4_2"
  type: CONVOLUTION
  blobs_lr: 1
  blobs_lr: 2
  weight_decay: 1
  weight_decay: 0
  convolution_param {
    num_output: 512
    pad: 1
    kernel_size: 3
  }
}
layers {
  bottom: "conv4_2"
  top: "conv4_2"
  name: "bn4_2"
  type: BN
  bn_param {
    scale_filler {
      type: "constant"
      value: 1
    }
    shift_filler {
      type: "constant"
      value: 0.001
    }
  }
}
layers {
  bottom: "conv4_2"
  top: "conv4_2"
  name: "relu4_2"
  type: RELU
}
layers {
  bottom: "conv4_2"
  top: "conv4_3"
  name: "conv4_3"
  type: CONVOLUTION
  blobs_lr: 1
  blobs_lr: 2
  weight_decay: 1
  weight_decay: 0
  convolution_param {
    num_output: 512
    pad: 1
    kernel_size: 3
  }
}
layers {
  bottom: "conv4_3"
  top: "conv4_3"
  name: "bn4_3"
  type: BN
  bn_param {
    scale_filler {
      type: "constant"
      value: 1
    }
    shift_filler {
      type: "constant"
      value: 0.001
    }
  }
}
layers {
  bottom: "conv4_3"
  top: "conv4_3"
  name: "relu4_3"
  type: RELU
}
layers {
  bottom: "conv4_3"
  top: "pool4"
  name: "pool4"
  type: POOLING
  pooling_param {
    pool: MAX
    kernel_size: 2
    stride: 2
  }
}
layers {
  bottom: "pool4"
  top: "conv5_1"
  name: "conv5_1"
  type: CONVOLUTION
  blobs_lr: 1
  blobs_lr: 2
  weight_decay: 1
  weight_decay: 0
  convolution_param {
    num_output: 512
    pad: 1
    kernel_size: 3
  }
}
layers {
  bottom: "conv5_1"
  top: "conv5_1"
  name: "bn5_1"
  type: BN
  bn_param {
    scale_filler {
      type: "constant"
      value: 1
    }
    shift_filler {
      type: "constant"
      value: 0.001
    }
  }
}
layers {
  bottom: "conv5_1"
  top: "conv5_1"
  name: "relu5_1"
  type: RELU
}
layers {
  bottom: "conv5_1"
  top: "conv5_2"
  name: "conv5_2"
  type: CONVOLUTION
  blobs_lr: 1
  blobs_lr: 2
  weight_decay: 1
  weight_decay: 0
  convolution_param {
    num_output: 512
    pad: 1
    kernel_size: 3
  }
}
layers {
  bottom: "conv5_2"
  top: "conv5_2"
  name: "bn5_2"
  type: BN
  bn_param {
    scale_filler {
      type: "constant"
      value: 1
    }
    shift_filler {
      type: "constant"
      value: 0.001
    }
  }
}
layers {
  bottom: "conv5_2"
  top: "conv5_2"
  name: "relu5_2"
  type: RELU
}
layers {
  bottom: "conv5_2"
  top: "conv5_3"
  name: "conv5_3"
  type: CONVOLUTION
  blobs_lr: 1
  blobs_lr: 2
  weight_decay: 1
  weight_decay: 0
  convolution_param {
    num_output: 512
    pad: 1
    kernel_size: 3
  }
}
layers {
  bottom: "conv5_3"
  top: "conv5_3"
  name: "bn5_3"
  type: BN
  bn_param {
    scale_filler {
      type: "constant"
      value: 1
    }
    shift_filler {
      type: "constant"
      value: 0.001
    }
  }
}
layers {
  bottom: "conv5_3"
  top: "conv5_3"
  name: "relu5_3"
  type: RELU
}
layers {
  bottom: "conv5_3"
  top: "pool5"
  name: "pool5"
  type: POOLING
  pooling_param {
    pool: MAX
    kernel_size: 2
    stride: 2
  }
}
layers {
  bottom: "pool5"
  top: "fc6"
  name: "fc6"
  type: CONVOLUTION
  blobs_lr: 1
  blobs_lr: 2
  weight_decay: 1
  weight_decay: 0
  convolution_param {
    num_output: 4096
    kernel_size: 7
  }
}
layers {
  bottom: "fc6"
  top: "fc6"
  name: "bnfc6"
  type: BN
  bn_param {
    scale_filler {
      type: "constant"
      value: 1
    }
    shift_filler {
      type: "constant"
      value: 0.001
    }
  }
}
layers {
  bottom: "fc6"
  top: "fc6"
  name: "relu6"
  type: RELU
}
layers {
  bottom: "fc6"
  top: "fc7"
  name: "fc7"
  type: CONVOLUTION
  blobs_lr: 1
  blobs_lr: 2
  weight_decay: 1
  weight_decay: 0
  convolution_param {
    num_output: 4096
    kernel_size: 1
  }
}
layers {
  bottom: "fc7"
  top: "fc7"
  name: "bnfc7"
  type: BN
  bn_param {
    scale_filler {
      type: "constant"
      value: 1
    }
    shift_filler {
      type: "constant"
      value: 0.001
    }
  }
}
layers {
  bottom: "fc7"
  top: "fc7"
  name: "relu7"
  type: RELU
}
layers {
  bottom: "fc7"
  top: "fc6-deconv"
  name: "fc6-deconv"
  type: DECONVOLUTION
  blobs_lr: 1
  blobs_lr: 2
  weight_decay: 1
  weight_decay: 0
  convolution_param {
    num_output: 512
    kernel_size: 7
    weight_filler {
      type: "gaussian"
      std: 0.01
    }
    bias_filler {
      type: "constant"
      value: 0
    }
  }
}
layers {
  bottom: "fc6-deconv"
  top: "fc6-deconv"
  name: "fc6-deconv-bn"
  type: BN
  bn_param {
    scale_filler {
      type: "constant"
      value: 1
    }
    shift_filler {
      type: "constant"
      value: 0.001
    }
  }
}
layers {
  bottom: "fc6-deconv"
  top: "fc6-deconv"
  name: "fc6-deconv-relu"
  type: RELU
}
layers {
  bottom: "fc6-deconv"
  top: "unpool5"
  name: "unpool5"
  type: UNPOOLING
  unpooling_param {
    unpool: MAX
    kernel_size: 2
    stride: 2
    unpool_size: 14
  }
}
layers {
  bottom: "unpool5"
  top: "deconv5_1"
  name: "deconv5_1"
  type: DECONVOLUTION
  blobs_lr: 1
  blobs_lr: 2
  weight_decay: 1
  weight_decay: 0
  convolution_param {
    num_output: 512
    pad: 1
    kernel_size: 3
    weight_filler {
      type: "gaussian"
      std: 0.01
    }
    bias_filler {
      type: "constant"
      value: 0
    }
  }
}
layers {
  bottom: "deconv5_1"
  top: "deconv5_1"
  name: "debn5_1"
  type: BN
  bn_param {
    scale_filler {
      type: "constant"
      value: 1
    }
    shift_filler {
      type: "constant"
      value: 0.001
    }
  }
}
layers {
  bottom: "deconv5_1"
  top: "deconv5_1"
  name: "derelu5_1"
  type: RELU
}
layers {
  bottom: "deconv5_1"
  top: "deconv5_2"
  name: "deconv5_2"
  type: DECONVOLUTION
  blobs_lr: 1
  blobs_lr: 2
  weight_decay: 1
  weight_decay: 0
  convolution_param {
    num_output: 512
    pad: 1
    kernel_size: 3
    weight_filler {
      type: "gaussian"
      std: 0.01
    }
    bias_filler {
      type: "constant"
      value: 0
    }
  }
}
layers {
  bottom: "deconv5_2"
  top: "deconv5_2"
  name: "debn5_2"
  type: BN
  bn_param {
    scale_filler {
      type: "constant"
      value: 1
    }
    shift_filler {
      type: "constant"
      value: 0.001
    }
  }
}
layers {
  bottom: "deconv5_2"
  top: "deconv5_2"
  name: "derelu5_2"
  type: RELU
}
layers {
  bottom: "deconv5_2"
  top: "deconv5_3"
  name: "deconv5_3"
  type: DECONVOLUTION
  blobs_lr: 1
  blobs_lr: 2
  weight_decay: 1
  weight_decay: 0
  convolution_param {
    num_output: 512
    pad: 1
    kernel_size: 3
    weight_filler {
      type: "gaussian"
      std: 0.01
    }
    bias_filler {
      type: "constant"
      value: 0
    }
  }
}
layers {
  bottom: "deconv5_3"
  top: "deconv5_3"
  name: "debn5_3"
  type: BN
  bn_param {
    scale_filler {
      type: "constant"
      value: 1
    }
    shift_filler {
      type: "constant"
      value: 0.001
    }
  }
}
layers {
  bottom: "deconv5_3"
  top: "deconv5_3"
  name: "derelu5_3"
  type: RELU
}
layers {
  bottom: "deconv5_3"
  top: "unpool4"
  name: "unpool4"
  type: UNPOOLING
  unpooling_param {
    unpool: MAX
    kernel_size: 2
    stride: 2
    unpool_size: 28
  }
}
layers {
  bottom: "unpool4"
  top: "deconv4_1"
  name: "deconv4_1"
  type: DECONVOLUTION
  blobs_lr: 1
  blobs_lr: 2
  weight_decay: 1
  weight_decay: 0
  convolution_param {
    num_output: 512
    pad: 1
    kernel_size: 3
    weight_filler {
      type: "gaussian"
      std: 0.01
    }
    bias_filler {
      type: "constant"
      value: 0
    }
  }
}
layers {
  bottom: "deconv4_1"
  top: "deconv4_1"
  name: "debn4_1"
  type: BN
  bn_param {
    scale_filler {
      type: "constant"
      value: 1
    }
    shift_filler {
      type: "constant"
      value: 0.001
    }
  }
}
layers {
  bottom: "deconv4_1"
  top: "deconv4_1"
  name: "derelu4_1"
  type: RELU
}
layers {
  bottom: "deconv4_1"
  top: "deconv4_2"
  name: "deconv4_2"
  type: DECONVOLUTION
  blobs_lr: 1
  blobs_lr: 2
  weight_decay: 1
  weight_decay: 0
  convolution_param {
    num_output: 512
    pad: 1
    kernel_size: 3
    weight_filler {
      type: "gaussian"
      std: 0.01
    }
    bias_filler {
      type: "constant"
      value: 0
    }
  }
}
layers {
  bottom: "deconv4_2"
  top: "deconv4_2"
  name: "debn4_2"
  type: BN
  bn_param {
    scale_filler {
      type: "constant"
      value: 1
    }
    shift_filler {
      type: "constant"
      value: 0.001
    }
  }
}
layers {
  bottom: "deconv4_2"
  top: "deconv4_2"
  name: "derelu4_2"
  type: RELU
}
layers {
  bottom: "deconv4_2"
  top: "deconv4_3"
  name: "deconv4_3"
  type: DECONVOLUTION
  blobs_lr: 1
  blobs_lr: 2
  weight_decay: 1
  weight_decay: 0
  convolution_param {
    num_output: 256
    pad: 1
    kernel_size: 3
    weight_filler {
      type: "gaussian"
      std: 0.01
    }
    bias_filler {
      type: "constant"
      value: 0
    }
  }
}
layers {
  bottom: "deconv4_3"
  top: "deconv4_3"
  name: "debn4_3"
  type: BN
  bn_param {
    scale_filler {
      type: "constant"
      value: 1
    }
    shift_filler {
      type: "constant"
      value: 0.001
    }
  }
}
layers {
  bottom: "deconv4_3"
  top: "deconv4_3"
  name: "derelu4_3"
  type: RELU
}
layers {
  bottom: "deconv4_3"
  top: "unpool3"
  name: "unpool3"
  type: UNPOOLING
  unpooling_param {
    unpool: MAX
    kernel_size: 2
    stride: 2
    unpool_size: 56
  }
}
layers {
  bottom: "unpool3"
  top: "deconv3_1"
  name: "deconv3_1"
  type: DECONVOLUTION
  blobs_lr: 1
  blobs_lr: 2
  weight_decay: 1
  weight_decay: 0
  convolution_param {
    num_output: 256
    pad: 1
    kernel_size: 3
    weight_filler {
      type: "gaussian"
      std: 0.01
    }
    bias_filler {
      type: "constant"
      value: 0
    }
  }
}
layers {
  bottom: "deconv3_1"
  top: "deconv3_1"
  name: "debn3_1"
  type: BN
  bn_param {
    scale_filler {
      type: "constant"
      value: 1
    }
    shift_filler {
      type: "constant"
      value: 0.001
    }
  }
}
layers {
  bottom: "deconv3_1"
  top: "deconv3_1"
  name: "derelu3_1"
  type: RELU
}
layers {
  bottom: "deconv3_1"
  top: "deconv3_2"
  name: "deconv3_2"
  type: DECONVOLUTION
  blobs_lr: 1
  blobs_lr: 2
  weight_decay: 1
  weight_decay: 0
  convolution_param {
    num_output: 256
    pad: 1
    kernel_size: 3
    weight_filler {
      type: "gaussian"
      std: 0.01
    }
    bias_filler {
      type: "constant"
      value: 0
    }
  }
}
layers {
  bottom: "deconv3_2"
  top: "deconv3_2"
  name: "debn3_2"
  type: BN
  bn_param {
    scale_filler {
      type: "constant"
      value: 1
    }
    shift_filler {
      type: "constant"
      value: 0.001
    }
  }
}
layers {
  bottom: "deconv3_2"
  top: "deconv3_2"
  name: "derelu3_2"
  type: RELU
}
layers {
  bottom: "deconv3_2"
  top: "deconv3_3"
  name: "deconv3_3"
  type: DECONVOLUTION
  blobs_lr: 1
  blobs_lr: 2
  weight_decay: 1
  weight_decay: 0
  convolution_param {
    num_output: 128
    pad: 1
    kernel_size: 3
    weight_filler {
      type: "gaussian"
      std: 0.01
    }
    bias_filler {
      type: "constant"
      value: 0
    }
  }
}
layers {
  bottom: "deconv3_3"
  top: "deconv3_3"
  name: "debn3_3"
  type: BN
  bn_param {
    scale_filler {
      type: "constant"
      value: 1
    }
    shift_filler {
      type: "constant"
      value: 0.001
    }
  }
}
layers {
  bottom: "deconv3_3"
  top: "deconv3_3"
  name: "derelu3_3"
  type: RELU
}
layers {
  bottom: "deconv3_3"
  top: "unpool2"
  name: "unpool2"
  type: UNPOOLING
  unpooling_param {
    unpool: MAX
    kernel_size: 2
    stride: 2
    unpool_size: 112
  }
}
layers {
  bottom: "unpool2"
  top: "deconv2_1"
  name: "deconv2_1"
  type: DECONVOLUTION
  blobs_lr: 1
  blobs_lr: 2
  weight_decay: 1
  weight_decay: 0
  convolution_param {
    num_output: 128
    pad: 1
    kernel_size: 3
    weight_filler {
      type: "gaussian"
      std: 0.01
    }
    bias_filler {
      type: "constant"
      value: 0
    }
  }
}
layers {
  bottom: "deconv2_1"
  top: "deconv2_1"
  name: "debn2_1"
  type: BN
  bn_param {
    scale_filler {
      type: "constant"
      value: 1
    }
    shift_filler {
      type: "constant"
      value: 0.001
    }
  }
}
layers {
  bottom: "deconv2_1"
  top: "deconv2_1"
  name: "derelu2_1"
  type: RELU
}
layers {
  bottom: "deconv2_1"
  top: "deconv2_2"
  name: "deconv2_2"
  type: DECONVOLUTION
  blobs_lr: 1
  blobs_lr: 2
  weight_decay: 1
  weight_decay: 0
  convolution_param {
    num_output: 64
    pad: 1
    kernel_size: 3
    weight_filler {
      type: "gaussian"
      std: 0.01
    }
    bias_filler {
      type: "constant"
      value: 0
    }
  }
}
layers {
  bottom: "deconv2_2"
  top: "deconv2_2"
  name: "debn2_2"
  type: BN
  bn_param {
    scale_filler {
      type: "constant"
      value: 1
    }
    shift_filler {
      type: "constant"
      value: 0.001
    }
  }
}
layers {
  bottom: "deconv2_2"
  top: "deconv2_2"
  name: "derelu2_2"
  type: RELU
}
layers {
  bottom: "deconv2_2"
  top: "unpool1"
  name: "unpool1"
  type: UNPOOLING
  unpooling_param {
    unpool: MAX
    kernel_size: 2
    stride: 2
    unpool_size: 224
  }
}
layers {
  bottom: "unpool1"
  top: "deconv1_1"
  name: "deconv1_1"
  type: DECONVOLUTION
  blobs_lr: 1
  blobs_lr: 2
  weight_decay: 1
  weight_decay: 0
  convolution_param {
    num_output: 64
    pad: 1
    kernel_size: 3
    weight_filler {
      type: "gaussian"
      std: 0.01
    }
    bias_filler {
      type: "constant"
      value: 0
    }
  }
}
layers {
  bottom: "deconv1_1"
  top: "deconv1_1"
  name: "debn1_1"
  type: BN
  bn_param {
    scale_filler {
      type: "constant"
      value: 1
    }
    shift_filler {
      type: "constant"
      value: 0.001
    }
  }
}
layers {
  bottom: "deconv1_1"
  top: "deconv1_1"
  name: "derelu1_1"
  type: RELU
}
layers {
  bottom: "deconv1_1"
  top: "deconv1_2"
  name: "deconv1_2"
  type: DECONVOLUTION
  blobs_lr: 1
  blobs_lr: 2
  weight_decay: 1
  weight_decay: 0
  convolution_param {
    num_output: 64
    pad: 1
    kernel_size: 3
    weight_filler {
      type: "gaussian"
      std: 0.01
    }
    bias_filler {
      type: "constant"
      value: 0
    }
  }
}
layers {
  bottom: "deconv1_2"
  top: "deconv1_2"
  name: "debn1_2"
  type: BN
  bn_param {
    scale_filler {
      type: "constant"
      value: 1
    }
    shift_filler {
      type: "constant"
      value: 0.001
    }
  }
}
layers {
  bottom: "deconv1_2"
  top: "deconv1_2"
  name: "derelu1_2"
  type: RELU
}
layers {
  bottom: "deconv1_2"
  top: "seg-score"
  name: "seg-score-voc"
  type: CONVOLUTION
  blobs_lr: 1
  blobs_lr: 2
  weight_decay: 1
  weight_decay: 0
  convolution_param {
    num_output: 21
    kernel_size: 1
    weight_filler {
      type: "gaussian"
      std: 0.01
    }
    bias_filler {
      type: "constant"
      value: 0
    }
  }
}
layers {
  bottom: "seg-score"
  bottom: "seg-label"
  top: "seg-loss"
  name: "seg-loss"
  type: SOFTMAX_LOSS
  loss_param {
    ignore_label: 255
  }
}
state {
  phase: TRAIN
}
I0923 02:43:33.235509 20394 layer_factory.hpp:78] Creating layer data
I0923 02:43:33.236008 20394 net.cpp:69] Creating Layer data
I0923 02:43:33.236019 20394 net.cpp:358] data -> data
I0923 02:43:33.236034 20394 net.cpp:358] data -> seg-label
I0923 02:43:33.236044 20394 net.cpp:358] data -> (automatic)
I0923 02:43:33.236052 20394 net.cpp:98] Setting up data
I0923 02:43:33.236059 20394 image_seg_data_layer.cpp:51] Opening file ./stage_1_train_imgset/train_reduced_07.txt
I0923 02:43:33.304903 20394 image_seg_data_layer.cpp:68] Shuffling data
I0923 02:43:33.312259 20394 image_seg_data_layer.cpp:73] A total of 53412 images.
I0923 02:43:33.361135 20394 image_seg_data_layer.cpp:119] output data size: 8,3,224,224
I0923 02:43:33.361153 20394 image_seg_data_layer.cpp:123] output label size: 8,1,224,224
I0923 02:43:33.361160 20394 image_seg_data_layer.cpp:127] output data_dim size: 8,1,1,2
I0923 02:43:33.365430 20394 net.cpp:105] Top shape: 8 3 224 224 (1204224)
I0923 02:43:33.365455 20394 net.cpp:105] Top shape: 8 1 224 224 (401408)
I0923 02:43:33.365461 20394 net.cpp:105] Top shape: 8 1 1 2 (16)
I0923 02:43:33.365466 20394 layer_factory.hpp:78] Creating layer conv1_1
I0923 02:43:33.365476 20394 net.cpp:69] Creating Layer conv1_1
I0923 02:43:33.365483 20394 net.cpp:396] conv1_1 <- data
I0923 02:43:33.365492 20394 net.cpp:358] conv1_1 -> conv1_1
I0923 02:43:33.365501 20394 net.cpp:98] Setting up conv1_1
I0923 02:43:33.365767 20394 net.cpp:105] Top shape: 8 64 224 224 (25690112)
I0923 02:43:33.365787 20394 layer_factory.hpp:78] Creating layer bn1_1
I0923 02:43:33.366015 20394 net.cpp:69] Creating Layer bn1_1
I0923 02:43:33.366025 20394 net.cpp:396] bn1_1 <- conv1_1
I0923 02:43:33.366034 20394 net.cpp:347] bn1_1 -> conv1_1 (in-place)
I0923 02:43:33.366040 20394 net.cpp:98] Setting up bn1_1
I0923 02:43:33.366106 20394 net.cpp:105] Top shape: 8 64 224 224 (25690112)
I0923 02:43:33.366117 20394 layer_factory.hpp:78] Creating layer relu1_1
I0923 02:43:33.366125 20394 net.cpp:69] Creating Layer relu1_1
I0923 02:43:33.366130 20394 net.cpp:396] relu1_1 <- conv1_1
I0923 02:43:33.366135 20394 net.cpp:347] relu1_1 -> conv1_1 (in-place)
I0923 02:43:33.366142 20394 net.cpp:98] Setting up relu1_1
I0923 02:43:33.366153 20394 net.cpp:105] Top shape: 8 64 224 224 (25690112)
I0923 02:43:33.366158 20394 layer_factory.hpp:78] Creating layer conv1_2
I0923 02:43:33.366163 20394 net.cpp:69] Creating Layer conv1_2
I0923 02:43:33.366168 20394 net.cpp:396] conv1_2 <- conv1_1
I0923 02:43:33.366174 20394 net.cpp:358] conv1_2 -> conv1_2
I0923 02:43:33.366183 20394 net.cpp:98] Setting up conv1_2
I0923 02:43:33.366240 20394 net.cpp:105] Top shape: 8 64 224 224 (25690112)
I0923 02:43:33.366250 20394 layer_factory.hpp:78] Creating layer bn1_2
I0923 02:43:33.366256 20394 net.cpp:69] Creating Layer bn1_2
I0923 02:43:33.366261 20394 net.cpp:396] bn1_2 <- conv1_2
I0923 02:43:33.366267 20394 net.cpp:347] bn1_2 -> conv1_2 (in-place)
I0923 02:43:33.366274 20394 net.cpp:98] Setting up bn1_2
I0923 02:43:33.366335 20394 net.cpp:105] Top shape: 8 64 224 224 (25690112)
I0923 02:43:33.366343 20394 layer_factory.hpp:78] Creating layer relu1_2
I0923 02:43:33.366350 20394 net.cpp:69] Creating Layer relu1_2
I0923 02:43:33.366355 20394 net.cpp:396] relu1_2 <- conv1_2
I0923 02:43:33.366361 20394 net.cpp:347] relu1_2 -> conv1_2 (in-place)
I0923 02:43:33.366367 20394 net.cpp:98] Setting up relu1_2
I0923 02:43:33.366372 20394 net.cpp:105] Top shape: 8 64 224 224 (25690112)
I0923 02:43:33.366379 20394 layer_factory.hpp:78] Creating layer pool1
I0923 02:43:33.366384 20394 net.cpp:69] Creating Layer pool1
I0923 02:43:33.366389 20394 net.cpp:396] pool1 <- conv1_2
I0923 02:43:33.366394 20394 net.cpp:358] pool1 -> pool1
I0923 02:43:33.366401 20394 net.cpp:98] Setting up pool1
I0923 02:43:33.366412 20394 net.cpp:105] Top shape: 8 64 112 112 (6422528)
I0923 02:43:33.366432 20394 layer_factory.hpp:78] Creating layer conv2_1
I0923 02:43:33.366439 20394 net.cpp:69] Creating Layer conv2_1
I0923 02:43:33.366446 20394 net.cpp:396] conv2_1 <- pool1
I0923 02:43:33.366451 20394 net.cpp:358] conv2_1 -> conv2_1
I0923 02:43:33.366458 20394 net.cpp:98] Setting up conv2_1
I0923 02:43:33.366533 20394 net.cpp:105] Top shape: 8 128 112 112 (12845056)
I0923 02:43:33.366542 20394 layer_factory.hpp:78] Creating layer bn2_1
I0923 02:43:33.366550 20394 net.cpp:69] Creating Layer bn2_1
I0923 02:43:33.366555 20394 net.cpp:396] bn2_1 <- conv2_1
I0923 02:43:33.366562 20394 net.cpp:347] bn2_1 -> conv2_1 (in-place)
I0923 02:43:33.366569 20394 net.cpp:98] Setting up bn2_1
I0923 02:43:33.366605 20394 net.cpp:105] Top shape: 8 128 112 112 (12845056)
I0923 02:43:33.366611 20394 layer_factory.hpp:78] Creating layer relu2_1
I0923 02:43:33.366617 20394 net.cpp:69] Creating Layer relu2_1
I0923 02:43:33.366623 20394 net.cpp:396] relu2_1 <- conv2_1
I0923 02:43:33.366629 20394 net.cpp:347] relu2_1 -> conv2_1 (in-place)
I0923 02:43:33.366636 20394 net.cpp:98] Setting up relu2_1
I0923 02:43:33.366641 20394 net.cpp:105] Top shape: 8 128 112 112 (12845056)
I0923 02:43:33.366647 20394 layer_factory.hpp:78] Creating layer conv2_2
I0923 02:43:33.366652 20394 net.cpp:69] Creating Layer conv2_2
I0923 02:43:33.366657 20394 net.cpp:396] conv2_2 <- conv2_1
I0923 02:43:33.366664 20394 net.cpp:358] conv2_2 -> conv2_2
I0923 02:43:33.366672 20394 net.cpp:98] Setting up conv2_2
I0923 02:43:33.366849 20394 net.cpp:105] Top shape: 8 128 112 112 (12845056)
I0923 02:43:33.366858 20394 layer_factory.hpp:78] Creating layer bn2_2
I0923 02:43:33.366865 20394 net.cpp:69] Creating Layer bn2_2
I0923 02:43:33.366869 20394 net.cpp:396] bn2_2 <- conv2_2
I0923 02:43:33.366876 20394 net.cpp:347] bn2_2 -> conv2_2 (in-place)
I0923 02:43:33.366883 20394 net.cpp:98] Setting up bn2_2
I0923 02:43:33.366917 20394 net.cpp:105] Top shape: 8 128 112 112 (12845056)
I0923 02:43:33.366925 20394 layer_factory.hpp:78] Creating layer relu2_2
I0923 02:43:33.366931 20394 net.cpp:69] Creating Layer relu2_2
I0923 02:43:33.366936 20394 net.cpp:396] relu2_2 <- conv2_2
I0923 02:43:33.366942 20394 net.cpp:347] relu2_2 -> conv2_2 (in-place)
I0923 02:43:33.366948 20394 net.cpp:98] Setting up relu2_2
I0923 02:43:33.366953 20394 net.cpp:105] Top shape: 8 128 112 112 (12845056)
I0923 02:43:33.366960 20394 layer_factory.hpp:78] Creating layer pool2
I0923 02:43:33.366964 20394 net.cpp:69] Creating Layer pool2
I0923 02:43:33.366969 20394 net.cpp:396] pool2 <- conv2_2
I0923 02:43:33.366976 20394 net.cpp:358] pool2 -> pool2
I0923 02:43:33.366982 20394 net.cpp:98] Setting up pool2
I0923 02:43:33.366989 20394 net.cpp:105] Top shape: 8 128 56 56 (3211264)
I0923 02:43:33.366993 20394 layer_factory.hpp:78] Creating layer conv3_1
I0923 02:43:33.366999 20394 net.cpp:69] Creating Layer conv3_1
I0923 02:43:33.367004 20394 net.cpp:396] conv3_1 <- pool2
I0923 02:43:33.367009 20394 net.cpp:358] conv3_1 -> conv3_1
I0923 02:43:33.367017 20394 net.cpp:98] Setting up conv3_1
I0923 02:43:33.367338 20394 net.cpp:105] Top shape: 8 256 56 56 (6422528)
I0923 02:43:33.367349 20394 layer_factory.hpp:78] Creating layer bn3_1
I0923 02:43:33.367357 20394 net.cpp:69] Creating Layer bn3_1
I0923 02:43:33.367362 20394 net.cpp:396] bn3_1 <- conv3_1
I0923 02:43:33.367368 20394 net.cpp:347] bn3_1 -> conv3_1 (in-place)
I0923 02:43:33.367375 20394 net.cpp:98] Setting up bn3_1
I0923 02:43:33.367393 20394 net.cpp:105] Top shape: 8 256 56 56 (6422528)
I0923 02:43:33.367399 20394 layer_factory.hpp:78] Creating layer relu3_1
I0923 02:43:33.367404 20394 net.cpp:69] Creating Layer relu3_1
I0923 02:43:33.367413 20394 net.cpp:396] relu3_1 <- conv3_1
I0923 02:43:33.367420 20394 net.cpp:347] relu3_1 -> conv3_1 (in-place)
I0923 02:43:33.367429 20394 net.cpp:98] Setting up relu3_1
I0923 02:43:33.367435 20394 net.cpp:105] Top shape: 8 256 56 56 (6422528)
I0923 02:43:33.367440 20394 layer_factory.hpp:78] Creating layer conv3_2
I0923 02:43:33.367450 20394 net.cpp:69] Creating Layer conv3_2
I0923 02:43:33.367462 20394 net.cpp:396] conv3_2 <- conv3_1
I0923 02:43:33.367475 20394 net.cpp:358] conv3_2 -> conv3_2
I0923 02:43:33.367487 20394 net.cpp:98] Setting up conv3_2
I0923 02:43:33.368098 20394 net.cpp:105] Top shape: 8 256 56 56 (6422528)
I0923 02:43:33.368108 20394 layer_factory.hpp:78] Creating layer bn3_2
I0923 02:43:33.368119 20394 net.cpp:69] Creating Layer bn3_2
I0923 02:43:33.368124 20394 net.cpp:396] bn3_2 <- conv3_2
I0923 02:43:33.368131 20394 net.cpp:347] bn3_2 -> conv3_2 (in-place)
I0923 02:43:33.368139 20394 net.cpp:98] Setting up bn3_2
I0923 02:43:33.368151 20394 net.cpp:105] Top shape: 8 256 56 56 (6422528)
I0923 02:43:33.368158 20394 layer_factory.hpp:78] Creating layer relu3_2
I0923 02:43:33.368165 20394 net.cpp:69] Creating Layer relu3_2
I0923 02:43:33.368170 20394 net.cpp:396] relu3_2 <- conv3_2
I0923 02:43:33.368175 20394 net.cpp:347] relu3_2 -> conv3_2 (in-place)
I0923 02:43:33.368181 20394 net.cpp:98] Setting up relu3_2
I0923 02:43:33.368186 20394 net.cpp:105] Top shape: 8 256 56 56 (6422528)
I0923 02:43:33.368192 20394 layer_factory.hpp:78] Creating layer conv3_3
I0923 02:43:33.368198 20394 net.cpp:69] Creating Layer conv3_3
I0923 02:43:33.368203 20394 net.cpp:396] conv3_3 <- conv3_2
I0923 02:43:33.368209 20394 net.cpp:358] conv3_3 -> conv3_3
I0923 02:43:33.368216 20394 net.cpp:98] Setting up conv3_3
I0923 02:43:33.368854 20394 net.cpp:105] Top shape: 8 256 56 56 (6422528)
I0923 02:43:33.368865 20394 layer_factory.hpp:78] Creating layer bn3_3
I0923 02:43:33.368872 20394 net.cpp:69] Creating Layer bn3_3
I0923 02:43:33.368878 20394 net.cpp:396] bn3_3 <- conv3_3
I0923 02:43:33.368883 20394 net.cpp:347] bn3_3 -> conv3_3 (in-place)
I0923 02:43:33.368890 20394 net.cpp:98] Setting up bn3_3
I0923 02:43:33.368903 20394 net.cpp:105] Top shape: 8 256 56 56 (6422528)
I0923 02:43:33.368911 20394 layer_factory.hpp:78] Creating layer relu3_3
I0923 02:43:33.368916 20394 net.cpp:69] Creating Layer relu3_3
I0923 02:43:33.368921 20394 net.cpp:396] relu3_3 <- conv3_3
I0923 02:43:33.368927 20394 net.cpp:347] relu3_3 -> conv3_3 (in-place)
I0923 02:43:33.368932 20394 net.cpp:98] Setting up relu3_3
I0923 02:43:33.368937 20394 net.cpp:105] Top shape: 8 256 56 56 (6422528)
I0923 02:43:33.368943 20394 layer_factory.hpp:78] Creating layer pool3
I0923 02:43:33.368948 20394 net.cpp:69] Creating Layer pool3
I0923 02:43:33.368953 20394 net.cpp:396] pool3 <- conv3_3
I0923 02:43:33.368959 20394 net.cpp:358] pool3 -> pool3
I0923 02:43:33.368965 20394 net.cpp:98] Setting up pool3
I0923 02:43:33.368971 20394 net.cpp:105] Top shape: 8 256 28 28 (1605632)
I0923 02:43:33.368976 20394 layer_factory.hpp:78] Creating layer conv4_1
I0923 02:43:33.368983 20394 net.cpp:69] Creating Layer conv4_1
I0923 02:43:33.368988 20394 net.cpp:396] conv4_1 <- pool3
I0923 02:43:33.368994 20394 net.cpp:358] conv4_1 -> conv4_1
I0923 02:43:33.369001 20394 net.cpp:98] Setting up conv4_1
I0923 02:43:33.389284 20394 net.cpp:105] Top shape: 8 512 28 28 (3211264)
I0923 02:43:33.389312 20394 layer_factory.hpp:78] Creating layer bn4_1
I0923 02:43:33.389322 20394 net.cpp:69] Creating Layer bn4_1
I0923 02:43:33.389327 20394 net.cpp:396] bn4_1 <- conv4_1
I0923 02:43:33.389334 20394 net.cpp:347] bn4_1 -> conv4_1 (in-place)
I0923 02:43:33.389343 20394 net.cpp:98] Setting up bn4_1
I0923 02:43:33.389354 20394 net.cpp:105] Top shape: 8 512 28 28 (3211264)
I0923 02:43:33.389361 20394 layer_factory.hpp:78] Creating layer relu4_1
I0923 02:43:33.389369 20394 net.cpp:69] Creating Layer relu4_1
I0923 02:43:33.389374 20394 net.cpp:396] relu4_1 <- conv4_1
I0923 02:43:33.389379 20394 net.cpp:347] relu4_1 -> conv4_1 (in-place)
I0923 02:43:33.389385 20394 net.cpp:98] Setting up relu4_1
I0923 02:43:33.389391 20394 net.cpp:105] Top shape: 8 512 28 28 (3211264)
I0923 02:43:33.389395 20394 layer_factory.hpp:78] Creating layer conv4_2
I0923 02:43:33.389402 20394 net.cpp:69] Creating Layer conv4_2
I0923 02:43:33.389407 20394 net.cpp:396] conv4_2 <- conv4_1
I0923 02:43:33.389413 20394 net.cpp:358] conv4_2 -> conv4_2
I0923 02:43:33.389420 20394 net.cpp:98] Setting up conv4_2
I0923 02:43:33.398120 20394 net.cpp:105] Top shape: 8 512 28 28 (3211264)
I0923 02:43:33.398592 20394 layer_factory.hpp:78] Creating layer bn4_2
I0923 02:43:33.398607 20394 net.cpp:69] Creating Layer bn4_2
I0923 02:43:33.398613 20394 net.cpp:396] bn4_2 <- conv4_2
I0923 02:43:33.398620 20394 net.cpp:347] bn4_2 -> conv4_2 (in-place)
I0923 02:43:33.398629 20394 net.cpp:98] Setting up bn4_2
I0923 02:43:33.398643 20394 net.cpp:105] Top shape: 8 512 28 28 (3211264)
I0923 02:43:33.398649 20394 layer_factory.hpp:78] Creating layer relu4_2
I0923 02:43:33.398656 20394 net.cpp:69] Creating Layer relu4_2
I0923 02:43:33.398661 20394 net.cpp:396] relu4_2 <- conv4_2
I0923 02:43:33.398668 20394 net.cpp:347] relu4_2 -> conv4_2 (in-place)
I0923 02:43:33.398674 20394 net.cpp:98] Setting up relu4_2
I0923 02:43:33.398679 20394 net.cpp:105] Top shape: 8 512 28 28 (3211264)
I0923 02:43:33.398684 20394 layer_factory.hpp:78] Creating layer conv4_3
I0923 02:43:33.398690 20394 net.cpp:69] Creating Layer conv4_3
I0923 02:43:33.398695 20394 net.cpp:396] conv4_3 <- conv4_2
I0923 02:43:33.398701 20394 net.cpp:358] conv4_3 -> conv4_3
I0923 02:43:33.398710 20394 net.cpp:98] Setting up conv4_3
I0923 02:43:33.407263 20394 net.cpp:105] Top shape: 8 512 28 28 (3211264)
I0923 02:43:33.407301 20394 layer_factory.hpp:78] Creating layer bn4_3
I0923 02:43:33.407325 20394 net.cpp:69] Creating Layer bn4_3
I0923 02:43:33.407337 20394 net.cpp:396] bn4_3 <- conv4_3
I0923 02:43:33.407353 20394 net.cpp:347] bn4_3 -> conv4_3 (in-place)
I0923 02:43:33.407371 20394 net.cpp:98] Setting up bn4_3
I0923 02:43:33.407392 20394 net.cpp:105] Top shape: 8 512 28 28 (3211264)
I0923 02:43:33.407402 20394 layer_factory.hpp:78] Creating layer relu4_3
I0923 02:43:33.407409 20394 net.cpp:69] Creating Layer relu4_3
I0923 02:43:33.407415 20394 net.cpp:396] relu4_3 <- conv4_3
I0923 02:43:33.407423 20394 net.cpp:347] relu4_3 -> conv4_3 (in-place)
I0923 02:43:33.407429 20394 net.cpp:98] Setting up relu4_3
I0923 02:43:33.407434 20394 net.cpp:105] Top shape: 8 512 28 28 (3211264)
I0923 02:43:33.407439 20394 layer_factory.hpp:78] Creating layer pool4
I0923 02:43:33.407446 20394 net.cpp:69] Creating Layer pool4
I0923 02:43:33.407451 20394 net.cpp:396] pool4 <- conv4_3
I0923 02:43:33.407456 20394 net.cpp:358] pool4 -> pool4
I0923 02:43:33.407465 20394 net.cpp:98] Setting up pool4
I0923 02:43:33.407474 20394 net.cpp:105] Top shape: 8 512 14 14 (802816)
I0923 02:43:33.407479 20394 layer_factory.hpp:78] Creating layer conv5_1
I0923 02:43:33.407485 20394 net.cpp:69] Creating Layer conv5_1
I0923 02:43:33.407491 20394 net.cpp:396] conv5_1 <- pool4
I0923 02:43:33.407497 20394 net.cpp:358] conv5_1 -> conv5_1
I0923 02:43:33.407503 20394 net.cpp:98] Setting up conv5_1
I0923 02:43:33.418963 20394 net.cpp:105] Top shape: 8 512 14 14 (802816)
I0923 02:43:33.418997 20394 layer_factory.hpp:78] Creating layer bn5_1
I0923 02:43:33.419008 20394 net.cpp:69] Creating Layer bn5_1
I0923 02:43:33.419014 20394 net.cpp:396] bn5_1 <- conv5_1
I0923 02:43:33.419023 20394 net.cpp:347] bn5_1 -> conv5_1 (in-place)
I0923 02:43:33.419031 20394 net.cpp:98] Setting up bn5_1
I0923 02:43:33.419045 20394 net.cpp:105] Top shape: 8 512 14 14 (802816)
I0923 02:43:33.419052 20394 layer_factory.hpp:78] Creating layer relu5_1
I0923 02:43:33.419059 20394 net.cpp:69] Creating Layer relu5_1
I0923 02:43:33.419064 20394 net.cpp:396] relu5_1 <- conv5_1
I0923 02:43:33.419071 20394 net.cpp:347] relu5_1 -> conv5_1 (in-place)
I0923 02:43:33.419078 20394 net.cpp:98] Setting up relu5_1
I0923 02:43:33.419083 20394 net.cpp:105] Top shape: 8 512 14 14 (802816)
I0923 02:43:33.419088 20394 layer_factory.hpp:78] Creating layer conv5_2
I0923 02:43:33.419095 20394 net.cpp:69] Creating Layer conv5_2
I0923 02:43:33.419100 20394 net.cpp:396] conv5_2 <- conv5_1
I0923 02:43:33.419107 20394 net.cpp:358] conv5_2 -> conv5_2
I0923 02:43:33.419114 20394 net.cpp:98] Setting up conv5_2
I0923 02:43:33.430433 20394 net.cpp:105] Top shape: 8 512 14 14 (802816)
I0923 02:43:33.430460 20394 layer_factory.hpp:78] Creating layer bn5_2
I0923 02:43:33.430472 20394 net.cpp:69] Creating Layer bn5_2
I0923 02:43:33.430491 20394 net.cpp:396] bn5_2 <- conv5_2
I0923 02:43:33.430500 20394 net.cpp:347] bn5_2 -> conv5_2 (in-place)
I0923 02:43:33.430510 20394 net.cpp:98] Setting up bn5_2
I0923 02:43:33.430521 20394 net.cpp:105] Top shape: 8 512 14 14 (802816)
I0923 02:43:33.430527 20394 layer_factory.hpp:78] Creating layer relu5_2
I0923 02:43:33.430536 20394 net.cpp:69] Creating Layer relu5_2
I0923 02:43:33.430541 20394 net.cpp:396] relu5_2 <- conv5_2
I0923 02:43:33.430547 20394 net.cpp:347] relu5_2 -> conv5_2 (in-place)
I0923 02:43:33.430553 20394 net.cpp:98] Setting up relu5_2
I0923 02:43:33.430558 20394 net.cpp:105] Top shape: 8 512 14 14 (802816)
I0923 02:43:33.430563 20394 layer_factory.hpp:78] Creating layer conv5_3
I0923 02:43:33.430570 20394 net.cpp:69] Creating Layer conv5_3
I0923 02:43:33.430577 20394 net.cpp:396] conv5_3 <- conv5_2
I0923 02:43:33.430583 20394 net.cpp:358] conv5_3 -> conv5_3
I0923 02:43:33.430589 20394 net.cpp:98] Setting up conv5_3
I0923 02:43:33.440301 20394 net.cpp:105] Top shape: 8 512 14 14 (802816)
I0923 02:43:33.440796 20394 layer_factory.hpp:78] Creating layer bn5_3
I0923 02:43:33.440815 20394 net.cpp:69] Creating Layer bn5_3
I0923 02:43:33.440821 20394 net.cpp:396] bn5_3 <- conv5_3
I0923 02:43:33.440835 20394 net.cpp:347] bn5_3 -> conv5_3 (in-place)
I0923 02:43:33.440845 20394 net.cpp:98] Setting up bn5_3
I0923 02:43:33.440857 20394 net.cpp:105] Top shape: 8 512 14 14 (802816)
I0923 02:43:33.440865 20394 layer_factory.hpp:78] Creating layer relu5_3
I0923 02:43:33.440870 20394 net.cpp:69] Creating Layer relu5_3
I0923 02:43:33.440875 20394 net.cpp:396] relu5_3 <- conv5_3
I0923 02:43:33.440879 20394 net.cpp:347] relu5_3 -> conv5_3 (in-place)
I0923 02:43:33.440886 20394 net.cpp:98] Setting up relu5_3
I0923 02:43:33.440891 20394 net.cpp:105] Top shape: 8 512 14 14 (802816)
I0923 02:43:33.440896 20394 layer_factory.hpp:78] Creating layer pool5
I0923 02:43:33.440901 20394 net.cpp:69] Creating Layer pool5
I0923 02:43:33.440907 20394 net.cpp:396] pool5 <- conv5_3
I0923 02:43:33.440913 20394 net.cpp:358] pool5 -> pool5
I0923 02:43:33.440922 20394 net.cpp:98] Setting up pool5
I0923 02:43:33.440927 20394 net.cpp:105] Top shape: 8 512 7 7 (200704)
I0923 02:43:33.440933 20394 layer_factory.hpp:78] Creating layer fc6
I0923 02:43:33.440939 20394 net.cpp:69] Creating Layer fc6
I0923 02:43:33.440943 20394 net.cpp:396] fc6 <- pool5
I0923 02:43:33.440949 20394 net.cpp:358] fc6 -> fc6
I0923 02:43:33.440956 20394 net.cpp:98] Setting up fc6
I0923 02:43:33.756026 20394 net.cpp:105] Top shape: 8 4096 1 1 (32768)
I0923 02:43:33.756059 20394 layer_factory.hpp:78] Creating layer bnfc6
I0923 02:43:33.756072 20394 net.cpp:69] Creating Layer bnfc6
I0923 02:43:33.756079 20394 net.cpp:396] bnfc6 <- fc6
I0923 02:43:33.756088 20394 net.cpp:347] bnfc6 -> fc6 (in-place)
I0923 02:43:33.756098 20394 net.cpp:98] Setting up bnfc6
I0923 02:43:33.756115 20394 net.cpp:105] Top shape: 8 4096 1 1 (32768)
I0923 02:43:33.756124 20394 layer_factory.hpp:78] Creating layer relu6
I0923 02:43:33.756131 20394 net.cpp:69] Creating Layer relu6
I0923 02:43:33.756137 20394 net.cpp:396] relu6 <- fc6
I0923 02:43:33.756145 20394 net.cpp:347] relu6 -> fc6 (in-place)
I0923 02:43:33.756151 20394 net.cpp:98] Setting up relu6
I0923 02:43:33.756156 20394 net.cpp:105] Top shape: 8 4096 1 1 (32768)
I0923 02:43:33.756161 20394 layer_factory.hpp:78] Creating layer fc7
I0923 02:43:33.756170 20394 net.cpp:69] Creating Layer fc7
I0923 02:43:33.756175 20394 net.cpp:396] fc7 <- fc6
I0923 02:43:33.756181 20394 net.cpp:358] fc7 -> fc7
I0923 02:43:33.756189 20394 net.cpp:98] Setting up fc7
I0923 02:43:33.807804 20394 net.cpp:105] Top shape: 8 4096 1 1 (32768)
I0923 02:43:33.807835 20394 layer_factory.hpp:78] Creating layer bnfc7
I0923 02:43:33.807847 20394 net.cpp:69] Creating Layer bnfc7
I0923 02:43:33.807853 20394 net.cpp:396] bnfc7 <- fc7
I0923 02:43:33.807862 20394 net.cpp:347] bnfc7 -> fc7 (in-place)
I0923 02:43:33.807870 20394 net.cpp:98] Setting up bnfc7
I0923 02:43:33.807888 20394 net.cpp:105] Top shape: 8 4096 1 1 (32768)
I0923 02:43:33.807896 20394 layer_factory.hpp:78] Creating layer relu7
I0923 02:43:33.807920 20394 net.cpp:69] Creating Layer relu7
I0923 02:43:33.807925 20394 net.cpp:396] relu7 <- fc7
I0923 02:43:33.807937 20394 net.cpp:347] relu7 -> fc7 (in-place)
I0923 02:43:33.807943 20394 net.cpp:98] Setting up relu7
I0923 02:43:33.807948 20394 net.cpp:105] Top shape: 8 4096 1 1 (32768)
I0923 02:43:33.807955 20394 layer_factory.hpp:78] Creating layer fc6-deconv
I0923 02:43:33.807967 20394 net.cpp:69] Creating Layer fc6-deconv
I0923 02:43:33.807971 20394 net.cpp:396] fc6-deconv <- fc7
I0923 02:43:33.807979 20394 net.cpp:358] fc6-deconv -> fc6-deconv
I0923 02:43:33.807986 20394 net.cpp:98] Setting up fc6-deconv
I0923 02:43:36.063634 20394 net.cpp:105] Top shape: 8 512 7 7 (200704)
I0923 02:43:36.063663 20394 layer_factory.hpp:78] Creating layer fc6-deconv-bn
I0923 02:43:36.063676 20394 net.cpp:69] Creating Layer fc6-deconv-bn
I0923 02:43:36.063684 20394 net.cpp:396] fc6-deconv-bn <- fc6-deconv
I0923 02:43:36.063694 20394 net.cpp:347] fc6-deconv-bn -> fc6-deconv (in-place)
I0923 02:43:36.063704 20394 net.cpp:98] Setting up fc6-deconv-bn
I0923 02:43:36.063716 20394 net.cpp:105] Top shape: 8 512 7 7 (200704)
I0923 02:43:36.063724 20394 layer_factory.hpp:78] Creating layer fc6-deconv-relu
I0923 02:43:36.063731 20394 net.cpp:69] Creating Layer fc6-deconv-relu
I0923 02:43:36.063736 20394 net.cpp:396] fc6-deconv-relu <- fc6-deconv
I0923 02:43:36.063741 20394 net.cpp:347] fc6-deconv-relu -> fc6-deconv (in-place)
I0923 02:43:36.063750 20394 net.cpp:98] Setting up fc6-deconv-relu
I0923 02:43:36.063755 20394 net.cpp:105] Top shape: 8 512 7 7 (200704)
I0923 02:43:36.063760 20394 layer_factory.hpp:78] Creating layer unpool5
I0923 02:43:36.063767 20394 net.cpp:69] Creating Layer unpool5
I0923 02:43:36.063772 20394 net.cpp:396] unpool5 <- fc6-deconv
I0923 02:43:36.063778 20394 net.cpp:358] unpool5 -> unpool5
I0923 02:43:36.063786 20394 net.cpp:98] Setting up unpool5
I0923 02:43:36.063791 20394 net.cpp:105] Top shape: 8 512 14 14 (802816)
I0923 02:43:36.063796 20394 layer_factory.hpp:78] Creating layer deconv5_1
I0923 02:43:36.063802 20394 net.cpp:69] Creating Layer deconv5_1
I0923 02:43:36.063807 20394 net.cpp:396] deconv5_1 <- unpool5
I0923 02:43:36.063814 20394 net.cpp:358] deconv5_1 -> deconv5_1
I0923 02:43:36.063822 20394 net.cpp:98] Setting up deconv5_1
I0923 02:43:36.115988 20394 net.cpp:105] Top shape: 8 512 14 14 (802816)
I0923 02:43:36.116016 20394 layer_factory.hpp:78] Creating layer debn5_1
I0923 02:43:36.116026 20394 net.cpp:69] Creating Layer debn5_1
I0923 02:43:36.116032 20394 net.cpp:396] debn5_1 <- deconv5_1
I0923 02:43:36.116039 20394 net.cpp:347] debn5_1 -> deconv5_1 (in-place)
I0923 02:43:36.116050 20394 net.cpp:98] Setting up debn5_1
I0923 02:43:36.116061 20394 net.cpp:105] Top shape: 8 512 14 14 (802816)
I0923 02:43:36.116067 20394 layer_factory.hpp:78] Creating layer derelu5_1
I0923 02:43:36.116075 20394 net.cpp:69] Creating Layer derelu5_1
I0923 02:43:36.116080 20394 net.cpp:396] derelu5_1 <- deconv5_1
I0923 02:43:36.116086 20394 net.cpp:347] derelu5_1 -> deconv5_1 (in-place)
I0923 02:43:36.116093 20394 net.cpp:98] Setting up derelu5_1
I0923 02:43:36.116098 20394 net.cpp:105] Top shape: 8 512 14 14 (802816)
I0923 02:43:36.116102 20394 layer_factory.hpp:78] Creating layer deconv5_2
I0923 02:43:36.116108 20394 net.cpp:69] Creating Layer deconv5_2
I0923 02:43:36.116113 20394 net.cpp:396] deconv5_2 <- deconv5_1
I0923 02:43:36.116125 20394 net.cpp:358] deconv5_2 -> deconv5_2
I0923 02:43:36.116133 20394 net.cpp:98] Setting up deconv5_2
I0923 02:43:36.166149 20394 net.cpp:105] Top shape: 8 512 14 14 (802816)
I0923 02:43:36.166172 20394 layer_factory.hpp:78] Creating layer debn5_2
I0923 02:43:36.166183 20394 net.cpp:69] Creating Layer debn5_2
I0923 02:43:36.166191 20394 net.cpp:396] debn5_2 <- deconv5_2
I0923 02:43:36.166198 20394 net.cpp:347] debn5_2 -> deconv5_2 (in-place)
I0923 02:43:36.166206 20394 net.cpp:98] Setting up debn5_2
I0923 02:43:36.166218 20394 net.cpp:105] Top shape: 8 512 14 14 (802816)
I0923 02:43:36.166225 20394 layer_factory.hpp:78] Creating layer derelu5_2
I0923 02:43:36.166241 20394 net.cpp:69] Creating Layer derelu5_2
I0923 02:43:36.166246 20394 net.cpp:396] derelu5_2 <- deconv5_2
I0923 02:43:36.166252 20394 net.cpp:347] derelu5_2 -> deconv5_2 (in-place)
I0923 02:43:36.166260 20394 net.cpp:98] Setting up derelu5_2
I0923 02:43:36.166265 20394 net.cpp:105] Top shape: 8 512 14 14 (802816)
I0923 02:43:36.166270 20394 layer_factory.hpp:78] Creating layer deconv5_3
I0923 02:43:36.166276 20394 net.cpp:69] Creating Layer deconv5_3
I0923 02:43:36.166281 20394 net.cpp:396] deconv5_3 <- deconv5_2
I0923 02:43:36.166290 20394 net.cpp:358] deconv5_3 -> deconv5_3
I0923 02:43:36.166298 20394 net.cpp:98] Setting up deconv5_3
I0923 02:43:36.217788 20394 net.cpp:105] Top shape: 8 512 14 14 (802816)
I0923 02:43:36.217811 20394 layer_factory.hpp:78] Creating layer debn5_3
I0923 02:43:36.217823 20394 net.cpp:69] Creating Layer debn5_3
I0923 02:43:36.217830 20394 net.cpp:396] debn5_3 <- deconv5_3
I0923 02:43:36.217839 20394 net.cpp:347] debn5_3 -> deconv5_3 (in-place)
I0923 02:43:36.217850 20394 net.cpp:98] Setting up debn5_3
I0923 02:43:36.217861 20394 net.cpp:105] Top shape: 8 512 14 14 (802816)
I0923 02:43:36.217867 20394 layer_factory.hpp:78] Creating layer derelu5_3
I0923 02:43:36.217875 20394 net.cpp:69] Creating Layer derelu5_3
I0923 02:43:36.217881 20394 net.cpp:396] derelu5_3 <- deconv5_3
I0923 02:43:36.217887 20394 net.cpp:347] derelu5_3 -> deconv5_3 (in-place)
I0923 02:43:36.217895 20394 net.cpp:98] Setting up derelu5_3
I0923 02:43:36.217900 20394 net.cpp:105] Top shape: 8 512 14 14 (802816)
I0923 02:43:36.217905 20394 layer_factory.hpp:78] Creating layer unpool4
I0923 02:43:36.217916 20394 net.cpp:69] Creating Layer unpool4
I0923 02:43:36.217921 20394 net.cpp:396] unpool4 <- deconv5_3
I0923 02:43:36.217926 20394 net.cpp:358] unpool4 -> unpool4
I0923 02:43:36.217933 20394 net.cpp:98] Setting up unpool4
I0923 02:43:36.217938 20394 net.cpp:105] Top shape: 8 512 28 28 (3211264)
I0923 02:43:36.217943 20394 layer_factory.hpp:78] Creating layer deconv4_1
I0923 02:43:36.217950 20394 net.cpp:69] Creating Layer deconv4_1
I0923 02:43:36.217954 20394 net.cpp:396] deconv4_1 <- unpool4
I0923 02:43:36.217960 20394 net.cpp:358] deconv4_1 -> deconv4_1
I0923 02:43:36.217967 20394 net.cpp:98] Setting up deconv4_1
I0923 02:43:36.267940 20394 net.cpp:105] Top shape: 8 512 28 28 (3211264)
I0923 02:43:36.267964 20394 layer_factory.hpp:78] Creating layer debn4_1
I0923 02:43:36.267974 20394 net.cpp:69] Creating Layer debn4_1
I0923 02:43:36.267982 20394 net.cpp:396] debn4_1 <- deconv4_1
I0923 02:43:36.267989 20394 net.cpp:347] debn4_1 -> deconv4_1 (in-place)
I0923 02:43:36.267997 20394 net.cpp:98] Setting up debn4_1
I0923 02:43:36.268010 20394 net.cpp:105] Top shape: 8 512 28 28 (3211264)
I0923 02:43:36.268018 20394 layer_factory.hpp:78] Creating layer derelu4_1
I0923 02:43:36.268025 20394 net.cpp:69] Creating Layer derelu4_1
I0923 02:43:36.268029 20394 net.cpp:396] derelu4_1 <- deconv4_1
I0923 02:43:36.268035 20394 net.cpp:347] derelu4_1 -> deconv4_1 (in-place)
I0923 02:43:36.268041 20394 net.cpp:98] Setting up derelu4_1
I0923 02:43:36.268046 20394 net.cpp:105] Top shape: 8 512 28 28 (3211264)
I0923 02:43:36.268050 20394 layer_factory.hpp:78] Creating layer deconv4_2
I0923 02:43:36.268061 20394 net.cpp:69] Creating Layer deconv4_2
I0923 02:43:36.268066 20394 net.cpp:396] deconv4_2 <- deconv4_1
I0923 02:43:36.268072 20394 net.cpp:358] deconv4_2 -> deconv4_2
I0923 02:43:36.268079 20394 net.cpp:98] Setting up deconv4_2
I0923 02:43:36.319475 20394 net.cpp:105] Top shape: 8 512 28 28 (3211264)
I0923 02:43:36.319496 20394 layer_factory.hpp:78] Creating layer debn4_2
I0923 02:43:36.319505 20394 net.cpp:69] Creating Layer debn4_2
I0923 02:43:36.319512 20394 net.cpp:396] debn4_2 <- deconv4_2
I0923 02:43:36.319519 20394 net.cpp:347] debn4_2 -> deconv4_2 (in-place)
I0923 02:43:36.319527 20394 net.cpp:98] Setting up debn4_2
I0923 02:43:36.319542 20394 net.cpp:105] Top shape: 8 512 28 28 (3211264)
I0923 02:43:36.319550 20394 layer_factory.hpp:78] Creating layer derelu4_2
I0923 02:43:36.319555 20394 net.cpp:69] Creating Layer derelu4_2
I0923 02:43:36.319568 20394 net.cpp:396] derelu4_2 <- deconv4_2
I0923 02:43:36.319576 20394 net.cpp:347] derelu4_2 -> deconv4_2 (in-place)
I0923 02:43:36.319581 20394 net.cpp:98] Setting up derelu4_2
I0923 02:43:36.319586 20394 net.cpp:105] Top shape: 8 512 28 28 (3211264)
I0923 02:43:36.319591 20394 layer_factory.hpp:78] Creating layer deconv4_3
I0923 02:43:36.319600 20394 net.cpp:69] Creating Layer deconv4_3
I0923 02:43:36.319605 20394 net.cpp:396] deconv4_3 <- deconv4_2
I0923 02:43:36.319612 20394 net.cpp:358] deconv4_3 -> deconv4_3
I0923 02:43:36.319618 20394 net.cpp:98] Setting up deconv4_3
I0923 02:43:36.344360 20394 net.cpp:105] Top shape: 8 256 28 28 (1605632)
I0923 02:43:36.344374 20394 layer_factory.hpp:78] Creating layer debn4_3
I0923 02:43:36.344382 20394 net.cpp:69] Creating Layer debn4_3
I0923 02:43:36.344386 20394 net.cpp:396] debn4_3 <- deconv4_3
I0923 02:43:36.344393 20394 net.cpp:347] debn4_3 -> deconv4_3 (in-place)
I0923 02:43:36.344400 20394 net.cpp:98] Setting up debn4_3
I0923 02:43:36.344413 20394 net.cpp:105] Top shape: 8 256 28 28 (1605632)
I0923 02:43:36.344419 20394 layer_factory.hpp:78] Creating layer derelu4_3
I0923 02:43:36.344424 20394 net.cpp:69] Creating Layer derelu4_3
I0923 02:43:36.344429 20394 net.cpp:396] derelu4_3 <- deconv4_3
I0923 02:43:36.344436 20394 net.cpp:347] derelu4_3 -> deconv4_3 (in-place)
I0923 02:43:36.344442 20394 net.cpp:98] Setting up derelu4_3
I0923 02:43:36.344447 20394 net.cpp:105] Top shape: 8 256 28 28 (1605632)
I0923 02:43:36.344452 20394 layer_factory.hpp:78] Creating layer unpool3
I0923 02:43:36.344460 20394 net.cpp:69] Creating Layer unpool3
I0923 02:43:36.344465 20394 net.cpp:396] unpool3 <- deconv4_3
I0923 02:43:36.344470 20394 net.cpp:358] unpool3 -> unpool3
I0923 02:43:36.344480 20394 net.cpp:98] Setting up unpool3
I0923 02:43:36.344486 20394 net.cpp:105] Top shape: 8 256 56 56 (6422528)
I0923 02:43:36.344491 20394 layer_factory.hpp:78] Creating layer deconv3_1
I0923 02:43:36.344496 20394 net.cpp:69] Creating Layer deconv3_1
I0923 02:43:36.344501 20394 net.cpp:396] deconv3_1 <- unpool3
I0923 02:43:36.344507 20394 net.cpp:358] deconv3_1 -> deconv3_1
I0923 02:43:36.344514 20394 net.cpp:98] Setting up deconv3_1
I0923 02:43:36.356189 20394 net.cpp:105] Top shape: 8 256 56 56 (6422528)
I0923 02:43:36.356201 20394 layer_factory.hpp:78] Creating layer debn3_1
I0923 02:43:36.356209 20394 net.cpp:69] Creating Layer debn3_1
I0923 02:43:36.356214 20394 net.cpp:396] debn3_1 <- deconv3_1
I0923 02:43:36.356220 20394 net.cpp:347] debn3_1 -> deconv3_1 (in-place)
I0923 02:43:36.356226 20394 net.cpp:98] Setting up debn3_1
I0923 02:43:36.356248 20394 net.cpp:105] Top shape: 8 256 56 56 (6422528)
I0923 02:43:36.356256 20394 layer_factory.hpp:78] Creating layer derelu3_1
I0923 02:43:36.356262 20394 net.cpp:69] Creating Layer derelu3_1
I0923 02:43:36.356266 20394 net.cpp:396] derelu3_1 <- deconv3_1
I0923 02:43:36.356272 20394 net.cpp:347] derelu3_1 -> deconv3_1 (in-place)
I0923 02:43:36.356278 20394 net.cpp:98] Setting up derelu3_1
I0923 02:43:36.356287 20394 net.cpp:105] Top shape: 8 256 56 56 (6422528)
I0923 02:43:36.356292 20394 layer_factory.hpp:78] Creating layer deconv3_2
I0923 02:43:36.356300 20394 net.cpp:69] Creating Layer deconv3_2
I0923 02:43:36.356305 20394 net.cpp:396] deconv3_2 <- deconv3_1
I0923 02:43:36.356312 20394 net.cpp:358] deconv3_2 -> deconv3_2
I0923 02:43:36.356319 20394 net.cpp:98] Setting up deconv3_2
I0923 02:43:36.368005 20394 net.cpp:105] Top shape: 8 256 56 56 (6422528)
I0923 02:43:36.368017 20394 layer_factory.hpp:78] Creating layer debn3_2
I0923 02:43:36.368026 20394 net.cpp:69] Creating Layer debn3_2
I0923 02:43:36.368031 20394 net.cpp:396] debn3_2 <- deconv3_2
I0923 02:43:36.368036 20394 net.cpp:347] debn3_2 -> deconv3_2 (in-place)
I0923 02:43:36.368042 20394 net.cpp:98] Setting up debn3_2
I0923 02:43:36.368059 20394 net.cpp:105] Top shape: 8 256 56 56 (6422528)
I0923 02:43:36.368067 20394 layer_factory.hpp:78] Creating layer derelu3_2
I0923 02:43:36.368072 20394 net.cpp:69] Creating Layer derelu3_2
I0923 02:43:36.368085 20394 net.cpp:396] derelu3_2 <- deconv3_2
I0923 02:43:36.368091 20394 net.cpp:347] derelu3_2 -> deconv3_2 (in-place)
I0923 02:43:36.368098 20394 net.cpp:98] Setting up derelu3_2
I0923 02:43:36.368106 20394 net.cpp:105] Top shape: 8 256 56 56 (6422528)
I0923 02:43:36.368113 20394 layer_factory.hpp:78] Creating layer deconv3_3
I0923 02:43:36.368119 20394 net.cpp:69] Creating Layer deconv3_3
I0923 02:43:36.368124 20394 net.cpp:396] deconv3_3 <- deconv3_2
I0923 02:43:36.368129 20394 net.cpp:358] deconv3_3 -> deconv3_3
I0923 02:43:36.368136 20394 net.cpp:98] Setting up deconv3_3
I0923 02:43:36.373980 20394 net.cpp:105] Top shape: 8 128 56 56 (3211264)
I0923 02:43:36.373989 20394 layer_factory.hpp:78] Creating layer debn3_3
I0923 02:43:36.373996 20394 net.cpp:69] Creating Layer debn3_3
I0923 02:43:36.374001 20394 net.cpp:396] debn3_3 <- deconv3_3
I0923 02:43:36.374006 20394 net.cpp:347] debn3_3 -> deconv3_3 (in-place)
I0923 02:43:36.374013 20394 net.cpp:98] Setting up debn3_3
I0923 02:43:36.374027 20394 net.cpp:105] Top shape: 8 128 56 56 (3211264)
I0923 02:43:36.374032 20394 layer_factory.hpp:78] Creating layer derelu3_3
I0923 02:43:36.374037 20394 net.cpp:69] Creating Layer derelu3_3
I0923 02:43:36.374042 20394 net.cpp:396] derelu3_3 <- deconv3_3
I0923 02:43:36.374047 20394 net.cpp:347] derelu3_3 -> deconv3_3 (in-place)
I0923 02:43:36.374053 20394 net.cpp:98] Setting up derelu3_3
I0923 02:43:36.374056 20394 net.cpp:105] Top shape: 8 128 56 56 (3211264)
I0923 02:43:36.374061 20394 layer_factory.hpp:78] Creating layer unpool2
I0923 02:43:36.374066 20394 net.cpp:69] Creating Layer unpool2
I0923 02:43:36.374074 20394 net.cpp:396] unpool2 <- deconv3_3
I0923 02:43:36.374080 20394 net.cpp:358] unpool2 -> unpool2
I0923 02:43:36.374089 20394 net.cpp:98] Setting up unpool2
I0923 02:43:36.374094 20394 net.cpp:105] Top shape: 8 128 112 112 (12845056)
I0923 02:43:36.374099 20394 layer_factory.hpp:78] Creating layer deconv2_1
I0923 02:43:36.374105 20394 net.cpp:69] Creating Layer deconv2_1
I0923 02:43:36.374109 20394 net.cpp:396] deconv2_1 <- unpool2
I0923 02:43:36.374116 20394 net.cpp:358] deconv2_1 -> deconv2_1
I0923 02:43:36.374124 20394 net.cpp:98] Setting up deconv2_1
I0923 02:43:36.377053 20394 net.cpp:105] Top shape: 8 128 112 112 (12845056)
I0923 02:43:36.377063 20394 layer_factory.hpp:78] Creating layer debn2_1
I0923 02:43:36.377069 20394 net.cpp:69] Creating Layer debn2_1
I0923 02:43:36.377074 20394 net.cpp:396] debn2_1 <- deconv2_1
I0923 02:43:36.377080 20394 net.cpp:347] debn2_1 -> deconv2_1 (in-place)
I0923 02:43:36.377086 20394 net.cpp:98] Setting up debn2_1
I0923 02:43:36.377116 20394 net.cpp:105] Top shape: 8 128 112 112 (12845056)
I0923 02:43:36.377125 20394 layer_factory.hpp:78] Creating layer derelu2_1
I0923 02:43:36.377130 20394 net.cpp:69] Creating Layer derelu2_1
I0923 02:43:36.377133 20394 net.cpp:396] derelu2_1 <- deconv2_1
I0923 02:43:36.377140 20394 net.cpp:347] derelu2_1 -> deconv2_1 (in-place)
I0923 02:43:36.377146 20394 net.cpp:98] Setting up derelu2_1
I0923 02:43:36.377153 20394 net.cpp:105] Top shape: 8 128 112 112 (12845056)
I0923 02:43:36.377161 20394 layer_factory.hpp:78] Creating layer deconv2_2
I0923 02:43:36.377166 20394 net.cpp:69] Creating Layer deconv2_2
I0923 02:43:36.377171 20394 net.cpp:396] deconv2_2 <- deconv2_1
I0923 02:43:36.377177 20394 net.cpp:358] deconv2_2 -> deconv2_2
I0923 02:43:36.377183 20394 net.cpp:98] Setting up deconv2_2
I0923 02:43:36.378659 20394 net.cpp:105] Top shape: 8 64 112 112 (6422528)
I0923 02:43:36.378667 20394 layer_factory.hpp:78] Creating layer debn2_2
I0923 02:43:36.378675 20394 net.cpp:69] Creating Layer debn2_2
I0923 02:43:36.378680 20394 net.cpp:396] debn2_2 <- deconv2_2
I0923 02:43:36.378687 20394 net.cpp:347] debn2_2 -> deconv2_2 (in-place)
I0923 02:43:36.378693 20394 net.cpp:98] Setting up debn2_2
I0923 02:43:36.378725 20394 net.cpp:105] Top shape: 8 64 112 112 (6422528)
I0923 02:43:36.378732 20394 layer_factory.hpp:78] Creating layer derelu2_2
I0923 02:43:36.378737 20394 net.cpp:69] Creating Layer derelu2_2
I0923 02:43:36.378742 20394 net.cpp:396] derelu2_2 <- deconv2_2
I0923 02:43:36.378756 20394 net.cpp:347] derelu2_2 -> deconv2_2 (in-place)
I0923 02:43:36.378763 20394 net.cpp:98] Setting up derelu2_2
I0923 02:43:36.378768 20394 net.cpp:105] Top shape: 8 64 112 112 (6422528)
I0923 02:43:36.378773 20394 layer_factory.hpp:78] Creating layer unpool1
I0923 02:43:36.378779 20394 net.cpp:69] Creating Layer unpool1
I0923 02:43:36.378784 20394 net.cpp:396] unpool1 <- deconv2_2
I0923 02:43:36.378789 20394 net.cpp:358] unpool1 -> unpool1
I0923 02:43:36.378796 20394 net.cpp:98] Setting up unpool1
I0923 02:43:36.378801 20394 net.cpp:105] Top shape: 8 64 224 224 (25690112)
I0923 02:43:36.378806 20394 layer_factory.hpp:78] Creating layer deconv1_1
I0923 02:43:36.378813 20394 net.cpp:69] Creating Layer deconv1_1
I0923 02:43:36.378818 20394 net.cpp:396] deconv1_1 <- unpool1
I0923 02:43:36.378824 20394 net.cpp:358] deconv1_1 -> deconv1_1
I0923 02:43:36.378831 20394 net.cpp:98] Setting up deconv1_1
I0923 02:43:36.379617 20394 net.cpp:105] Top shape: 8 64 224 224 (25690112)
I0923 02:43:36.379626 20394 layer_factory.hpp:78] Creating layer debn1_1
I0923 02:43:36.379632 20394 net.cpp:69] Creating Layer debn1_1
I0923 02:43:36.379638 20394 net.cpp:396] debn1_1 <- deconv1_1
I0923 02:43:36.379644 20394 net.cpp:347] debn1_1 -> deconv1_1 (in-place)
I0923 02:43:36.379650 20394 net.cpp:98] Setting up debn1_1
I0923 02:43:36.379748 20394 net.cpp:105] Top shape: 8 64 224 224 (25690112)
I0923 02:43:36.379757 20394 layer_factory.hpp:78] Creating layer derelu1_1
I0923 02:43:36.379762 20394 net.cpp:69] Creating Layer derelu1_1
I0923 02:43:36.379767 20394 net.cpp:396] derelu1_1 <- deconv1_1
I0923 02:43:36.379775 20394 net.cpp:347] derelu1_1 -> deconv1_1 (in-place)
I0923 02:43:36.379781 20394 net.cpp:98] Setting up derelu1_1
I0923 02:43:36.379786 20394 net.cpp:105] Top shape: 8 64 224 224 (25690112)
I0923 02:43:36.379791 20394 layer_factory.hpp:78] Creating layer deconv1_2
I0923 02:43:36.379797 20394 net.cpp:69] Creating Layer deconv1_2
I0923 02:43:36.379802 20394 net.cpp:396] deconv1_2 <- deconv1_1
I0923 02:43:36.379807 20394 net.cpp:358] deconv1_2 -> deconv1_2
I0923 02:43:36.379814 20394 net.cpp:98] Setting up deconv1_2
I0923 02:43:36.380601 20394 net.cpp:105] Top shape: 8 64 224 224 (25690112)
I0923 02:43:36.380610 20394 layer_factory.hpp:78] Creating layer debn1_2
I0923 02:43:36.380617 20394 net.cpp:69] Creating Layer debn1_2
I0923 02:43:36.380622 20394 net.cpp:396] debn1_2 <- deconv1_2
I0923 02:43:36.380628 20394 net.cpp:347] debn1_2 -> deconv1_2 (in-place)
I0923 02:43:36.380635 20394 net.cpp:98] Setting up debn1_2
I0923 02:43:36.380735 20394 net.cpp:105] Top shape: 8 64 224 224 (25690112)
I0923 02:43:36.380743 20394 layer_factory.hpp:78] Creating layer derelu1_2
I0923 02:43:36.380750 20394 net.cpp:69] Creating Layer derelu1_2
I0923 02:43:36.380755 20394 net.cpp:396] derelu1_2 <- deconv1_2
I0923 02:43:36.380761 20394 net.cpp:347] derelu1_2 -> deconv1_2 (in-place)
I0923 02:43:36.380767 20394 net.cpp:98] Setting up derelu1_2
I0923 02:43:36.380772 20394 net.cpp:105] Top shape: 8 64 224 224 (25690112)
I0923 02:43:36.380777 20394 layer_factory.hpp:78] Creating layer seg-score-voc
I0923 02:43:36.380784 20394 net.cpp:69] Creating Layer seg-score-voc
I0923 02:43:36.380789 20394 net.cpp:396] seg-score-voc <- deconv1_2
I0923 02:43:36.380796 20394 net.cpp:358] seg-score-voc -> seg-score
I0923 02:43:36.380803 20394 net.cpp:98] Setting up seg-score-voc
I0923 02:43:36.380887 20394 net.cpp:105] Top shape: 8 21 224 224 (8429568)
I0923 02:43:36.380894 20394 layer_factory.hpp:78] Creating layer seg-loss
I0923 02:43:36.381191 20394 net.cpp:69] Creating Layer seg-loss
I0923 02:43:36.381201 20394 net.cpp:396] seg-loss <- seg-score
I0923 02:43:36.381207 20394 net.cpp:396] seg-loss <- seg-label
I0923 02:43:36.381214 20394 net.cpp:358] seg-loss -> seg-loss
I0923 02:43:36.381222 20394 net.cpp:98] Setting up seg-loss
I0923 02:43:36.381229 20394 net.cpp:105] Top shape: 1 1 1 1 (1)
I0923 02:43:36.381234 20394 net.cpp:111]     with loss weight 1
I0923 02:43:36.381253 20394 net.cpp:172] seg-loss needs backward computation.
I0923 02:43:36.381265 20394 net.cpp:172] seg-score-voc needs backward computation.
I0923 02:43:36.381270 20394 net.cpp:172] derelu1_2 needs backward computation.
I0923 02:43:36.381283 20394 net.cpp:172] debn1_2 needs backward computation.
I0923 02:43:36.381288 20394 net.cpp:172] deconv1_2 needs backward computation.
…
I0923 02:43:36.383363 20394 net.cpp:277] The NetState phase (1) differed from the phase (0) specified by a rule in layer data
I0923 02:43:36.383731 20394 net.cpp:39] Initializing net from parameters: 
name: "stage_1_training"
layers {
  top: "data"
  top: "seg-label"
  name: "data"
  type: IMAGE_SEG_DATA
  image_data_param {
    source: "./stage_1_train_imgset/val_reduced_07.txt"
    batch_size: 8
    shuffle: true
    new_height: 250
    new_width: 250
    root_folder: "./VOC2012"
    label_type: PIXEL
  }
  include {
    phase: TEST
  }
  transform_param {
    mirror: true
    crop_size: 224
    mean_value: 104.008
    mean_value: 116.669
    mean_value: 122.675
  }
}
layers {
  bottom: "data"
  top: "conv1_1"
  name: "conv1_1"
  type: CONVOLUTION
  blobs_lr: 1
  blobs_lr: 2
  weight_decay: 1
  weight_decay: 0
  convolution_param {
    num_output: 64
    pad: 1
    kernel_size: 3
  }
}
layers {
  bottom: "conv1_1"
  top: "conv1_1"
  name: "bn1_1"
  type: BN
  bn_param {
    scale_filler {
      type: "constant"
      value: 1
    }
    shift_filler {
      type: "constant"
      value: 0.001
    }
  }
}
layers {
  bottom: "conv1_1"
  top: "conv1_1"
  name: "relu1_1"
  type: RELU
}
layers {
  bottom: "conv1_1"
  top: "conv1_2"
  name: "conv1_2"
  type: CONVOLUTION
  blobs_lr: 1
  blobs_lr: 2
  weight_decay: 1
  weight_decay: 0
  convolution_param {
    num_output: 64
    pad: 1
    kernel_size: 3
  }
}
layers {
  bottom: "conv1_2"
  top: "conv1_2"
  name: "bn1_2"
  type: BN
  bn_param {
    scale_filler {
      type: "constant"
      value: 1
    }
    shift_filler {
      type: "constant"
      value: 0.001
    }
  }
}
layers {
  bottom: "conv1_2"
  top: "conv1_2"
  name: "relu1_2"
  type: RELU
}
layers {
  bottom: "conv1_2"
  top: "pool1"
  name: "pool1"
  type: POOLING
  pooling_param {
    pool: MAX
    kernel_size: 2
    stride: 2
  }
}
layers {
  bottom: "pool1"
  top: "conv2_1"
  name: "conv2_1"
  type: CONVOLUTION
  blobs_lr: 1
  blobs_lr: 2
  weight_decay: 1
  weight_decay: 0
  convolution_param {
    num_output: 128
    pad: 1
    kernel_size: 3
  }
}
layers {
  bottom: "conv2_1"
  top: "conv2_1"
  name: "bn2_1"
  type: BN
  bn_param {
    scale_filler {
      type: "constant"
      value: 1
    }
    shift_filler {
      type: "constant"
      value: 0.001
    }
  }
}
layers {
  bottom: "conv2_1"
  top: "conv2_1"
  name: "relu2_1"
  type: RELU
}
layers {
  bottom: "conv2_1"
  top: "conv2_2"
  name: "conv2_2"
  type: CONVOLUTION
  blobs_lr: 1
  blobs_lr: 2
  weight_decay: 1
  weight_decay: 0
  convolution_param {
    num_output: 128
    pad: 1
    kernel_size: 3
  }
}
layers {
  bottom: "conv2_2"
  top: "conv2_2"
  name: "bn2_2"
  type: BN
  bn_param {
    scale_filler {
      type: "constant"
      value: 1
    }
    shift_filler {
      type: "constant"
      value: 0.001
    }
  }
}
layers {
  bottom: "conv2_2"
  top: "conv2_2"
  name: "relu2_2"
  type: RELU
}
layers {
  bottom: "conv2_2"
  top: "pool2"
  name: "pool2"
  type: POOLING
  pooling_param {
    pool: MAX
    kernel_size: 2
    stride: 2
  }
}
layers {
  bottom: "pool2"
  top: "conv3_1"
  name: "conv3_1"
  type: CONVOLUTION
  blobs_lr: 1
  blobs_lr: 2
  weight_decay: 1
  weight_decay: 0
  convolution_param {
    num_output: 256
    pad: 1
    kernel_size: 3
  }
}
layers {
  bottom: "conv3_1"
  top: "conv3_1"
  name: "bn3_1"
  type: BN
  bn_param {
    scale_filler {
      type: "constant"
      value: 1
    }
    shift_filler {
      type: "constant"
      value: 0.001
    }
  }
}
layers {
  bottom: "conv3_1"
  top: "conv3_1"
  name: "relu3_1"
  type: RELU
}
layers {
  bottom: "conv3_1"
  top: "conv3_2"
  name: "conv3_2"
  type: CONVOLUTION
  blobs_lr: 1
  blobs_lr: 2
  weight_decay: 1
  weight_decay: 0
  convolution_param {
    num_output: 256
    pad: 1
    kernel_size: 3
  }
}
layers {
  bottom: "conv3_2"
  top: "conv3_2"
  name: "bn3_2"
  type: BN
  bn_param {
    scale_filler {
      type: "constant"
      value: 1
    }
    shift_filler {
      type: "constant"
      value: 0.001
    }
  }
}
layers {
  bottom: "conv3_2"
  top: "conv3_2"
  name: "relu3_2"
  type: RELU
}
layers {
  bottom: "conv3_2"
  top: "conv3_3"
  name: "conv3_3"
  type: CONVOLUTION
  blobs_lr: 1
  blobs_lr: 2
  weight_decay: 1
  weight_decay: 0
  convolution_param {
    num_output: 256
    pad: 1
    kernel_size: 3
  }
}
layers {
  bottom: "conv3_3"
  top: "conv3_3"
  name: "bn3_3"
  type: BN
  bn_param {
    scale_filler {
      type: "constant"
      value: 1
    }
    shift_filler {
      type: "constant"
      value: 0.001
    }
  }
}
layers {
  bottom: "conv3_3"
  top: "conv3_3"
  name: "relu3_3"
  type: RELU
}
layers {
  bottom: "conv3_3"
  top: "pool3"
  name: "pool3"
  type: POOLING
  pooling_param {
    pool: MAX
    kernel_size: 2
    stride: 2
  }
}
layers {
  bottom: "pool3"
  top: "conv4_1"
  name: "conv4_1"
  type: CONVOLUTION
  blobs_lr: 1
  blobs_lr: 2
  weight_decay: 1
  weight_decay: 0
  convolution_param {
    num_output: 512
    pad: 1
    kernel_size: 3
  }
}
layers {
  bottom: "conv4_1"
  top: "conv4_1"
  name: "bn4_1"
  type: BN
  bn_param {
    scale_filler {
      type: "constant"
      value: 1
    }
    shift_filler {
      type: "constant"
      value: 0.001
    }
  }
}
layers {
  bottom: "conv4_1"
  top: "conv4_1"
  name: "relu4_1"
  type: RELU
}
layers {
  bottom: "conv4_1"
  top: "conv4_2"
  name: "conv4_2"
  type: CONVOLUTION
  blobs_lr: 1
  blobs_lr: 2
  weight_decay: 1
  weight_decay: 0
  convolution_param {
    num_output: 512
    pad: 1
    kernel_size: 3
  }
}
layers {
  bottom: "conv4_2"
  top: "conv4_2"
  name: "bn4_2"
  type: BN
  bn_param {
    scale_filler {
      type: "constant"
      value: 1
    }
    shift_filler {
      type: "constant"
      value: 0.001
    }
  }
}
layers {
  bottom: "conv4_2"
  top: "conv4_2"
  name: "relu4_2"
  type: RELU
}
layers {
  bottom: "conv4_2"
  top: "conv4_3"
  name: "conv4_3"
  type: CONVOLUTION
  blobs_lr: 1
  blobs_lr: 2
  weight_decay: 1
  weight_decay: 0
  convolution_param {
    num_output: 512
    pad: 1
    kernel_size: 3
  }
}
layers {
  bottom: "conv4_3"
  top: "conv4_3"
  name: "bn4_3"
  type: BN
  bn_param {
    scale_filler {
      type: "constant"
      value: 1
    }
    shift_filler {
      type: "constant"
      value: 0.001
    }
  }
}
layers {
  bottom: "conv4_3"
  top: "conv4_3"
  name: "relu4_3"
  type: RELU
}
layers {
  bottom: "conv4_3"
  top: "pool4"
  name: "pool4"
  type: POOLING
  pooling_param {
    pool: MAX
    kernel_size: 2
    stride: 2
  }
}
layers {
  bottom: "pool4"
  top: "conv5_1"
  name: "conv5_1"
  type: CONVOLUTION
  blobs_lr: 1
  blobs_lr: 2
  weight_decay: 1
  weight_decay: 0
  convolution_param {
    num_output: 512
    pad: 1
    kernel_size: 3
  }
}
layers {
  bottom: "conv5_1"
  top: "conv5_1"
  name: "bn5_1"
  type: BN
  bn_param {
    scale_filler {
      type: "constant"
      value: 1
    }
    shift_filler {
      type: "constant"
      value: 0.001
    }
  }
}
layers {
  bottom: "conv5_1"
  top: "conv5_1"
  name: "relu5_1"
  type: RELU
}
layers {
  bottom: "conv5_1"
  top: "conv5_2"
  name: "conv5_2"
  type: CONVOLUTION
  blobs_lr: 1
  blobs_lr: 2
  weight_decay: 1
  weight_decay: 0
  convolution_param {
    num_output: 512
    pad: 1
    kernel_size: 3
  }
}
layers {
  bottom: "conv5_2"
  top: "conv5_2"
  name: "bn5_2"
  type: BN
  bn_param {
    scale_filler {
      type: "constant"
      value: 1
    }
    shift_filler {
      type: "constant"
      value: 0.001
    }
  }
}
layers {
  bottom: "conv5_2"
  top: "conv5_2"
  name: "relu5_2"
  type: RELU
}
layers {
  bottom: "conv5_2"
  top: "conv5_3"
  name: "conv5_3"
  type: CONVOLUTION
  blobs_lr: 1
  blobs_lr: 2
  weight_decay: 1
  weight_decay: 0
  convolution_param {
    num_output: 512
    pad: 1
    kernel_size: 3
  }
}
layers {
  bottom: "conv5_3"
  top: "conv5_3"
  name: "bn5_3"
  type: BN
  bn_param {
    scale_filler {
      type: "constant"
      value: 1
    }
    shift_filler {
      type: "constant"
      value: 0.001
    }
  }
}
layers {
  bottom: "conv5_3"
  top: "conv5_3"
  name: "relu5_3"
  type: RELU
}
layers {
  bottom: "conv5_3"
  top: "pool5"
  name: "pool5"
  type: POOLING
  pooling_param {
    pool: MAX
    kernel_size: 2
    stride: 2
  }
}
layers {
  bottom: "pool5"
  top: "fc6"
  name: "fc6"
  type: CONVOLUTION
  blobs_lr: 1
  blobs_lr: 2
  weight_decay: 1
  weight_decay: 0
  convolution_param {
    num_output: 4096
    kernel_size: 7
  }
}
layers {
  bottom: "fc6"
  top: "fc6"
  name: "bnfc6"
  type: BN
  bn_param {
    scale_filler {
      type: "constant"
      value: 1
    }
    shift_filler {
      type: "constant"
      value: 0.001
    }
  }
}
layers {
  bottom: "fc6"
  top: "fc6"
  name: "relu6"
  type: RELU
}
layers {
  bottom: "fc6"
  top: "fc7"
  name: "fc7"
  type: CONVOLUTION
  blobs_lr: 1
  blobs_lr: 2
  weight_decay: 1
  weight_decay: 0
  convolution_param {
    num_output: 4096
    kernel_size: 1
  }
}
layers {
  bottom: "fc7"
  top: "fc7"
  name: "bnfc7"
  type: BN
  bn_param {
    scale_filler {
      type: "constant"
      value: 1
    }
    shift_filler {
      type: "constant"
      value: 0.001
    }
  }
}
layers {
  bottom: "fc7"
  top: "fc7"
  name: "relu7"
  type: RELU
}
layers {
  bottom: "fc7"
  top: "fc6-deconv"
  name: "fc6-deconv"
  type: DECONVOLUTION
  blobs_lr: 1
  blobs_lr: 2
  weight_decay: 1
  weight_decay: 0
  convolution_param {
    num_output: 512
    kernel_size: 7
    weight_filler {
      type: "gaussian"
      std: 0.01
    }
    bias_filler {
      type: "constant"
      value: 0
    }
  }
}
layers {
  bottom: "fc6-deconv"
  top: "fc6-deconv"
  name: "fc6-deconv-bn"
  type: BN
  bn_param {
    scale_filler {
      type: "constant"
      value: 1
    }
    shift_filler {
      type: "constant"
      value: 0.001
    }
  }
}
layers {
  bottom: "fc6-deconv"
  top: "fc6-deconv"
  name: "fc6-deconv-relu"
  type: RELU
}
layers {
  bottom: "fc6-deconv"
  top: "unpool5"
  name: "unpool5"
  type: UNPOOLING
  unpooling_param {
    unpool: MAX
    kernel_size: 2
    stride: 2
    unpool_size: 14
  }
}
layers {
  bottom: "unpool5"
  top: "deconv5_1"
  name: "deconv5_1"
  type: DECONVOLUTION
  blobs_lr: 1
  blobs_lr: 2
  weight_decay: 1
  weight_decay: 0
  convolution_param {
    num_output: 512
    pad: 1
    kernel_size: 3
    weight_filler {
      type: "gaussian"
      std: 0.01
    }
    bias_filler {
      type: "constant"
      value: 0
    }
  }
}
layers {
  bottom: "deconv5_1"
  top: "deconv5_1"
  name: "debn5_1"
  type: BN
  bn_param {
    scale_filler {
      type: "constant"
      value: 1
    }
    shift_filler {
      type: "constant"
      value: 0.001
    }
  }
}
layers {
  bottom: "deconv5_1"
  top: "deconv5_1"
  name: "derelu5_1"
  type: RELU
}
layers {
  bottom: "deconv5_1"
  top: "deconv5_2"
  name: "deconv5_2"
  type: DECONVOLUTION
  blobs_lr: 1
  blobs_lr: 2
  weight_decay: 1
  weight_decay: 0
  convolution_param {
    num_output: 512
    pad: 1
    kernel_size: 3
    weight_filler {
      type: "gaussian"
      std: 0.01
    }
    bias_filler {
      type: "constant"
      value: 0
    }
  }
}
layers {
  bottom: "deconv5_2"
  top: "deconv5_2"
  name: "debn5_2"
  type: BN
  bn_param {
    scale_filler {
      type: "constant"
      value: 1
    }
    shift_filler {
      type: "constant"
      value: 0.001
    }
  }
}
layers {
  bottom: "deconv5_2"
  top: "deconv5_2"
  name: "derelu5_2"
  type: RELU
}
layers {
  bottom: "deconv5_2"
  top: "deconv5_3"
  name: "deconv5_3"
  type: DECONVOLUTION
  blobs_lr: 1
  blobs_lr: 2
  weight_decay: 1
  weight_decay: 0
  convolution_param {
    num_output: 512
    pad: 1
    kernel_size: 3
    weight_filler {
      type: "gaussian"
      std: 0.01
    }
    bias_filler {
      type: "constant"
      value: 0
    }
  }
}
layers {
  bottom: "deconv5_3"
  top: "deconv5_3"
  name: "debn5_3"
  type: BN
  bn_param {
    scale_filler {
      type: "constant"
      value: 1
    }
    shift_filler {
      type: "constant"
      value: 0.001
    }
  }
}
layers {
  bottom: "deconv5_3"
  top: "deconv5_3"
  name: "derelu5_3"
  type: RELU
}
layers {
  bottom: "deconv5_3"
  top: "unpool4"
  name: "unpool4"
  type: UNPOOLING
  unpooling_param {
    unpool: MAX
    kernel_size: 2
    stride: 2
    unpool_size: 28
  }
}
layers {
  bottom: "unpool4"
  top: "deconv4_1"
  name: "deconv4_1"
  type: DECONVOLUTION
  blobs_lr: 1
  blobs_lr: 2
  weight_decay: 1
  weight_decay: 0
  convolution_param {
    num_output: 512
    pad: 1
    kernel_size: 3
    weight_filler {
      type: "gaussian"
      std: 0.01
    }
    bias_filler {
      type: "constant"
      value: 0
    }
  }
}
layers {
  bottom: "deconv4_1"
  top: "deconv4_1"
  name: "debn4_1"
  type: BN
  bn_param {
    scale_filler {
      type: "constant"
      value: 1
    }
    shift_filler {
      type: "constant"
      value: 0.001
    }
  }
}
layers {
  bottom: "deconv4_1"
  top: "deconv4_1"
  name: "derelu4_1"
  type: RELU
}
layers {
  bottom: "deconv4_1"
  top: "deconv4_2"
  name: "deconv4_2"
  type: DECONVOLUTION
  blobs_lr: 1
  blobs_lr: 2
  weight_decay: 1
  weight_decay: 0
  convolution_param {
    num_output: 512
    pad: 1
    kernel_size: 3
    weight_filler {
      type: "gaussian"
      std: 0.01
    }
    bias_filler {
      type: "constant"
      value: 0
    }
  }
}
layers {
  bottom: "deconv4_2"
  top: "deconv4_2"
  name: "debn4_2"
  type: BN
  bn_param {
    scale_filler {
      type: "constant"
      value: 1
    }
    shift_filler {
      type: "constant"
      value: 0.001
    }
  }
}
layers {
  bottom: "deconv4_2"
  top: "deconv4_2"
  name: "derelu4_2"
  type: RELU
}
layers {
  bottom: "deconv4_2"
  top: "deconv4_3"
  name: "deconv4_3"
  type: DECONVOLUTION
  blobs_lr: 1
  blobs_lr: 2
  weight_decay: 1
  weight_decay: 0
  convolution_param {
    num_output: 256
    pad: 1
    kernel_size: 3
    weight_filler {
      type: "gaussian"
      std: 0.01
    }
    bias_filler {
      type: "constant"
      value: 0
    }
  }
}
layers {
  bottom: "deconv4_3"
  top: "deconv4_3"
  name: "debn4_3"
  type: BN
  bn_param {
    scale_filler {
      type: "constant"
      value: 1
    }
    shift_filler {
      type: "constant"
      value: 0.001
    }
  }
}
layers {
  bottom: "deconv4_3"
  top: "deconv4_3"
  name: "derelu4_3"
  type: RELU
}
layers {
  bottom: "deconv4_3"
  top: "unpool3"
  name: "unpool3"
  type: UNPOOLING
  unpooling_param {
    unpool: MAX
    kernel_size: 2
    stride: 2
    unpool_size: 56
  }
}
layers {
  bottom: "unpool3"
  top: "deconv3_1"
  name: "deconv3_1"
  type: DECONVOLUTION
  blobs_lr: 1
  blobs_lr: 2
  weight_decay: 1
  weight_decay: 0
  convolution_param {
    num_output: 256
    pad: 1
    kernel_size: 3
    weight_filler {
      type: "gaussian"
      std: 0.01
    }
    bias_filler {
      type: "constant"
      value: 0
    }
  }
}
layers {
  bottom: "deconv3_1"
  top: "deconv3_1"
  name: "debn3_1"
  type: BN
  bn_param {
    scale_filler {
      type: "constant"
      value: 1
    }
    shift_filler {
      type: "constant"
      value: 0.001
    }
  }
}
layers {
  bottom: "deconv3_1"
  top: "deconv3_1"
  name: "derelu3_1"
  type: RELU
}
layers {
  bottom: "deconv3_1"
  top: "deconv3_2"
  name: "deconv3_2"
  type: DECONVOLUTION
  blobs_lr: 1
  blobs_lr: 2
  weight_decay: 1
  weight_decay: 0
  convolution_param {
    num_output: 256
    pad: 1
    kernel_size: 3
    weight_filler {
      type: "gaussian"
      std: 0.01
    }
    bias_filler {
      type: "constant"
      value: 0
    }
  }
}
layers {
  bottom: "deconv3_2"
  top: "deconv3_2"
  name: "debn3_2"
  type: BN
  bn_param {
    scale_filler {
      type: "constant"
      value: 1
    }
    shift_filler {
      type: "constant"
      value: 0.001
    }
  }
}
layers {
  bottom: "deconv3_2"
  top: "deconv3_2"
  name: "derelu3_2"
  type: RELU
}
layers {
  bottom: "deconv3_2"
  top: "deconv3_3"
  name: "deconv3_3"
  type: DECONVOLUTION
  blobs_lr: 1
  blobs_lr: 2
  weight_decay: 1
  weight_decay: 0
  convolution_param {
    num_output: 128
    pad: 1
    kernel_size: 3
    weight_filler {
      type: "gaussian"
      std: 0.01
    }
    bias_filler {
      type: "constant"
      value: 0
    }
  }
}
layers {
  bottom: "deconv3_3"
  top: "deconv3_3"
  name: "debn3_3"
  type: BN
  bn_param {
    scale_filler {
      type: "constant"
      value: 1
    }
    shift_filler {
      type: "constant"
      value: 0.001
    }
  }
}
layers {
  bottom: "deconv3_3"
  top: "deconv3_3"
  name: "derelu3_3"
  type: RELU
}
layers {
  bottom: "deconv3_3"
  top: "unpool2"
  name: "unpool2"
  type: UNPOOLING
  unpooling_param {
    unpool: MAX
    kernel_size: 2
    stride: 2
    unpool_size: 112
  }
}
layers {
  bottom: "unpool2"
  top: "deconv2_1"
  name: "deconv2_1"
  type: DECONVOLUTION
  blobs_lr: 1
  blobs_lr: 2
  weight_decay: 1
  weight_decay: 0
  convolution_param {
    num_output: 128
    pad: 1
    kernel_size: 3
    weight_filler {
      type: "gaussian"
      std: 0.01
    }
    bias_filler {
      type: "constant"
      value: 0
    }
  }
}
layers {
  bottom: "deconv2_1"
  top: "deconv2_1"
  name: "debn2_1"
  type: BN
  bn_param {
    scale_filler {
      type: "constant"
      value: 1
    }
    shift_filler {
      type: "constant"
      value: 0.001
    }
  }
}
layers {
  bottom: "deconv2_1"
  top: "deconv2_1"
  name: "derelu2_1"
  type: RELU
}
layers {
  bottom: "deconv2_1"
  top: "deconv2_2"
  name: "deconv2_2"
  type: DECONVOLUTION
  blobs_lr: 1
  blobs_lr: 2
  weight_decay: 1
  weight_decay: 0
  convolution_param {
    num_output: 64
    pad: 1
    kernel_size: 3
    weight_filler {
      type: "gaussian"
      std: 0.01
    }
    bias_filler {
      type: "constant"
      value: 0
    }
  }
}
layers {
  bottom: "deconv2_2"
  top: "deconv2_2"
  name: "debn2_2"
  type: BN
  bn_param {
    scale_filler {
      type: "constant"
      value: 1
    }
    shift_filler {
      type: "constant"
      value: 0.001
    }
  }
}
layers {
  bottom: "deconv2_2"
  top: "deconv2_2"
  name: "derelu2_2"
  type: RELU
}
layers {
  bottom: "deconv2_2"
  top: "unpool1"
  name: "unpool1"
  type: UNPOOLING
  unpooling_param {
    unpool: MAX
    kernel_size: 2
    stride: 2
    unpool_size: 224
  }
}
layers {
  bottom: "unpool1"
  top: "deconv1_1"
  name: "deconv1_1"
  type: DECONVOLUTION
  blobs_lr: 1
  blobs_lr: 2
  weight_decay: 1
  weight_decay: 0
  convolution_param {
    num_output: 64
    pad: 1
    kernel_size: 3
    weight_filler {
      type: "gaussian"
      std: 0.01
    }
    bias_filler {
      type: "constant"
      value: 0
    }
  }
}
layers {
  bottom: "deconv1_1"
  top: "deconv1_1"
  name: "debn1_1"
  type: BN
  bn_param {
    scale_filler {
      type: "constant"
      value: 1
    }
    shift_filler {
      type: "constant"
      value: 0.001
    }
  }
}
layers {
  bottom: "deconv1_1"
  top: "deconv1_1"
  name: "derelu1_1"
  type: RELU
}
layers {
  bottom: "deconv1_1"
  top: "deconv1_2"
  name: "deconv1_2"
  type: DECONVOLUTION
  blobs_lr: 1
  blobs_lr: 2
  weight_decay: 1
  weight_decay: 0
  convolution_param {
    num_output: 64
    pad: 1
    kernel_size: 3
    weight_filler {
      type: "gaussian"
      std: 0.01
    }
    bias_filler {
      type: "constant"
      value: 0
    }
  }
}
layers {
  bottom: "deconv1_2"
  top: "deconv1_2"
  name: "debn1_2"
  type: BN
  bn_param {
    scale_filler {
      type: "constant"
      value: 1
    }
    shift_filler {
      type: "constant"
      value: 0.001
    }
  }
}
layers {
  bottom: "deconv1_2"
  top: "deconv1_2"
  name: "derelu1_2"
  type: RELU
}
layers {
  bottom: "deconv1_2"
  top: "seg-score"
  name: "seg-score-voc"
  type: CONVOLUTION
  blobs_lr: 1
  blobs_lr: 2
  weight_decay: 1
  weight_decay: 0
  convolution_param {
    num_output: 21
    kernel_size: 1
    weight_filler {
      type: "gaussian"
      std: 0.01
    }
    bias_filler {
      type: "constant"
      value: 0
    }
  }
}
layers {
  bottom: "seg-score"
  bottom: "seg-label"
  top: "seg-accuracy"
  name: "seg-accuracy"
  type: ELTWISE_ACCURACY
  include {
    phase: TEST
  }
  eltwise_accuracy_param {
    ignore_label: 255
  }
}
layers {
  bottom: "seg-score"
  bottom: "seg-label"
  top: "seg-loss"
  name: "seg-loss"
  type: SOFTMAX_LOSS
  loss_param {
    ignore_label: 255
  }
}
state {
  phase: TEST
}
I0923 02:43:36.386121 20394 layer_factory.hpp:78] Creating layer data
I0923 02:43:36.386134 20394 net.cpp:69] Creating Layer data
I0923 02:43:36.386139 20394 net.cpp:358] data -> data
I0923 02:43:36.386147 20394 net.cpp:358] data -> seg-label
I0923 02:43:36.386155 20394 net.cpp:358] data -> (automatic)
I0923 02:43:36.386168 20394 net.cpp:98] Setting up data
I0923 02:43:36.386174 20394 image_seg_data_layer.cpp:51] Opening file ./stage_1_train_imgset/val_reduced_07.txt
I0923 02:43:36.408045 20394 image_seg_data_layer.cpp:68] Shuffling data
I0923 02:43:36.408437 20394 image_seg_data_layer.cpp:73] A total of 4992 images.
I0923 02:43:36.436170 20394 image_seg_data_layer.cpp:119] output data size: 8,3,224,224
I0923 02:43:36.436184 20394 image_seg_data_layer.cpp:123] output label size: 8,1,224,224
I0923 02:43:36.436189 20394 image_seg_data_layer.cpp:127] output data_dim size: 8,1,1,2
I0923 02:43:36.440019 20394 net.cpp:105] Top shape: 8 3 224 224 (1204224)
I0923 02:43:36.440032 20394 net.cpp:105] Top shape: 8 1 224 224 (401408)
I0923 02:43:36.440037 20394 net.cpp:105] Top shape: 8 1 1 2 (16)
I0923 02:43:36.440042 20394 layer_factory.hpp:78] Creating layer seg-label_data_1_split
I0923 02:43:36.440050 20394 net.cpp:69] Creating Layer seg-label_data_1_split
I0923 02:43:36.440055 20394 net.cpp:396] seg-label_data_1_split <- seg-label
I0923 02:43:36.440062 20394 net.cpp:358] seg-label_data_1_split -> seg-label_data_1_split_0
I0923 02:43:36.440074 20394 net.cpp:358] seg-label_data_1_split -> seg-label_data_1_split_1
I0923 02:43:36.440083 20394 net.cpp:98] Setting up seg-label_data_1_split
I0923 02:43:36.440088 20394 net.cpp:105] Top shape: 8 1 224 224 (401408)
I0923 02:43:36.440094 20394 net.cpp:105] Top shape: 8 1 224 224 (401408)
I0923 02:43:36.440100 20394 layer_factory.hpp:78] Creating layer conv1_1
I0923 02:43:36.440109 20394 net.cpp:69] Creating Layer conv1_1
I0923 02:43:36.440114 20394 net.cpp:396] conv1_1 <- data
I0923 02:43:36.440120 20394 net.cpp:358] conv1_1 -> conv1_1
I0923 02:43:36.440126 20394 net.cpp:98] Setting up conv1_1
I0923 02:43:36.440191 20394 net.cpp:105] Top shape: 8 64 224 224 (25690112)
I0923 02:43:36.440201 20394 layer_factory.hpp:78] Creating layer bn1_1
I0923 02:43:36.440210 20394 net.cpp:69] Creating Layer bn1_1
I0923 02:43:36.440214 20394 net.cpp:396] bn1_1 <- conv1_1
I0923 02:43:36.440220 20394 net.cpp:347] bn1_1 -> conv1_1 (in-place)
I0923 02:43:36.440227 20394 net.cpp:98] Setting up bn1_1
I0923 02:43:36.440336 20394 net.cpp:105] Top shape: 8 64 224 224 (25690112)
I0923 02:43:36.440346 20394 layer_factory.hpp:78] Creating layer relu1_1
I0923 02:43:36.440354 20394 net.cpp:69] Creating Layer relu1_1
I0923 02:43:36.440359 20394 net.cpp:396] relu1_1 <- conv1_1
I0923 02:43:36.440367 20394 net.cpp:347] relu1_1 -> conv1_1 (in-place)
I0923 02:43:36.440373 20394 net.cpp:98] Setting up relu1_1
I0923 02:43:36.440379 20394 net.cpp:105] Top shape: 8 64 224 224 (25690112)
I0923 02:43:36.440385 20394 layer_factory.hpp:78] Creating layer conv1_2
I0923 02:43:36.440392 20394 net.cpp:69] Creating Layer conv1_2
I0923 02:43:36.440397 20394 net.cpp:396] conv1_2 <- conv1_1
I0923 02:43:36.440402 20394 net.cpp:358] conv1_2 -> conv1_2
I0923 02:43:36.440409 20394 net.cpp:98] Setting up conv1_2
I0923 02:43:36.440510 20394 net.cpp:105] Top shape: 8 64 224 224 (25690112)
I0923 02:43:36.440521 20394 layer_factory.hpp:78] Creating layer bn1_2
I0923 02:43:36.440528 20394 net.cpp:69] Creating Layer bn1_2
I0923 02:43:36.440534 20394 net.cpp:396] bn1_2 <- conv1_2
I0923 02:43:36.440541 20394 net.cpp:347] bn1_2 -> conv1_2 (in-place)
I0923 02:43:36.440546 20394 net.cpp:98] Setting up bn1_2
I0923 02:43:36.440649 20394 net.cpp:105] Top shape: 8 64 224 224 (25690112)
I0923 02:43:36.440659 20394 layer_factory.hpp:78] Creating layer relu1_2
I0923 02:43:36.440666 20394 net.cpp:69] Creating Layer relu1_2
I0923 02:43:36.440671 20394 net.cpp:396] relu1_2 <- conv1_2
I0923 02:43:36.440677 20394 net.cpp:347] relu1_2 -> conv1_2 (in-place)
I0923 02:43:36.440683 20394 net.cpp:98] Setting up relu1_2
I0923 02:43:36.440688 20394 net.cpp:105] Top shape: 8 64 224 224 (25690112)
I0923 02:43:36.440695 20394 layer_factory.hpp:78] Creating layer pool1
I0923 02:43:36.440701 20394 net.cpp:69] Creating Layer pool1
I0923 02:43:36.440706 20394 net.cpp:396] pool1 <- conv1_2
I0923 02:43:36.440713 20394 net.cpp:358] pool1 -> pool1
I0923 02:43:36.440721 20394 net.cpp:98] Setting up pool1
I0923 02:43:36.440737 20394 net.cpp:105] Top shape: 8 64 112 112 (6422528)
I0923 02:43:36.440742 20394 layer_factory.hpp:78] Creating layer conv2_1
I0923 02:43:36.440749 20394 net.cpp:69] Creating Layer conv2_1
I0923 02:43:36.440754 20394 net.cpp:396] conv2_1 <- pool1
I0923 02:43:36.440762 20394 net.cpp:358] conv2_1 -> conv2_1
I0923 02:43:36.440769 20394 net.cpp:98] Setting up conv2_1
I0923 02:43:36.440865 20394 net.cpp:105] Top shape: 8 128 112 112 (12845056)
I0923 02:43:36.440876 20394 layer_factory.hpp:78] Creating layer bn2_1
I0923 02:43:36.440883 20394 net.cpp:69] Creating Layer bn2_1
I0923 02:43:36.440889 20394 net.cpp:396] bn2_1 <- conv2_1
I0923 02:43:36.440896 20394 net.cpp:347] bn2_1 -> conv2_1 (in-place)
I0923 02:43:36.440902 20394 net.cpp:98] Setting up bn2_1
I0923 02:43:36.440934 20394 net.cpp:105] Top shape: 8 128 112 112 (12845056)
I0923 02:43:36.440943 20394 layer_factory.hpp:78] Creating layer relu2_1
I0923 02:43:36.440949 20394 net.cpp:69] Creating Layer relu2_1
I0923 02:43:36.440954 20394 net.cpp:396] relu2_1 <- conv2_1
I0923 02:43:36.440960 20394 net.cpp:347] relu2_1 -> conv2_1 (in-place)
I0923 02:43:36.440966 20394 net.cpp:98] Setting up relu2_1
I0923 02:43:36.440971 20394 net.cpp:105] Top shape: 8 128 112 112 (12845056)
I0923 02:43:36.440976 20394 layer_factory.hpp:78] Creating layer conv2_2
I0923 02:43:36.440984 20394 net.cpp:69] Creating Layer conv2_2
I0923 02:43:36.440989 20394 net.cpp:396] conv2_2 <- conv2_1
I0923 02:43:36.440994 20394 net.cpp:358] conv2_2 -> conv2_2
I0923 02:43:36.441001 20394 net.cpp:98] Setting up conv2_2
I0923 02:43:36.441175 20394 net.cpp:105] Top shape: 8 128 112 112 (12845056)
I0923 02:43:36.441184 20394 layer_factory.hpp:78] Creating layer bn2_2
I0923 02:43:36.441191 20394 net.cpp:69] Creating Layer bn2_2
I0923 02:43:36.441196 20394 net.cpp:396] bn2_2 <- conv2_2
I0923 02:43:36.441202 20394 net.cpp:347] bn2_2 -> conv2_2 (in-place)
I0923 02:43:36.441210 20394 net.cpp:98] Setting up bn2_2
I0923 02:43:36.441241 20394 net.cpp:105] Top shape: 8 128 112 112 (12845056)
I0923 02:43:36.441248 20394 layer_factory.hpp:78] Creating layer relu2_2
I0923 02:43:36.441256 20394 net.cpp:69] Creating Layer relu2_2
I0923 02:43:36.441261 20394 net.cpp:396] relu2_2 <- conv2_2
I0923 02:43:36.441267 20394 net.cpp:347] relu2_2 -> conv2_2 (in-place)
I0923 02:43:36.441272 20394 net.cpp:98] Setting up relu2_2
I0923 02:43:36.441277 20394 net.cpp:105] Top shape: 8 128 112 112 (12845056)
I0923 02:43:36.441282 20394 layer_factory.hpp:78] Creating layer pool2
I0923 02:43:36.441288 20394 net.cpp:69] Creating Layer pool2
I0923 02:43:36.441293 20394 net.cpp:396] pool2 <- conv2_2
I0923 02:43:36.441299 20394 net.cpp:358] pool2 -> pool2
I0923 02:43:36.441306 20394 net.cpp:98] Setting up pool2
I0923 02:43:36.441313 20394 net.cpp:105] Top shape: 8 128 56 56 (3211264)
I0923 02:43:36.441318 20394 layer_factory.hpp:78] Creating layer conv3_1
I0923 02:43:36.441324 20394 net.cpp:69] Creating Layer conv3_1
I0923 02:43:36.441329 20394 net.cpp:396] conv3_1 <- pool2
I0923 02:43:36.441335 20394 net.cpp:358] conv3_1 -> conv3_1
I0923 02:43:36.441342 20394 net.cpp:98] Setting up conv3_1
I0923 02:43:36.441645 20394 net.cpp:105] Top shape: 8 256 56 56 (6422528)
I0923 02:43:36.441655 20394 layer_factory.hpp:78] Creating layer bn3_1
I0923 02:43:36.441663 20394 net.cpp:69] Creating Layer bn3_1
I0923 02:43:36.441668 20394 net.cpp:396] bn3_1 <- conv3_1
I0923 02:43:36.441675 20394 net.cpp:347] bn3_1 -> conv3_1 (in-place)
I0923 02:43:36.441682 20394 net.cpp:98] Setting up bn3_1
I0923 02:43:36.441695 20394 net.cpp:105] Top shape: 8 256 56 56 (6422528)
I0923 02:43:36.441702 20394 layer_factory.hpp:78] Creating layer relu3_1
I0923 02:43:36.441709 20394 net.cpp:69] Creating Layer relu3_1
I0923 02:43:36.441714 20394 net.cpp:396] relu3_1 <- conv3_1
I0923 02:43:36.441720 20394 net.cpp:347] relu3_1 -> conv3_1 (in-place)
I0923 02:43:36.441725 20394 net.cpp:98] Setting up relu3_1
I0923 02:43:36.441730 20394 net.cpp:105] Top shape: 8 256 56 56 (6422528)
I0923 02:43:36.441735 20394 layer_factory.hpp:78] Creating layer conv3_2
I0923 02:43:36.441748 20394 net.cpp:69] Creating Layer conv3_2
I0923 02:43:36.441753 20394 net.cpp:396] conv3_2 <- conv3_1
I0923 02:43:36.441761 20394 net.cpp:358] conv3_2 -> conv3_2
I0923 02:43:36.441768 20394 net.cpp:98] Setting up conv3_2
I0923 02:43:36.442363 20394 net.cpp:105] Top shape: 8 256 56 56 (6422528)
I0923 02:43:36.442373 20394 layer_factory.hpp:78] Creating layer bn3_2
I0923 02:43:36.442378 20394 net.cpp:69] Creating Layer bn3_2
I0923 02:43:36.442384 20394 net.cpp:396] bn3_2 <- conv3_2
I0923 02:43:36.442390 20394 net.cpp:347] bn3_2 -> conv3_2 (in-place)
I0923 02:43:36.442397 20394 net.cpp:98] Setting up bn3_2
I0923 02:43:36.442410 20394 net.cpp:105] Top shape: 8 256 56 56 (6422528)
I0923 02:43:36.442417 20394 layer_factory.hpp:78] Creating layer relu3_2
I0923 02:43:36.442422 20394 net.cpp:69] Creating Layer relu3_2
I0923 02:43:36.442427 20394 net.cpp:396] relu3_2 <- conv3_2
I0923 02:43:36.442433 20394 net.cpp:347] relu3_2 -> conv3_2 (in-place)
I0923 02:43:36.442440 20394 net.cpp:98] Setting up relu3_2
I0923 02:43:36.442445 20394 net.cpp:105] Top shape: 8 256 56 56 (6422528)
I0923 02:43:36.442450 20394 layer_factory.hpp:78] Creating layer conv3_3
I0923 02:43:36.442456 20394 net.cpp:69] Creating Layer conv3_3
I0923 02:43:36.442461 20394 net.cpp:396] conv3_3 <- conv3_2
I0923 02:43:36.442466 20394 net.cpp:358] conv3_3 -> conv3_3
I0923 02:43:36.442471 20394 net.cpp:98] Setting up conv3_3
I0923 02:43:36.443070 20394 net.cpp:105] Top shape: 8 256 56 56 (6422528)
I0923 02:43:36.443080 20394 layer_factory.hpp:78] Creating layer bn3_3
I0923 02:43:36.443086 20394 net.cpp:69] Creating Layer bn3_3
I0923 02:43:36.443091 20394 net.cpp:396] bn3_3 <- conv3_3
I0923 02:43:36.443099 20394 net.cpp:347] bn3_3 -> conv3_3 (in-place)
I0923 02:43:36.443105 20394 net.cpp:98] Setting up bn3_3
I0923 02:43:36.443120 20394 net.cpp:105] Top shape: 8 256 56 56 (6422528)
I0923 02:43:36.443125 20394 layer_factory.hpp:78] Creating layer relu3_3
I0923 02:43:36.443132 20394 net.cpp:69] Creating Layer relu3_3
I0923 02:43:36.443137 20394 net.cpp:396] relu3_3 <- conv3_3
I0923 02:43:36.443143 20394 net.cpp:347] relu3_3 -> conv3_3 (in-place)
I0923 02:43:36.443150 20394 net.cpp:98] Setting up relu3_3
I0923 02:43:36.443155 20394 net.cpp:105] Top shape: 8 256 56 56 (6422528)
I0923 02:43:36.443159 20394 layer_factory.hpp:78] Creating layer pool3
I0923 02:43:36.443166 20394 net.cpp:69] Creating Layer pool3
I0923 02:43:36.443169 20394 net.cpp:396] pool3 <- conv3_3
I0923 02:43:36.443174 20394 net.cpp:358] pool3 -> pool3
I0923 02:43:36.443181 20394 net.cpp:98] Setting up pool3
I0923 02:43:36.443187 20394 net.cpp:105] Top shape: 8 256 28 28 (1605632)
I0923 02:43:36.443192 20394 layer_factory.hpp:78] Creating layer conv4_1
I0923 02:43:36.443199 20394 net.cpp:69] Creating Layer conv4_1
I0923 02:43:36.443204 20394 net.cpp:396] conv4_1 <- pool3
I0923 02:43:36.443210 20394 net.cpp:358] conv4_1 -> conv4_1
I0923 02:43:36.443217 20394 net.cpp:98] Setting up conv4_1
I0923 02:43:36.445858 20394 net.cpp:105] Top shape: 8 512 28 28 (3211264)
I0923 02:43:36.445870 20394 layer_factory.hpp:78] Creating layer bn4_1
I0923 02:43:36.445878 20394 net.cpp:69] Creating Layer bn4_1
I0923 02:43:36.445883 20394 net.cpp:396] bn4_1 <- conv4_1
I0923 02:43:36.445889 20394 net.cpp:347] bn4_1 -> conv4_1 (in-place)
I0923 02:43:36.445896 20394 net.cpp:98] Setting up bn4_1
I0923 02:43:36.445909 20394 net.cpp:105] Top shape: 8 512 28 28 (3211264)
I0923 02:43:36.445916 20394 layer_factory.hpp:78] Creating layer relu4_1
I0923 02:43:36.445922 20394 net.cpp:69] Creating Layer relu4_1
I0923 02:43:36.445927 20394 net.cpp:396] relu4_1 <- conv4_1
I0923 02:43:36.445933 20394 net.cpp:347] relu4_1 -> conv4_1 (in-place)
I0923 02:43:36.445940 20394 net.cpp:98] Setting up relu4_1
I0923 02:43:36.445945 20394 net.cpp:105] Top shape: 8 512 28 28 (3211264)
I0923 02:43:36.445950 20394 layer_factory.hpp:78] Creating layer conv4_2
I0923 02:43:36.445955 20394 net.cpp:69] Creating Layer conv4_2
I0923 02:43:36.445960 20394 net.cpp:396] conv4_2 <- conv4_1
I0923 02:43:36.445966 20394 net.cpp:358] conv4_2 -> conv4_2
I0923 02:43:36.445982 20394 net.cpp:98] Setting up conv4_2
I0923 02:43:36.454363 20394 net.cpp:105] Top shape: 8 512 28 28 (3211264)
I0923 02:43:36.454386 20394 layer_factory.hpp:78] Creating layer bn4_2
I0923 02:43:36.454396 20394 net.cpp:69] Creating Layer bn4_2
I0923 02:43:36.454402 20394 net.cpp:396] bn4_2 <- conv4_2
I0923 02:43:36.454409 20394 net.cpp:347] bn4_2 -> conv4_2 (in-place)
I0923 02:43:36.454417 20394 net.cpp:98] Setting up bn4_2
I0923 02:43:36.454429 20394 net.cpp:105] Top shape: 8 512 28 28 (3211264)
I0923 02:43:36.454437 20394 layer_factory.hpp:78] Creating layer relu4_2
I0923 02:43:36.454442 20394 net.cpp:69] Creating Layer relu4_2
I0923 02:43:36.454447 20394 net.cpp:396] relu4_2 <- conv4_2
I0923 02:43:36.454452 20394 net.cpp:347] relu4_2 -> conv4_2 (in-place)
I0923 02:43:36.454457 20394 net.cpp:98] Setting up relu4_2
I0923 02:43:36.454463 20394 net.cpp:105] Top shape: 8 512 28 28 (3211264)
I0923 02:43:36.454468 20394 layer_factory.hpp:78] Creating layer conv4_3
I0923 02:43:36.454476 20394 net.cpp:69] Creating Layer conv4_3
I0923 02:43:36.454481 20394 net.cpp:396] conv4_3 <- conv4_2
I0923 02:43:36.454488 20394 net.cpp:358] conv4_3 -> conv4_3
I0923 02:43:36.454496 20394 net.cpp:98] Setting up conv4_3
I0923 02:43:36.459880 20394 net.cpp:105] Top shape: 8 512 28 28 (3211264)
I0923 02:43:36.459900 20394 layer_factory.hpp:78] Creating layer bn4_3
I0923 02:43:36.459910 20394 net.cpp:69] Creating Layer bn4_3
I0923 02:43:36.459915 20394 net.cpp:396] bn4_3 <- conv4_3
I0923 02:43:36.459923 20394 net.cpp:347] bn4_3 -> conv4_3 (in-place)
I0923 02:43:36.459930 20394 net.cpp:98] Setting up bn4_3
I0923 02:43:36.459944 20394 net.cpp:105] Top shape: 8 512 28 28 (3211264)
I0923 02:43:36.459951 20394 layer_factory.hpp:78] Creating layer relu4_3
I0923 02:43:36.459957 20394 net.cpp:69] Creating Layer relu4_3
I0923 02:43:36.459961 20394 net.cpp:396] relu4_3 <- conv4_3
I0923 02:43:36.459967 20394 net.cpp:347] relu4_3 -> conv4_3 (in-place)
I0923 02:43:36.459974 20394 net.cpp:98] Setting up relu4_3
I0923 02:43:36.459978 20394 net.cpp:105] Top shape: 8 512 28 28 (3211264)
I0923 02:43:36.459982 20394 layer_factory.hpp:78] Creating layer pool4
I0923 02:43:36.459988 20394 net.cpp:69] Creating Layer pool4
I0923 02:43:36.459993 20394 net.cpp:396] pool4 <- conv4_3
I0923 02:43:36.460000 20394 net.cpp:358] pool4 -> pool4
I0923 02:43:36.460006 20394 net.cpp:98] Setting up pool4
I0923 02:43:36.460012 20394 net.cpp:105] Top shape: 8 512 14 14 (802816)
I0923 02:43:36.460017 20394 layer_factory.hpp:78] Creating layer conv5_1
I0923 02:43:36.460026 20394 net.cpp:69] Creating Layer conv5_1
I0923 02:43:36.460041 20394 net.cpp:396] conv5_1 <- pool4
I0923 02:43:36.460047 20394 net.cpp:358] conv5_1 -> conv5_1
I0923 02:43:36.460053 20394 net.cpp:98] Setting up conv5_1
I0923 02:43:36.468670 20394 net.cpp:105] Top shape: 8 512 14 14 (802816)
I0923 02:43:36.468689 20394 layer_factory.hpp:78] Creating layer bn5_1
I0923 02:43:36.468698 20394 net.cpp:69] Creating Layer bn5_1
I0923 02:43:36.468703 20394 net.cpp:396] bn5_1 <- conv5_1
I0923 02:43:36.468709 20394 net.cpp:347] bn5_1 -> conv5_1 (in-place)
I0923 02:43:36.468716 20394 net.cpp:98] Setting up bn5_1
I0923 02:43:36.468729 20394 net.cpp:105] Top shape: 8 512 14 14 (802816)
I0923 02:43:36.468735 20394 layer_factory.hpp:78] Creating layer relu5_1
I0923 02:43:36.468741 20394 net.cpp:69] Creating Layer relu5_1
I0923 02:43:36.468745 20394 net.cpp:396] relu5_1 <- conv5_1
I0923 02:43:36.468754 20394 net.cpp:347] relu5_1 -> conv5_1 (in-place)
I0923 02:43:36.468760 20394 net.cpp:98] Setting up relu5_1
I0923 02:43:36.468765 20394 net.cpp:105] Top shape: 8 512 14 14 (802816)
I0923 02:43:36.468768 20394 layer_factory.hpp:78] Creating layer conv5_2
I0923 02:43:36.468776 20394 net.cpp:69] Creating Layer conv5_2
I0923 02:43:36.468781 20394 net.cpp:396] conv5_2 <- conv5_1
I0923 02:43:36.468787 20394 net.cpp:358] conv5_2 -> conv5_2
I0923 02:43:36.468793 20394 net.cpp:98] Setting up conv5_2
I0923 02:43:36.474714 20394 net.cpp:105] Top shape: 8 512 14 14 (802816)
I0923 02:43:36.474731 20394 layer_factory.hpp:78] Creating layer bn5_2
I0923 02:43:36.474747 20394 net.cpp:69] Creating Layer bn5_2
I0923 02:43:36.474755 20394 net.cpp:396] bn5_2 <- conv5_2
I0923 02:43:36.474761 20394 net.cpp:347] bn5_2 -> conv5_2 (in-place)
I0923 02:43:36.474768 20394 net.cpp:98] Setting up bn5_2
I0923 02:43:36.474781 20394 net.cpp:105] Top shape: 8 512 14 14 (802816)
I0923 02:43:36.474788 20394 layer_factory.hpp:78] Creating layer relu5_2
I0923 02:43:36.474794 20394 net.cpp:69] Creating Layer relu5_2
I0923 02:43:36.474798 20394 net.cpp:396] relu5_2 <- conv5_2
I0923 02:43:36.474803 20394 net.cpp:347] relu5_2 -> conv5_2 (in-place)
I0923 02:43:36.474808 20394 net.cpp:98] Setting up relu5_2
I0923 02:43:36.474813 20394 net.cpp:105] Top shape: 8 512 14 14 (802816)
I0923 02:43:36.474818 20394 layer_factory.hpp:78] Creating layer conv5_3
I0923 02:43:36.474825 20394 net.cpp:69] Creating Layer conv5_3
I0923 02:43:36.474830 20394 net.cpp:396] conv5_3 <- conv5_2
I0923 02:43:36.474838 20394 net.cpp:358] conv5_3 -> conv5_3
I0923 02:43:36.474844 20394 net.cpp:98] Setting up conv5_3
I0923 02:43:36.482415 20394 net.cpp:105] Top shape: 8 512 14 14 (802816)
I0923 02:43:36.482435 20394 layer_factory.hpp:78] Creating layer bn5_3
I0923 02:43:36.482444 20394 net.cpp:69] Creating Layer bn5_3
I0923 02:43:36.482450 20394 net.cpp:396] bn5_3 <- conv5_3
I0923 02:43:36.482456 20394 net.cpp:347] bn5_3 -> conv5_3 (in-place)
I0923 02:43:36.482465 20394 net.cpp:98] Setting up bn5_3
I0923 02:43:36.482475 20394 net.cpp:105] Top shape: 8 512 14 14 (802816)
I0923 02:43:36.482481 20394 layer_factory.hpp:78] Creating layer relu5_3
I0923 02:43:36.482487 20394 net.cpp:69] Creating Layer relu5_3
I0923 02:43:36.482491 20394 net.cpp:396] relu5_3 <- conv5_3
I0923 02:43:36.482497 20394 net.cpp:347] relu5_3 -> conv5_3 (in-place)
I0923 02:43:36.482503 20394 net.cpp:98] Setting up relu5_3
I0923 02:43:36.482508 20394 net.cpp:105] Top shape: 8 512 14 14 (802816)
I0923 02:43:36.482512 20394 layer_factory.hpp:78] Creating layer pool5
I0923 02:43:36.482517 20394 net.cpp:69] Creating Layer pool5
I0923 02:43:36.482522 20394 net.cpp:396] pool5 <- conv5_3
I0923 02:43:36.482529 20394 net.cpp:358] pool5 -> pool5
I0923 02:43:36.482537 20394 net.cpp:98] Setting up pool5
I0923 02:43:36.482542 20394 net.cpp:105] Top shape: 8 512 7 7 (200704)
I0923 02:43:36.482547 20394 layer_factory.hpp:78] Creating layer fc6
I0923 02:43:36.482553 20394 net.cpp:69] Creating Layer fc6
I0923 02:43:36.482558 20394 net.cpp:396] fc6 <- pool5
I0923 02:43:36.482563 20394 net.cpp:358] fc6 -> fc6
I0923 02:43:36.482569 20394 net.cpp:98] Setting up fc6
I0923 02:43:36.797200 20394 net.cpp:105] Top shape: 8 4096 1 1 (32768)
I0923 02:43:36.797233 20394 layer_factory.hpp:78] Creating layer bnfc6
I0923 02:43:36.797247 20394 net.cpp:69] Creating Layer bnfc6
I0923 02:43:36.797255 20394 net.cpp:396] bnfc6 <- fc6
I0923 02:43:36.797266 20394 net.cpp:347] bnfc6 -> fc6 (in-place)
I0923 02:43:36.797276 20394 net.cpp:98] Setting up bnfc6
I0923 02:43:36.797293 20394 net.cpp:105] Top shape: 8 4096 1 1 (32768)
I0923 02:43:36.797302 20394 layer_factory.hpp:78] Creating layer relu6
I0923 02:43:36.797309 20394 net.cpp:69] Creating Layer relu6
I0923 02:43:36.797314 20394 net.cpp:396] relu6 <- fc6
I0923 02:43:36.797320 20394 net.cpp:347] relu6 -> fc6 (in-place)
I0923 02:43:36.797327 20394 net.cpp:98] Setting up relu6
I0923 02:43:36.797332 20394 net.cpp:105] Top shape: 8 4096 1 1 (32768)
I0923 02:43:36.797336 20394 layer_factory.hpp:78] Creating layer fc7
I0923 02:43:36.797343 20394 net.cpp:69] Creating Layer fc7
I0923 02:43:36.797348 20394 net.cpp:396] fc7 <- fc6
I0923 02:43:36.797354 20394 net.cpp:358] fc7 -> fc7
I0923 02:43:36.797363 20394 net.cpp:98] Setting up fc7
I0923 02:43:36.849318 20394 net.cpp:105] Top shape: 8 4096 1 1 (32768)
I0923 02:43:36.849349 20394 layer_factory.hpp:78] Creating layer bnfc7
I0923 02:43:36.849361 20394 net.cpp:69] Creating Layer bnfc7
I0923 02:43:36.849367 20394 net.cpp:396] bnfc7 <- fc7
I0923 02:43:36.849377 20394 net.cpp:347] bnfc7 -> fc7 (in-place)
I0923 02:43:36.849387 20394 net.cpp:98] Setting up bnfc7
I0923 02:43:36.849406 20394 net.cpp:105] Top shape: 8 4096 1 1 (32768)
I0923 02:43:36.849423 20394 layer_factory.hpp:78] Creating layer relu7
I0923 02:43:36.849431 20394 net.cpp:69] Creating Layer relu7
I0923 02:43:36.849436 20394 net.cpp:396] relu7 <- fc7
I0923 02:43:36.849442 20394 net.cpp:347] relu7 -> fc7 (in-place)
I0923 02:43:36.849448 20394 net.cpp:98] Setting up relu7
I0923 02:43:36.849453 20394 net.cpp:105] Top shape: 8 4096 1 1 (32768)
I0923 02:43:36.849459 20394 layer_factory.hpp:78] Creating layer fc6-deconv
I0923 02:43:36.849472 20394 net.cpp:69] Creating Layer fc6-deconv
I0923 02:43:36.849478 20394 net.cpp:396] fc6-deconv <- fc7
I0923 02:43:36.849484 20394 net.cpp:358] fc6-deconv -> fc6-deconv
I0923 02:43:36.849493 20394 net.cpp:98] Setting up fc6-deconv
I0923 02:43:39.095639 20394 net.cpp:105] Top shape: 8 512 7 7 (200704)
I0923 02:43:39.095665 20394 layer_factory.hpp:78] Creating layer fc6-deconv-bn
I0923 02:43:39.095677 20394 net.cpp:69] Creating Layer fc6-deconv-bn
I0923 02:43:39.095685 20394 net.cpp:396] fc6-deconv-bn <- fc6-deconv
I0923 02:43:39.095692 20394 net.cpp:347] fc6-deconv-bn -> fc6-deconv (in-place)
I0923 02:43:39.095701 20394 net.cpp:98] Setting up fc6-deconv-bn
I0923 02:43:39.095715 20394 net.cpp:105] Top shape: 8 512 7 7 (200704)
I0923 02:43:39.095722 20394 layer_factory.hpp:78] Creating layer fc6-deconv-relu
I0923 02:43:39.095729 20394 net.cpp:69] Creating Layer fc6-deconv-relu
I0923 02:43:39.095736 20394 net.cpp:396] fc6-deconv-relu <- fc6-deconv
I0923 02:43:39.095744 20394 net.cpp:347] fc6-deconv-relu -> fc6-deconv (in-place)
I0923 02:43:39.095752 20394 net.cpp:98] Setting up fc6-deconv-relu
I0923 02:43:39.095757 20394 net.cpp:105] Top shape: 8 512 7 7 (200704)
I0923 02:43:39.095762 20394 layer_factory.hpp:78] Creating layer unpool5
I0923 02:43:39.095767 20394 net.cpp:69] Creating Layer unpool5
I0923 02:43:39.095772 20394 net.cpp:396] unpool5 <- fc6-deconv
I0923 02:43:39.095777 20394 net.cpp:358] unpool5 -> unpool5
I0923 02:43:39.095784 20394 net.cpp:98] Setting up unpool5
I0923 02:43:39.095789 20394 net.cpp:105] Top shape: 8 512 14 14 (802816)
I0923 02:43:39.095795 20394 layer_factory.hpp:78] Creating layer deconv5_1
I0923 02:43:39.095803 20394 net.cpp:69] Creating Layer deconv5_1
I0923 02:43:39.095808 20394 net.cpp:396] deconv5_1 <- unpool5
I0923 02:43:39.095814 20394 net.cpp:358] deconv5_1 -> deconv5_1
I0923 02:43:39.095821 20394 net.cpp:98] Setting up deconv5_1
I0923 02:43:39.147913 20394 net.cpp:105] Top shape: 8 512 14 14 (802816)
I0923 02:43:39.147941 20394 layer_factory.hpp:78] Creating layer debn5_1
I0923 02:43:39.147953 20394 net.cpp:69] Creating Layer debn5_1
I0923 02:43:39.147960 20394 net.cpp:396] debn5_1 <- deconv5_1
I0923 02:43:39.147969 20394 net.cpp:347] debn5_1 -> deconv5_1 (in-place)
I0923 02:43:39.147977 20394 net.cpp:98] Setting up debn5_1
I0923 02:43:39.147989 20394 net.cpp:105] Top shape: 8 512 14 14 (802816)
I0923 02:43:39.147996 20394 layer_factory.hpp:78] Creating layer derelu5_1
I0923 02:43:39.148003 20394 net.cpp:69] Creating Layer derelu5_1
I0923 02:43:39.148007 20394 net.cpp:396] derelu5_1 <- deconv5_1
I0923 02:43:39.148013 20394 net.cpp:347] derelu5_1 -> deconv5_1 (in-place)
I0923 02:43:39.148020 20394 net.cpp:98] Setting up derelu5_1
I0923 02:43:39.148025 20394 net.cpp:105] Top shape: 8 512 14 14 (802816)
I0923 02:43:39.148033 20394 layer_factory.hpp:78] Creating layer deconv5_2
I0923 02:43:39.148039 20394 net.cpp:69] Creating Layer deconv5_2
I0923 02:43:39.148044 20394 net.cpp:396] deconv5_2 <- deconv5_1
I0923 02:43:39.148051 20394 net.cpp:358] deconv5_2 -> deconv5_2
I0923 02:43:39.148058 20394 net.cpp:98] Setting up deconv5_2
I0923 02:43:39.198170 20394 net.cpp:105] Top shape: 8 512 14 14 (802816)
I0923 02:43:39.198194 20394 layer_factory.hpp:78] Creating layer debn5_2
I0923 02:43:39.198204 20394 net.cpp:69] Creating Layer debn5_2
I0923 02:43:39.198210 20394 net.cpp:396] debn5_2 <- deconv5_2
I0923 02:43:39.198216 20394 net.cpp:347] debn5_2 -> deconv5_2 (in-place)
I0923 02:43:39.198225 20394 net.cpp:98] Setting up debn5_2
I0923 02:43:39.198240 20394 net.cpp:105] Top shape: 8 512 14 14 (802816)
I0923 02:43:39.198256 20394 layer_factory.hpp:78] Creating layer derelu5_2
I0923 02:43:39.198261 20394 net.cpp:69] Creating Layer derelu5_2
I0923 02:43:39.198266 20394 net.cpp:396] derelu5_2 <- deconv5_2
I0923 02:43:39.198271 20394 net.cpp:347] derelu5_2 -> deconv5_2 (in-place)
I0923 02:43:39.198276 20394 net.cpp:98] Setting up derelu5_2
I0923 02:43:39.198284 20394 net.cpp:105] Top shape: 8 512 14 14 (802816)
I0923 02:43:39.198290 20394 layer_factory.hpp:78] Creating layer deconv5_3
I0923 02:43:39.198298 20394 net.cpp:69] Creating Layer deconv5_3
I0923 02:43:39.198303 20394 net.cpp:396] deconv5_3 <- deconv5_2
I0923 02:43:39.198309 20394 net.cpp:358] deconv5_3 -> deconv5_3
I0923 02:43:39.198317 20394 net.cpp:98] Setting up deconv5_3
I0923 02:43:39.249667 20394 net.cpp:105] Top shape: 8 512 14 14 (802816)
I0923 02:43:39.249691 20394 layer_factory.hpp:78] Creating layer debn5_3
I0923 02:43:39.249701 20394 net.cpp:69] Creating Layer debn5_3
I0923 02:43:39.249707 20394 net.cpp:396] debn5_3 <- deconv5_3
I0923 02:43:39.249716 20394 net.cpp:347] debn5_3 -> deconv5_3 (in-place)
I0923 02:43:39.249723 20394 net.cpp:98] Setting up debn5_3
I0923 02:43:39.249737 20394 net.cpp:105] Top shape: 8 512 14 14 (802816)
I0923 02:43:39.249745 20394 layer_factory.hpp:78] Creating layer derelu5_3
I0923 02:43:39.249757 20394 net.cpp:69] Creating Layer derelu5_3
I0923 02:43:39.249763 20394 net.cpp:396] derelu5_3 <- deconv5_3
I0923 02:43:39.249768 20394 net.cpp:347] derelu5_3 -> deconv5_3 (in-place)
I0923 02:43:39.249773 20394 net.cpp:98] Setting up derelu5_3
I0923 02:43:39.249779 20394 net.cpp:105] Top shape: 8 512 14 14 (802816)
I0923 02:43:39.249785 20394 layer_factory.hpp:78] Creating layer unpool4
I0923 02:43:39.249793 20394 net.cpp:69] Creating Layer unpool4
I0923 02:43:39.249797 20394 net.cpp:396] unpool4 <- deconv5_3
I0923 02:43:39.249804 20394 net.cpp:358] unpool4 -> unpool4
I0923 02:43:39.249811 20394 net.cpp:98] Setting up unpool4
I0923 02:43:39.249817 20394 net.cpp:105] Top shape: 8 512 28 28 (3211264)
I0923 02:43:39.249822 20394 layer_factory.hpp:78] Creating layer deconv4_1
I0923 02:43:39.249829 20394 net.cpp:69] Creating Layer deconv4_1
I0923 02:43:39.249833 20394 net.cpp:396] deconv4_1 <- unpool4
I0923 02:43:39.249840 20394 net.cpp:358] deconv4_1 -> deconv4_1
I0923 02:43:39.249846 20394 net.cpp:98] Setting up deconv4_1
I0923 02:43:39.300129 20394 net.cpp:105] Top shape: 8 512 28 28 (3211264)
I0923 02:43:39.300153 20394 layer_factory.hpp:78] Creating layer debn4_1
I0923 02:43:39.300161 20394 net.cpp:69] Creating Layer debn4_1
I0923 02:43:39.300168 20394 net.cpp:396] debn4_1 <- deconv4_1
I0923 02:43:39.300175 20394 net.cpp:347] debn4_1 -> deconv4_1 (in-place)
I0923 02:43:39.300184 20394 net.cpp:98] Setting up debn4_1
I0923 02:43:39.300200 20394 net.cpp:105] Top shape: 8 512 28 28 (3211264)
I0923 02:43:39.300209 20394 layer_factory.hpp:78] Creating layer derelu4_1
I0923 02:43:39.300215 20394 net.cpp:69] Creating Layer derelu4_1
I0923 02:43:39.300221 20394 net.cpp:396] derelu4_1 <- deconv4_1
I0923 02:43:39.300230 20394 net.cpp:347] derelu4_1 -> deconv4_1 (in-place)
I0923 02:43:39.300235 20394 net.cpp:98] Setting up derelu4_1
I0923 02:43:39.300241 20394 net.cpp:105] Top shape: 8 512 28 28 (3211264)
I0923 02:43:39.300251 20394 layer_factory.hpp:78] Creating layer deconv4_2
I0923 02:43:39.300263 20394 net.cpp:69] Creating Layer deconv4_2
I0923 02:43:39.300268 20394 net.cpp:396] deconv4_2 <- deconv4_1
I0923 02:43:39.300276 20394 net.cpp:358] deconv4_2 -> deconv4_2
I0923 02:43:39.300285 20394 net.cpp:98] Setting up deconv4_2
I0923 02:43:39.351655 20394 net.cpp:105] Top shape: 8 512 28 28 (3211264)
I0923 02:43:39.351680 20394 layer_factory.hpp:78] Creating layer debn4_2
I0923 02:43:39.351691 20394 net.cpp:69] Creating Layer debn4_2
I0923 02:43:39.351696 20394 net.cpp:396] debn4_2 <- deconv4_2
I0923 02:43:39.351706 20394 net.cpp:347] debn4_2 -> deconv4_2 (in-place)
I0923 02:43:39.351714 20394 net.cpp:98] Setting up debn4_2
I0923 02:43:39.351727 20394 net.cpp:105] Top shape: 8 512 28 28 (3211264)
I0923 02:43:39.351735 20394 layer_factory.hpp:78] Creating layer derelu4_2
I0923 02:43:39.351752 20394 net.cpp:69] Creating Layer derelu4_2
I0923 02:43:39.351758 20394 net.cpp:396] derelu4_2 <- deconv4_2
I0923 02:43:39.351763 20394 net.cpp:347] derelu4_2 -> deconv4_2 (in-place)
I0923 02:43:39.351770 20394 net.cpp:98] Setting up derelu4_2
I0923 02:43:39.351775 20394 net.cpp:105] Top shape: 8 512 28 28 (3211264)
I0923 02:43:39.351780 20394 layer_factory.hpp:78] Creating layer deconv4_3
I0923 02:43:39.351788 20394 net.cpp:69] Creating Layer deconv4_3
I0923 02:43:39.351794 20394 net.cpp:396] deconv4_3 <- deconv4_2
I0923 02:43:39.351799 20394 net.cpp:358] deconv4_3 -> deconv4_3
I0923 02:43:39.351806 20394 net.cpp:98] Setting up deconv4_3
I0923 02:43:39.376094 20394 net.cpp:105] Top shape: 8 256 28 28 (1605632)
I0923 02:43:39.376108 20394 layer_factory.hpp:78] Creating layer debn4_3
I0923 02:43:39.376116 20394 net.cpp:69] Creating Layer debn4_3
I0923 02:43:39.376121 20394 net.cpp:396] debn4_3 <- deconv4_3
I0923 02:43:39.376129 20394 net.cpp:347] debn4_3 -> deconv4_3 (in-place)
I0923 02:43:39.376137 20394 net.cpp:98] Setting up debn4_3
I0923 02:43:39.376152 20394 net.cpp:105] Top shape: 8 256 28 28 (1605632)
I0923 02:43:39.376158 20394 layer_factory.hpp:78] Creating layer derelu4_3
I0923 02:43:39.376164 20394 net.cpp:69] Creating Layer derelu4_3
I0923 02:43:39.376168 20394 net.cpp:396] derelu4_3 <- deconv4_3
I0923 02:43:39.376173 20394 net.cpp:347] derelu4_3 -> deconv4_3 (in-place)
I0923 02:43:39.376179 20394 net.cpp:98] Setting up derelu4_3
I0923 02:43:39.376184 20394 net.cpp:105] Top shape: 8 256 28 28 (1605632)
I0923 02:43:39.376193 20394 layer_factory.hpp:78] Creating layer unpool3
I0923 02:43:39.376199 20394 net.cpp:69] Creating Layer unpool3
I0923 02:43:39.376204 20394 net.cpp:396] unpool3 <- deconv4_3
I0923 02:43:39.376209 20394 net.cpp:358] unpool3 -> unpool3
I0923 02:43:39.376216 20394 net.cpp:98] Setting up unpool3
I0923 02:43:39.376221 20394 net.cpp:105] Top shape: 8 256 56 56 (6422528)
I0923 02:43:39.376229 20394 layer_factory.hpp:78] Creating layer deconv3_1
I0923 02:43:39.376236 20394 net.cpp:69] Creating Layer deconv3_1
I0923 02:43:39.376242 20394 net.cpp:396] deconv3_1 <- unpool3
I0923 02:43:39.376250 20394 net.cpp:358] deconv3_1 -> deconv3_1
I0923 02:43:39.376257 20394 net.cpp:98] Setting up deconv3_1
I0923 02:43:39.387917 20394 net.cpp:105] Top shape: 8 256 56 56 (6422528)
I0923 02:43:39.387928 20394 layer_factory.hpp:78] Creating layer debn3_1
I0923 02:43:39.387934 20394 net.cpp:69] Creating Layer debn3_1
I0923 02:43:39.387939 20394 net.cpp:396] debn3_1 <- deconv3_1
I0923 02:43:39.387945 20394 net.cpp:347] debn3_1 -> deconv3_1 (in-place)
I0923 02:43:39.387953 20394 net.cpp:98] Setting up debn3_1
I0923 02:43:39.387966 20394 net.cpp:105] Top shape: 8 256 56 56 (6422528)
I0923 02:43:39.387974 20394 layer_factory.hpp:78] Creating layer derelu3_1
I0923 02:43:39.387979 20394 net.cpp:69] Creating Layer derelu3_1
I0923 02:43:39.387984 20394 net.cpp:396] derelu3_1 <- deconv3_1
I0923 02:43:39.387989 20394 net.cpp:347] derelu3_1 -> deconv3_1 (in-place)
I0923 02:43:39.387995 20394 net.cpp:98] Setting up derelu3_1
I0923 02:43:39.388000 20394 net.cpp:105] Top shape: 8 256 56 56 (6422528)
I0923 02:43:39.388005 20394 layer_factory.hpp:78] Creating layer deconv3_2
I0923 02:43:39.388012 20394 net.cpp:69] Creating Layer deconv3_2
I0923 02:43:39.388017 20394 net.cpp:396] deconv3_2 <- deconv3_1
I0923 02:43:39.388023 20394 net.cpp:358] deconv3_2 -> deconv3_2
I0923 02:43:39.388031 20394 net.cpp:98] Setting up deconv3_2
I0923 02:43:39.399698 20394 net.cpp:105] Top shape: 8 256 56 56 (6422528)
I0923 02:43:39.399709 20394 layer_factory.hpp:78] Creating layer debn3_2
I0923 02:43:39.399716 20394 net.cpp:69] Creating Layer debn3_2
I0923 02:43:39.399721 20394 net.cpp:396] debn3_2 <- deconv3_2
I0923 02:43:39.399727 20394 net.cpp:347] debn3_2 -> deconv3_2 (in-place)
I0923 02:43:39.399734 20394 net.cpp:98] Setting up debn3_2
I0923 02:43:39.399746 20394 net.cpp:105] Top shape: 8 256 56 56 (6422528)
I0923 02:43:39.399752 20394 layer_factory.hpp:78] Creating layer derelu3_2
I0923 02:43:39.399766 20394 net.cpp:69] Creating Layer derelu3_2
I0923 02:43:39.399771 20394 net.cpp:396] derelu3_2 <- deconv3_2
I0923 02:43:39.399777 20394 net.cpp:347] derelu3_2 -> deconv3_2 (in-place)
I0923 02:43:39.399783 20394 net.cpp:98] Setting up derelu3_2
I0923 02:43:39.399788 20394 net.cpp:105] Top shape: 8 256 56 56 (6422528)
I0923 02:43:39.399793 20394 layer_factory.hpp:78] Creating layer deconv3_3
I0923 02:43:39.399799 20394 net.cpp:69] Creating Layer deconv3_3
I0923 02:43:39.399804 20394 net.cpp:396] deconv3_3 <- deconv3_2
I0923 02:43:39.399811 20394 net.cpp:358] deconv3_3 -> deconv3_3
I0923 02:43:39.399819 20394 net.cpp:98] Setting up deconv3_3
I0923 02:43:39.405663 20394 net.cpp:105] Top shape: 8 128 56 56 (3211264)
I0923 02:43:39.405673 20394 layer_factory.hpp:78] Creating layer debn3_3
I0923 02:43:39.405680 20394 net.cpp:69] Creating Layer debn3_3
I0923 02:43:39.405685 20394 net.cpp:396] debn3_3 <- deconv3_3
I0923 02:43:39.405691 20394 net.cpp:347] debn3_3 -> deconv3_3 (in-place)
I0923 02:43:39.405697 20394 net.cpp:98] Setting up debn3_3
I0923 02:43:39.405712 20394 net.cpp:105] Top shape: 8 128 56 56 (3211264)
I0923 02:43:39.405719 20394 layer_factory.hpp:78] Creating layer derelu3_3
I0923 02:43:39.405725 20394 net.cpp:69] Creating Layer derelu3_3
I0923 02:43:39.405728 20394 net.cpp:396] derelu3_3 <- deconv3_3
I0923 02:43:39.405733 20394 net.cpp:347] derelu3_3 -> deconv3_3 (in-place)
I0923 02:43:39.405740 20394 net.cpp:98] Setting up derelu3_3
I0923 02:43:39.405745 20394 net.cpp:105] Top shape: 8 128 56 56 (3211264)
I0923 02:43:39.405751 20394 layer_factory.hpp:78] Creating layer unpool2
I0923 02:43:39.405758 20394 net.cpp:69] Creating Layer unpool2
I0923 02:43:39.405763 20394 net.cpp:396] unpool2 <- deconv3_3
I0923 02:43:39.405768 20394 net.cpp:358] unpool2 -> unpool2
I0923 02:43:39.405776 20394 net.cpp:98] Setting up unpool2
I0923 02:43:39.405781 20394 net.cpp:105] Top shape: 8 128 112 112 (12845056)
I0923 02:43:39.405786 20394 layer_factory.hpp:78] Creating layer deconv2_1
I0923 02:43:39.405791 20394 net.cpp:69] Creating Layer deconv2_1
I0923 02:43:39.405797 20394 net.cpp:396] deconv2_1 <- unpool2
I0923 02:43:39.405802 20394 net.cpp:358] deconv2_1 -> deconv2_1
I0923 02:43:39.405808 20394 net.cpp:98] Setting up deconv2_1
I0923 02:43:39.408741 20394 net.cpp:105] Top shape: 8 128 112 112 (12845056)
I0923 02:43:39.408751 20394 layer_factory.hpp:78] Creating layer debn2_1
I0923 02:43:39.408758 20394 net.cpp:69] Creating Layer debn2_1
I0923 02:43:39.408762 20394 net.cpp:396] debn2_1 <- deconv2_1
I0923 02:43:39.408768 20394 net.cpp:347] debn2_1 -> deconv2_1 (in-place)
I0923 02:43:39.408774 20394 net.cpp:98] Setting up debn2_1
I0923 02:43:39.408807 20394 net.cpp:105] Top shape: 8 128 112 112 (12845056)
I0923 02:43:39.408813 20394 layer_factory.hpp:78] Creating layer derelu2_1
I0923 02:43:39.408819 20394 net.cpp:69] Creating Layer derelu2_1
I0923 02:43:39.408823 20394 net.cpp:396] derelu2_1 <- deconv2_1
I0923 02:43:39.408828 20394 net.cpp:347] derelu2_1 -> deconv2_1 (in-place)
I0923 02:43:39.408834 20394 net.cpp:98] Setting up derelu2_1
I0923 02:43:39.408839 20394 net.cpp:105] Top shape: 8 128 112 112 (12845056)
I0923 02:43:39.408844 20394 layer_factory.hpp:78] Creating layer deconv2_2
I0923 02:43:39.408851 20394 net.cpp:69] Creating Layer deconv2_2
I0923 02:43:39.408856 20394 net.cpp:396] deconv2_2 <- deconv2_1
I0923 02:43:39.408862 20394 net.cpp:358] deconv2_2 -> deconv2_2
I0923 02:43:39.408869 20394 net.cpp:98] Setting up deconv2_2
I0923 02:43:39.410346 20394 net.cpp:105] Top shape: 8 64 112 112 (6422528)
I0923 02:43:39.410354 20394 layer_factory.hpp:78] Creating layer debn2_2
I0923 02:43:39.410361 20394 net.cpp:69] Creating Layer debn2_2
I0923 02:43:39.410365 20394 net.cpp:396] debn2_2 <- deconv2_2
I0923 02:43:39.410372 20394 net.cpp:347] debn2_2 -> deconv2_2 (in-place)
I0923 02:43:39.410377 20394 net.cpp:98] Setting up debn2_2
I0923 02:43:39.410409 20394 net.cpp:105] Top shape: 8 64 112 112 (6422528)
I0923 02:43:39.410418 20394 layer_factory.hpp:78] Creating layer derelu2_2
I0923 02:43:39.410423 20394 net.cpp:69] Creating Layer derelu2_2
I0923 02:43:39.410434 20394 net.cpp:396] derelu2_2 <- deconv2_2
I0923 02:43:39.410440 20394 net.cpp:347] derelu2_2 -> deconv2_2 (in-place)
I0923 02:43:39.410449 20394 net.cpp:98] Setting up derelu2_2
I0923 02:43:39.410455 20394 net.cpp:105] Top shape: 8 64 112 112 (6422528)
I0923 02:43:39.410461 20394 layer_factory.hpp:78] Creating layer unpool1
I0923 02:43:39.410467 20394 net.cpp:69] Creating Layer unpool1
I0923 02:43:39.410472 20394 net.cpp:396] unpool1 <- deconv2_2
I0923 02:43:39.410478 20394 net.cpp:358] unpool1 -> unpool1
I0923 02:43:39.410485 20394 net.cpp:98] Setting up unpool1
I0923 02:43:39.410490 20394 net.cpp:105] Top shape: 8 64 224 224 (25690112)
I0923 02:43:39.410495 20394 layer_factory.hpp:78] Creating layer deconv1_1
I0923 02:43:39.410501 20394 net.cpp:69] Creating Layer deconv1_1
I0923 02:43:39.410506 20394 net.cpp:396] deconv1_1 <- unpool1
I0923 02:43:39.410512 20394 net.cpp:358] deconv1_1 -> deconv1_1
I0923 02:43:39.410518 20394 net.cpp:98] Setting up deconv1_1
I0923 02:43:39.411301 20394 net.cpp:105] Top shape: 8 64 224 224 (25690112)
I0923 02:43:39.411310 20394 layer_factory.hpp:78] Creating layer debn1_1
I0923 02:43:39.411317 20394 net.cpp:69] Creating Layer debn1_1
I0923 02:43:39.411321 20394 net.cpp:396] debn1_1 <- deconv1_1
I0923 02:43:39.411327 20394 net.cpp:347] debn1_1 -> deconv1_1 (in-place)
I0923 02:43:39.411334 20394 net.cpp:98] Setting up debn1_1
I0923 02:43:39.411433 20394 net.cpp:105] Top shape: 8 64 224 224 (25690112)
I0923 02:43:39.411442 20394 layer_factory.hpp:78] Creating layer derelu1_1
I0923 02:43:39.411448 20394 net.cpp:69] Creating Layer derelu1_1
I0923 02:43:39.411453 20394 net.cpp:396] derelu1_1 <- deconv1_1
I0923 02:43:39.411459 20394 net.cpp:347] derelu1_1 -> deconv1_1 (in-place)
I0923 02:43:39.411465 20394 net.cpp:98] Setting up derelu1_1
I0923 02:43:39.411470 20394 net.cpp:105] Top shape: 8 64 224 224 (25690112)
I0923 02:43:39.411475 20394 layer_factory.hpp:78] Creating layer deconv1_2
I0923 02:43:39.411483 20394 net.cpp:69] Creating Layer deconv1_2
I0923 02:43:39.411487 20394 net.cpp:396] deconv1_2 <- deconv1_1
I0923 02:43:39.411494 20394 net.cpp:358] deconv1_2 -> deconv1_2
I0923 02:43:39.411500 20394 net.cpp:98] Setting up deconv1_2
I0923 02:43:39.412303 20394 net.cpp:105] Top shape: 8 64 224 224 (25690112)
I0923 02:43:39.412313 20394 layer_factory.hpp:78] Creating layer debn1_2
I0923 02:43:39.412320 20394 net.cpp:69] Creating Layer debn1_2
I0923 02:43:39.412325 20394 net.cpp:396] debn1_2 <- deconv1_2
I0923 02:43:39.412333 20394 net.cpp:347] debn1_2 -> deconv1_2 (in-place)
I0923 02:43:39.412339 20394 net.cpp:98] Setting up debn1_2
I0923 02:43:39.412436 20394 net.cpp:105] Top shape: 8 64 224 224 (25690112)
I0923 02:43:39.412444 20394 layer_factory.hpp:78] Creating layer derelu1_2
I0923 02:43:39.412451 20394 net.cpp:69] Creating Layer derelu1_2
I0923 02:43:39.412456 20394 net.cpp:396] derelu1_2 <- deconv1_2
I0923 02:43:39.412462 20394 net.cpp:347] derelu1_2 -> deconv1_2 (in-place)
I0923 02:43:39.412468 20394 net.cpp:98] Setting up derelu1_2
I0923 02:43:39.412473 20394 net.cpp:105] Top shape: 8 64 224 224 (25690112)
I0923 02:43:39.412478 20394 layer_factory.hpp:78] Creating layer seg-score-voc
I0923 02:43:39.412484 20394 net.cpp:69] Creating Layer seg-score-voc
I0923 02:43:39.412489 20394 net.cpp:396] seg-score-voc <- deconv1_2
I0923 02:43:39.412495 20394 net.cpp:358] seg-score-voc -> seg-score
I0923 02:43:39.412503 20394 net.cpp:98] Setting up seg-score-voc
I0923 02:43:39.412585 20394 net.cpp:105] Top shape: 8 21 224 224 (8429568)
I0923 02:43:39.412593 20394 layer_factory.hpp:78] Creating layer seg-score_seg-score-voc_0_split
I0923 02:43:39.412600 20394 net.cpp:69] Creating Layer seg-score_seg-score-voc_0_split
I0923 02:43:39.412606 20394 net.cpp:396] seg-score_seg-score-voc_0_split <- seg-score
I0923 02:43:39.412611 20394 net.cpp:358] seg-score_seg-score-voc_0_split -> seg-score_seg-score-voc_0_split_0
I0923 02:43:39.412618 20394 net.cpp:358] seg-score_seg-score-voc_0_split -> seg-score_seg-score-voc_0_split_1
I0923 02:43:39.412626 20394 net.cpp:98] Setting up seg-score_seg-score-voc_0_split
I0923 02:43:39.412637 20394 net.cpp:105] Top shape: 8 21 224 224 (8429568)
I0923 02:43:39.412643 20394 net.cpp:105] Top shape: 8 21 224 224 (8429568)
I0923 02:43:39.412648 20394 layer_factory.hpp:78] Creating layer seg-accuracy
I0923 02:43:39.412657 20394 net.cpp:69] Creating Layer seg-accuracy
I0923 02:43:39.412662 20394 net.cpp:396] seg-accuracy <- seg-score_seg-score-voc_0_split_0
I0923 02:43:39.412667 20394 net.cpp:396] seg-accuracy <- seg-label_data_1_split_0
I0923 02:43:39.412674 20394 net.cpp:358] seg-accuracy -> seg-accuracy
I0923 02:43:39.412681 20394 net.cpp:98] Setting up seg-accuracy
I0923 02:43:39.412688 20394 net.cpp:105] Top shape: 1 1 1 1 (1)
I0923 02:43:39.412693 20394 layer_factory.hpp:78] Creating layer seg-loss
I0923 02:43:39.412699 20394 net.cpp:69] Creating Layer seg-loss
I0923 02:43:39.412704 20394 net.cpp:396] seg-loss <- seg-score_seg-score-voc_0_split_1
I0923 02:43:39.412710 20394 net.cpp:396] seg-loss <- seg-label_data_1_split_1
I0923 02:43:39.412716 20394 net.cpp:358] seg-loss -> seg-loss
I0923 02:43:39.412724 20394 net.cpp:98] Setting up seg-loss
I0923 02:43:39.412730 20394 net.cpp:105] Top shape: 1 1 1 1 (1)
I0923 02:43:39.412735 20394 net.cpp:111]     with loss weight 1
I0923 02:43:39.412745 20394 net.cpp:172] seg-loss needs backward computation.
I0923 02:43:39.412751 20394 net.cpp:174] seg-accuracy does not need backward computation.
I0923 02:43:39.412756 20394 net.cpp:172] seg-score_seg-score-voc_0_split needs backward computation.
I0923 02:43:39.412760 20394 net.cpp:172] seg-score-voc needs backward computation.
…
